pretrained/best_02_16-11_07_42.pt (torch_old, 30900 bytes, 16 tensors)

embedding.weight f4 [79, 64]
0.10806155 0.13324952 0.22442624 0.10783336 -0.05752403 0.1699377 0.08561607 0.10609414
-0.031099057 -0.17353424 0.0060357247 0.1085627 -0.07611987 -0.09160928 -0.060164876 -0.078041315
-0.013794094 0.112303495 -0.0718241 -0.02010705 -0.030455735 -0.012142777 -0.07781848 0.13223934
-0.105140835 0.07090267 0.1639187 -0.04291736 0.118456334 0.12881023 0.061092958 0.16068463
0.022026446 -0.039759513 -0.00165053 -0.3145979 0.03199512 -0.13163465 0.10152976 0.11201998
-0.27955228 -0.112293735 0.2945774 0.018388592 0.12480019 -0.010305681 -0.02307445 0.10650777
0.14191586 0.016655235 0.034987144 0.06928721 -0.12525927 -0.07455428 0.12444208 -0.05154734
-0.036643345 0.21885945 -0.086935624 0.15839532 0.076309 -0.024580905 -0.08026321 0.22940286
0.05387175 0.015653282 -0.009386946 0.011622343 -0.04668053 -0.0044286656 -0.0024309014 -0.0047679367
0.08943563 0.07022536 0.06321977 0.018551547 0.010202045 -0.015907573 -0.0062767984 0.0016590385
-0.093662605 0.06631033 0.38655666 8.63959e-05 0.0704652 0.2188484 -0.03423799 -0.003941486
0.0026213832 0.016679946 -0.09727359 -0.14290851 -0.031158604 -0.0017398914 0.04198905 0.0075614545
0.021740023 0.024090286 0.08801255 0.050809745 -0.008990193 0.25872982 0.011072281 -0.05303195
-0.13723104 -0.1866 -0.0048501636 -0.024360968 -0.018290382 -0.14695345 0.044592086 -0.0019832582
-0.04779337 0.01731588 0.09206428 0.0027666546 -0.025268653 -0.0418264 -0.005460363 -0.05410871
0.011946201 0.0013270605 0.0008362481 0.0112409135 0.015330007 -0.036909714 -0.020483075 -0.0006936706
-0.43187794 0.022949701 -0.0055245752 -0.13562348 0.19444896 -0.058833256 0.00646804 -0.005475478
0.04235626 0.15594561 0.04848844 -0.39428258 -0.21239182 0.028353978 0.21444511 -0.0625949
-0.01963152 0.20424867 0.5437327 0.0030070958 -0.074681036 0.23149978 -0.046751827 -0.1006772
-0.025302047 0.03133271 -0.16186485 -0.002149248 -0.2531074 -0.09042452 -0.02592527 0.010976409
0.01823709 -0.08465318 0.83992034 -0.3438255 -0.042094167 0.34075382 0.013586906 -0.002703177
0.066905245 0.0024309552 -0.004338242 -0.08775176 -0.10936037 -0.32368326 0.11242219 -0.0012844239
-0.06141284 0.048667226 -0.43331936 -0.038707186 0.002453191 -0.2933581 -0.09762786 0.34395388
-0.05607342 -0.00075020525 0.0029779763 -0.2755483 -0.09024305 -0.040865924 0.056322936 -0.0027842848
-0.13335407 0.019746032 0.012032211 -0.25105062 -0.016134484 0.026112001 -0.03089254 0.077281
-0.21970625 -0.06805903 0.0059263622 -0.21337153 -0.02975793 0.08455194 -0.21337055 -0.0019524879
0.08478908 0.10282856 0.18811762 0.13482617 -0.06726545 0.09342134 -0.19082633 0.06503493
0.11133027 0.051692303 -0.19443078 0.096460596 0.09959884 0.02996584 0.09599864 -0.043799005
0.09832754 0.12897286 0.12446058 -0.050452646 0.11221018 0.07887664 0.056211818 0.04650278
-0.02812308 0.023550289 -0.13144459 0.116206415 0.08898616 0.10466132 -0.008298974 0.0340795
0.0455215 0.14626403 -0.14692117 -0.00967361 -0.06203074 0.1287072 0.0571463 -0.16592355
0.087403536 0.014427474 -0.013464278 -0.029301926 0.017139686 0.13644679 -0.025070276 0.00027703666
00000000: 604f dd3d 9072 083e fecf 653e bdd7 dc3d
00000010: 519e 6bbd 2604 2e3e 7a57 af3d e247 d93d
00000020: 73c3 febc f6b2 31be 54c7 c53b 1f56 de3d
00000030: bce4 9bbd a59d bbbd 726f 76bd 20d4 9fbd
00000040: a000 62bc 60ff e53d 8418 93bd 8ab7 a4bc
00000050: 4e7e f9bc 80f2 46bc 4c5f 9fbd c069 073e
00000060: 1454 d7bd 6b35 913d 4eda 273e 1dca 2fbd
00000070: 3c99 f23d d4e6 033e 9c3c 7a3d 838a 243e
00000080: ce70 b43c dfda 22bd 9956 d8ba fa12 a1be
00000090: 510d 033d 3ccb 06be d6ee cf3d bb6a e53d
000000a0: 7a21 8fbe 42fa e5bd d9d2 963e aca3 963c
000000b0: 3e97 ff3d 29d9 28bc a106 bdbc bf20 da3d
000000c0: 6452 113e 8f70 883c ae4e 0f3d 74e6 8d3d
000000d0: f743 00be eaaf 98bd 7ddb fe3d 4e23 53bd
000000e0: 5517 16bd b11c 603e 4e0b b2bd 6232 223e
000000f0: e547 9c3d e55d c9bc 0a61 a4bd 95e8 6a3e
00000100: a0a8 5c3d 503b 803c b5cb 19bc a46b 3e3c
00000110: 1534 3fbd 571e 91bb c24f 1fbb 5a3c 9cbb
00000120: 072a b73d 50d2 8f3d 5e79 813d 6af9 973c
00000130: 7a26 273c 9950 82bc 9aad cdbb 1874 d93a
00000140: 2ed2 bfbd b6cd 873d c1ea c53e 722f b538
00000150: 0f50 903d cc19 603e 223d 0cbd 9527 81bb
00000160: 83cb 2b3b 62a4 883c 6037 c7bd 9c56 12be
00000170: 5440 ffbc 110d e4ba b6fc 2b3d 14c6 f73b
00000180: 2218 b23c fe58 c53c ec3f b43d e11d 503d
00000190: 9a4b 13bc 3c78 843e 8368 353c 0838 59bd
000001a0: 4b86 0cbe 1214 3fbe 1fee 9ebb a790 c7bc
000001b0: b6d5 95bc f77a 16be 31a6 363d 8df9 01bb
000001c0: fbc2 43bd 08da 8d3c 328c bc3d c350 353b
000001d0: 3500 cfbc 2952 2bbd d8ec b2bb 18a1 5dbd
000001e0: 00ba 433c c3f0 ad3a a937 5b3a cf2b 383c
000001f0: b62a 7b3c a42e 17bd 1fcc a7bc 72d7 35ba
00000200: 1b1f ddbe 0301 bc3c 7f07 b5bb e2e0 0abe
00000210: a11d 473e 24fb 70bd daf1 d33b a36b b3bb
00000220: c27d 2d3d 35b0 1f3e d19b 463d 68df c9be
00000230: 3e7d 59be 9a46 e83c 8097 5b3e c131 80bd
00000240: 48d2 a0bc 9026 513e 1132 0b3f b212 453b
00000250: 5ff2 98bd 470e 6d3e d87e 3fbd d92f cebd
00000260: 3d46 cfbc ba56 003d e6bf 25be 66da 0cbb
00000270: 4b97 81be 7e30 b9bd 3b61 d4bc 65d6 333c
00000280: f365 953c a55e adbd 0505 573f e509 b0be
00000290: ef6a 2cbd 4977 ae3e 9d9b 5e3c c927 31bb
000002a0: 9e05 893d a950 1f3b d027 8ebb 32b7 b3bd
000002b0: 54f8 dfbd d0b9 a5be 9b3d e63d 1d5a a8ba
000002c0: 088c 7bbd 4957 473d 09dc ddbe 6d8b 1ebd
000002d0: b7c5 203b 0833 96be 1ef1 c7bd b91a b03e
000002e0: 3ead 65bd 6ca9 44ba 272a 433b ab14 8dbe
000002f0: 59d1 b8bd 0763 27bd e1b2 663d 8c78 36bb
00000300: f88d 08be 6ec2 a13c c022 453c b589 80be
00000310: 772c 84bc d6e8 d53c 5a12 fdbc 8045 9e3d
00000320: adfa 60be 8862 8bbd ee31 c23b 117e 5abe
00000330: e7c6 f3bc 9129 ad3d cf7d 5abe 9fea ffba
00000340: e6a5 ad3d c897 d23d e8a1 403e df0f 0a3e
00000350: 78c2 89bd b053 bf3d fa67 43be 0931 853d
00000360: 2001 e43d 4fbb 533d dd18 47be 228d c53d
00000370: 7afa cb3d ec7a f53c ef9a c43d 9666 33bd
00000380: f35f c93d 7611 043e 30e5 fe3d 6fa7 4ebd
00000390: 73ce e53d 138a a13d 5d3e 663d b379 3e3d
000003a0: 6062 e6bc 89ec c03c 6999 06be a1fd ed3d
000003b0: 603e b63d ad58 d63d 6bf8 07bc f296 0b3d
000003c0: c174 3a3d 3dc6 153e 8172 16be 107e 1ebc
000003d0: f213 7ebd d2cb 033e 3d12 6a3d dde7 29be
000003e0: a000 b33d 3661 6c3c 4699 5cbc 980a f0bc
000003f0: 8768 8c3c b5b8 0b3e 2e60 cdbc 3b3f 9139

bn_outlayer_in.weight f4 [64]
0.96812636 0.9568211 0.997581 0.9613483 0.96449757 1.0408732 0.9425573 0.9565546
0.93778104 0.9631491 0.9034941 1.0328466 0.9921564 0.9255076 1.0480547 0.929805
0.96906435 0.93082124 0.9187576 0.9215555 0.97224 0.930014 1.062049 0.95826006
0.9579529 0.9545418 0.9502318 0.8992943 1.0565194 1.0199248 0.9571705 0.9539662
0.9226252 0.99134237 0.8984613 1.0147209 1.0178733 0.9729412 0.9363686 0.9792743
0.98922324 0.9617832 0.96825093 1.0120242 1.0638355 0.9987448 0.9352094 1.0593984
1.044084 0.972593 0.927044 0.9646984 0.98244095 0.98519146 1.0015941 1.0123498
0.99695134 0.9398152 0.91747004 1.0080827 0.9882435 0.9728659 0.9798049 0.98986775
00000000: 21d7 773f 3af2 743f 7861 7f3f ec1a 763f
00000010: 50e9 763f 553b 853f 6f4b 713f c3e0 743f
00000020: 6b12 703f f090 763f 644b 673f 5134 843f
00000030: f6fd 7d3f 11ee 6c3f a826 863f b307 6e3f
00000040: 9a14 783f 4d4a 6e3f b333 6b3f 10eb 6b3f
00000050: b8e4 783f 6615 6e3f 39f1 873f 8850 753f
00000060: 673c 753f da5c 743f 6442 733f 2738 663f
00000070: 073c 873f e58c 823f 2009 753f 2137 743f
00000080: 2a31 6c3f 9dc8 7d3f 8f01 663f 60e2 813f
00000090: ac49 823f ad12 793f dab5 6f3f b8b1 7a3f
000000a0: bc3d 7d3f 6c37 763f 4bdf 773f 028a 813f
000000b0: c32b 883f bdad 7f3f e269 6f3f 5e9a 873f
000000c0: 8ba4 853f dbfb 783f c152 6d3f 79f6 763f
000000d0: 4081 7b3f 8235 7c3f 3c34 803f ae94 813f
000000e0: 3438 7f3f bb97 703f 51df 6a3f db08 813f
000000f0: 87fd 7c3f bd0d 793f 7ed4 7a3f f967 7d3f

bn_outlayer_in.bias f4 [64]
-0.027102644 -0.2535381 -0.056385536 -0.11962517 -0.2077679 -0.07269976 0.009613283 -0.17130747
-0.10038435 -0.08179934 -0.4162272 -0.03465348 0.05051729 -0.14596066 0.16590029 -0.1281465
-0.04780717 -0.107529186 -0.16896549 -0.06335387 0.027626878 -0.01384887 -0.13270071 -0.10658906
-0.14984448 -0.17102312 -0.03895374 -0.028250067 -0.033756778 -0.08847992 -0.045042966 -0.177741
-0.17934711 -0.06145341 -0.0058203368 0.07878639 -0.15140784 -0.11352718 -0.17895725 -0.11764116
0.026111 -0.02213069 -0.1510925 0.014562359 -0.06411583 -0.108357094 -0.31109995 -0.10565663
-0.06732199 -0.10708418 -0.10292328 -0.09764447 -0.05140577 -0.05038475 -0.096578486 -0.12115753
-0.12273253 -0.16078128 0.013101558 -0.07663142 -0.015899397 -0.15757118 0.021411743 -0.09806474
00000000: 5d06 debc bfcf 81be 85f4 66bd 0bfe f4bd
00000010: 1cc1 54be 9de3 94bd 0881 1d3c 3a6b 2fbe
00000020: 4f96 cdbd 6a86 a7bd bb1b d5be cff0 0dbd
00000030: 38eb 4e3d b676 15be c4e1 293e d638 03be
00000040: 73d1 43bd 4338 dcbd 4a05 2dbe acbf 81bd
00000050: c351 e23c 5fe6 62bc b2e2 07be 5d4b dabd
00000060: d570 19be af20 2fbe f58d 1fbd af6c e7bc
00000070: 8c44 0abd f634 b5bd f97e 38bd bd01 36be
00000080: c5a6 37be 92b6 7bbd 86b8 bebb c25a a13d
00000090: a80a 1bbe f080 e8bd 9240 37be d9ed f0bd
000000a0: bce6 d53c 6c4b b5bc feb7 1abe f696 6e3c
000000b0: 294f 83bd 53ea ddbd 7e48 9fbe 8162 d8bd
000000c0: 1de0 89bd f34e dbbd 71c9 d2bd d3f9 c7bd
000000d0: db8e 52bd 3d60 4ebd f1ca c5bd 7021 f8bd
000000e0: 315b fbbd d9a3 24be eba7 563c eff0 9cbd
000000f0: 743f 82bc 575a 21be ae67 af3c 2bd6 c8bd

bn_outlayer_in.running_mean f4 [64]
0.0073884525 -0.0036859983 -0.0013798089 0.0010599461 0.00017850292 -0.0034140544 0.0030801015 0.014158588
-0.01493515 0.01014541 0.00050652557 0.012641199 -0.020297974 0.00569485 -0.03668166 -0.016676469
-0.0037467955 -0.0005836324 0.10051592 -0.0017064402 -0.037146494 0.02831682 -0.042468507 -0.0042172107
0.007399596 0.006629817 0.0035472522 0.0017351481 0.029773455 -0.0035478442 -0.007915746 0.0001563403
0.007136931 0.03193875 0.007406686 -0.01894229 0.026442489 -0.0042263735 0.003881916 -0.0053310236
-0.027695036 -0.00036807323 -0.008767005 0.020594662 -0.0050457455 -0.06276628 -0.002226917 -0.0031243034
-0.0042596296 0.005066957 -0.040401746 0.00028161803 0.0140448 -0.0010484625 -0.0050600804 0.012913556
0.024160238 -0.004983945 0.0023108032 -0.00054414885 0.004531957 0.026529996 -0.024762051 -0.0017538532
00000000: d51a f23b ca90 71bb b4da b4ba e4ed 8a3a
00000010: 832c 3b39 54be 5fbb 87db 493b 6cf9 673c
00000020: 8fb2 74bc ef38 263c 5bc8 043a 081d 4f3c
00000030: f047 a6bc dd9b ba3b 823f 16bd 179d 88bc
00000040: cc8c 75bb e8fe 18ba 4adb cd3d a2aa dfba
00000050: ec26 18bd adf8 e73c 75f3 2dbd 8730 8abb
00000060: 4f78 f23b f03e d93b 0479 683b e96d e33a
00000070: 76e7 f33c f382 68bb 0cb1 01bc 48ef 2339
00000080: ebdc e93b 35d2 023d c9b3 f23b dd2c 9bbc
00000090: eb9d d83c 647d 8abb be67 7e3b deaf aebb
000000a0: b3e0 e2bc f4f9 c0b9 7ca3 0fbc 23b6 a83c
000000b0: c856 a5bb 9b8b 80bd 78f1 11bb 1dc1 4cbb
000000c0: 5d94 8bbb b708 a63b 4d7c 25bd 22a6 9339
000000d0: 291c 663c 906c 89ba 08cf a5bb 6193 533c
000000e0: b1eb c53c 5c50 a3bb d870 173b 36a5 0eba
000000f0: d080 943b 6f55 d93c c9d9 cabc 8ce1 e5ba

bn_outlayer_in.running_var f4 [64]
0.01852305 0.0004545177 0.00051500497 0.011463201 2.8143791e-05 0.0021374302 0.0013867964 0.003851206
0.020595782 0.010011642 5.683983e-05 0.029345412 0.002221849 0.006167179 0.008437632 0.0074759107
0.0053455415 0.0021374254 0.018548917 0.0037466472 0.008139558 0.0036280616 0.0022370361 0.002250708
0.0016902407 0.005305291 0.0069659916 0.0008824178 0.008654684 0.0018173109 0.006854179 0.0016325511
0.0033346002 0.0074976124 0.00672696 0.003684827 0.007621729 0.018322518 0.001332807 0.0020477448
0.0034586291 0.000204604 0.0026241892 0.005187766 0.005237924 0.02547556 0.0004507251 0.0017719466
0.0025583266 0.0031364826 0.0065505584 0.0029876921 0.00926538 0.017217914 0.00244727 0.013023078
0.0064419396 0.0013024397 0.0013486419 0.02160207 0.0069163833 0.0066915457 0.004483919 0.000652505
00000000: a7bd 973c 554c ee39 6601 073a 26d0 3b3c
00000010: 5516 ec37 2114 0c3b 2ac5 b53a 8464 7c3b
00000020: 7cb8 a83c df07 243c 4e67 6e38 ca65 f03c
00000030: 719c 113b 0c16 ca3b fe3d 0a3c 7cf8 f43b
00000040: a729 af3b 0c14 0c3b e6f3 973c 4f8a 753b
00000050: c85b 053c c6c4 6d3b 3d9b 123b 9d80 133b
00000060: 118b dd3a 02d8 ad3b f942 e43b 0e52 673a
00000070: 60cc 0d3c d632 ee3a 0599 e03b 53fb d53a
00000080: 4f89 5a3b 88ae f53b d56d dc3b 237d 713b
00000090: b2bf f93b 1b19 963c 95b1 ae3a 7533 063b
000000a0: 2baa 623b f88a 5639 97fa 2b3b 23fe a93b
000000b0: e4a2 ab3b 1fb2 d03c 4d4f ec39 a940 e83a
000000c0: 99a9 273b 728d 4d3b 11a6 d63b 28cd 433b
000000d0: d2cd 173c 950c 8d3c 6162 203b c05e 553c
000000e0: e816 d33b a0b6 aa3a eac4 b03a d3f6 b03c
000000f0: d4a2 e23b c144 db3b d7ed 923b df0c 2b3a

gnn_layers.0.gnn.att_i f4 [1, 1, 64]
-0.21695608 -0.43429497 0.5201107 0.19642788 -0.1959952 0.15161026 -0.06434973 0.31830588
0.25357562 0.3496447 0.20940027 0.33395082 0.26565033 0.36929247 0.019629305 0.43569037
-0.20388274 0.4150948 -0.40103972 0.8375291 -0.07908158 0.22858073 -0.20102426 0.044642538
-0.42947614 -0.5058587 -0.2063224 -0.3936441 0.11388042 -0.30776837 0.36128473 0.8060662
0.14439185 -0.31596047 0.20569429 0.56138676 -0.065077774 -0.20785418 -0.007199237 -0.13405184
-0.33227265 0.17415272 -0.08864643 0.21606052 0.10652705 0.09474475 0.4267517 -0.17901194
-0.1817917 0.09963703 0.07387935 0.36636528 0.22004618 -0.8371224 -0.21054196 0.29209566
0.20260672 0.21614808 -0.41453686 0.23178 0.69509834 0.22613864 -0.46939656 -0.46729672
00000000: bc29 5ebe e95b debe fa25 053f 6424 493e
00000010: f7b2 48be b83f 1b3e cbc9 83bd fdf8 a23e
00000020: aad4 813e a104 b33e 066d 563e 9afb aa3e
00000030: 5203 883e e713 bd3e a3cd a03c cf12 df3e
00000040: a3c6 50be 4e87 d43e 1455 cdbe 4f68 563f
00000050: 86f5 a1bd 1111 6a3e 4ed9 4dbe 18db 363d
00000060: 4ce4 dbbe f57f 01bf 2e46 53be b88b c9be
00000070: 233a e93d d193 9dbe 50fa b83e 5b5a 4e3f
00000080: 75db 133e 92c5 a1be 86a1 523e 0bb7 0f3f
00000090: 7f47 85bd bad7 54be 94e7 ebbb e344 09be
000000a0: a41f aabe 1755 323e 428c b5bd f83e 5d3e
000000b0: db2a da3d 8909 c23d 337f da3e e84e 37be
000000c0: 9a27 3abe 800e cc3d 0f4e 973d 3b94 bb3e
000000d0: c953 613e a74d 56bf 5098 57be 908d 953e
000000e0: 2378 4f3e ec55 5d3e 2d3e d4be bc57 6d3e
000000f0: f7f1 313f e390 673e bf54 f0be 8441 efbe

gnn_layers.0.gnn.att_j f4 [1, 1, 64]
0.21654339 0.09526733 0.09025996 0.1541885 0.15211287 -0.0399169 0.16623971 0.22680178
0.08513081 -0.15476036 0.2334527 -0.13795924 0.29767853 -0.14352109 0.0063738124 -0.1174468
-0.17816408 -0.071983874 0.16817878 0.09571455 0.007836069 -0.254337 -0.16630559 0.12628692
-0.12179465 -0.23497637 -0.115224294 -0.114502996 -0.13589168 0.12313338 0.0281253 0.24317767
-0.22838993 -0.13659689 0.048264205 0.21367632 -0.13235846 0.14554675 -0.16361064 -0.16194782
0.1841148 -0.0029127826 -0.22293241 0.04025377 0.22714616 0.0713384 -0.021942668 -0.063827336
-0.16518293 0.14789025 0.0017609798 -0.173339 0.03925964 0.055996582 -0.0013869142 0.0010632261
-0.23802021 -0.03496003 -0.12804483 0.029848153 -0.10925066 0.108973645 -0.14943875 -0.12298576
00000000: 8dbd 5d3e 851b c33d 37da b83d 97e3 1d3e
00000010: 7ac3 1b3e e77f 23bd be3a 2a3e ba3e 683e
00000020: 1059 ae3d 8079 1ebe 390e 6f3e 3045 0dbe
00000030: 5269 983e 31f7 12be 6adb d03b f387 f0bd
00000040: a570 36be 486c 93bd 0f37 2c3e fd05 c43d
00000050: db62 003c 7638 82be 034c 2abe 5c51 013e
00000060: 796f f9bd a59d 70be b7fa ebbd 8c80 eabd
00000070: 3027 0bbe 5b2d fc3d 0767 e63c 9103 793e
00000080: 0ddf 69be 0ee0 0bbe b0b0 453d f7cd 5a3e
00000090: fa88 07be 350a 153e 8c89 27be a6d5 25be
000000a0: 9788 3c3e 62e4 3ebb 6548 64be 23e1 243d
000000b0: 0199 683e de19 923d 1cc1 b3bc e8b7 82bd
000000c0: b725 29be 8b70 173e add0 e63a c77f 31be
000000d0: b7ce 203d ac5c 653d 1ec9 b5ba f35b 8b3a
000000e0: 92bb 73be 4032 0fbd 2f1e 03be 1d84 f43c
000000f0: cfbe dfbd 932d df3d 7906 19be f5df fbbd

gnn_layers.0.gnn.att_em_i f4 [1, 1, 64]
-0.06425356 -0.10518944 0.17105484 0.3102452 0.35330212 -0.53714347 -0.11149667 -0.3467727
0.9552771 -0.23156358 -0.026262915 0.47692767 0.56045616 -0.20463063 0.91515404 0.40378636
-0.9159206 0.21457632 -0.76590544 -0.60071486 1.0014817 0.2869033 0.58276284 -0.30610803
-0.4983615 -0.14471118 0.072308846 -0.45723447 -0.17306167 0.0872819 0.2823236 0.41576406
-0.5979935 -0.5948314 -0.37996787 0.5234288 -0.21529277 -0.14500536 0.54843193 0.2127008
0.7027547 -0.5994722 0.7403536 -0.6652988 -0.6365236 0.024818301 0.80332065 0.104055785
-0.20767319 -0.69266236 0.52181673 -0.026172992 -0.14919755 0.5500826 0.098759346 0.2470664
-0.56334156 0.5641969 -0.03243949 0.5775105 0.3070922 -0.8491537 0.80411416 0.3255879
00000000: 5f97 83bd 906d d7bd 0029 2f3e 75d8 9e3e
00000010: 04e4 b43e 3c82 09bf 5e58 e4bd 318c b1be
00000020: 0a8d 743f 011f 6dbe 5325 d7bc dd2f f43e
00000030: 0e7a 0f3f b18a 51be 8947 6a3f 16bd ce3e
00000040: c679 6abf e5b9 5b3e 6112 44bf 73c8 19bf
00000050: 8d30 803f fde4 923e f22f 153f 31ba 9cbe
00000060: 3d29 ffbe 2b2f 14be a916 943d a31a eabe
00000070: 1437 31be dac0 b23d b88c 903e 07df d43e
00000080: 1a16 19bf df46 18bf 268b c2be 6eff 053f
00000090: b575 5cbe 497c 14be 0966 0c3f 3dce 593e
000000a0: bbe7 333f 0377 19bf d087 3d3f 0651 2abf
000000b0: 36f3 22bf c04f cb3c 6ca6 4d3f 331b d53d
000000c0: 48a8 54be 5252 31bf c895 053f be68 d6bc
000000d0: 3ec7 18be 37d2 0c3f 5742 ca3d f9fe 7c3e
000000e0: 2737 10bf 356f 103f 45df 04bd bad7 133f
000000f0: 303b 9d3e 2362 59bf 6dda 4d3f 75b3 a63e

gnn_layers.0.gnn.att_em_j f4 [1, 1, 64]
0.64283866 0.48940125 -0.24966563 0.5308942 -0.72220075 0.44276458 -0.35678077 -0.13413773
-0.50378215 -0.670904 -0.3716568 0.6242867 0.52785724 -0.3065868 -0.6369297 0.45553765
0.47840816 -0.51933825 -0.7220085 0.2449749 -0.33390123 -0.52194273 0.44085607 0.4446485
0.061638154 -0.29974875 0.39275706 -0.20465879 0.63997084 0.38168317 -0.04864558 0.26222712
-0.21500756 0.33820373 -0.7306054 0.64765304 0.49170637 -0.5986206 0.25468147 0.41491434
-0.24317573 -0.013678582 -0.15916409 0.5616995 0.5330064 0.8353912 -0.43179262 0.39721686
0.456446 -0.33198926 0.56638074 0.38255063 -0.43253112 0.46376973 0.41685084 -0.85903674
0.42215785 -0.1958853 -0.34323797 0.7485878 0.39675662 0.5430801 -0.114626385 0.32067904
00000000: 1391 243f cd92 fa3e 59a8 7fbe afe8 073f
00000010: 26e2 38bf 0ab2 e23e f8ab b6be 675b 09be
00000020: def7 00bf 5dc0 2bbf cd49 bebe 41d1 1f3f
00000030: a721 073f f2f8 9cbe d30d 23bf 3b3c e93e
00000040: eaf1 f43e 5af3 04bf 8dd5 38bf b3da 7a3e
00000050: 1af5 aabe 0a9e 05bf e3b7 e13e f8a8 e33e
00000060: 4a78 7c3d ab78 99be 7417 c93e 1392 51be
00000070: 21d5 233f fa6b c33e 9640 47bd a242 863e
00000080: f12a 5cbe 0a29 ad3e f508 3bbf 97cc 253f
00000090: f0c0 fb3e 333f 19bf 9c65 823e a76f d43e
000000a0: 0f03 79be 221c 60bc e9fb 22be 8acb 0f3f
000000b0: 1c73 083f 33dc 553f ec13 ddbe 0260 cb3e
000000c0: 4ab3 e93e 7ffa a9be 54fe 103f addd c33e
000000d0: b874 ddbe 3a73 ed3e 796d d53e d5e9 5bbf
000000e0: 1325 d83e 2896 48be e3bc afbe 73a3 3f3f
000000f0: af23 cb3e 4c07 0b3f 3dc1 eabd 0b30 a43e

gnn_layers.0.gnn.bias f4 [64]
0.00068326993 0.001614605 -0.00033434172 -0.00036872583 0.003572876 -0.021316215 -0.0009984858 -0.00024614905
0.0006176307 -0.00039711973 -0.0003310128 0.001226371 -0.0005813423 -0.0003445532 -0.005194091 0.00541068
-0.0028641552 0.0028766384 0.0006391687 -0.013745581 0.0017896926 0.0031034662 0.019394478 -0.025681295
0.0034452418 -0.0026521059 -0.0016991142 -0.002041756 0.00040562658 -0.011874312 3.9913484e-05 0.017927853
0.0020756295 -0.0023382169 0.00093899085 0.0020882962 -0.0028142885 0.0011747566 -0.00324492 0.022631353
0.0015060464 -0.0024818536 3.643445e-05 0.0042043123 0.024093956 -0.008172506 0.00092563295 -0.0018167681
-0.015840525 0.0017150325 -0.0002737902 -0.060700245 0.0029446208 -0.00042687403 -0.0010158512 0.0044026864
-0.0021848686 -0.005999933 -0.0076974304 -0.0008802253 0.003748056 0.000101269856 0.007789301 -0.0045651495
00000000: 781d 333a 27a1 d33a 964a afb9 8b51 c1b9
00000010: ea26 6a3b 589f aebc a0df 82ba 910d 81b9
00000020: 7fe8 213a 8234 d0b9 c98b adb9 2fbe a03a
00000030: 3965 18ba 26a5 b4b9 3133 aabb 134c b13b
00000040: 8db4 3bbb fc85 3c3b e38d 273a 2535 61bc
00000050: 1e94 ea3a 8663 4b3b 2be1 9e3c 9461 d2bc
00000060: 91c9 613b f4ce 2dbb d0b4 deba fbce 05bb
00000070: 47aa d439 798c 42bc c768 2738 6fdd 923c
00000080: 4907 083b c53c 19bb 9c26 763a ccdb 083b
00000090: ed6f 38bb 4afa 993a b9a8 54bb 6365 b93c
000000a0: 8866 c53a 98a6 22bb 31d1 1838 54c4 893b
000000b0: b060 c53c f9e5 05bc 2da6 723a 9f20 eeba
000000c0: fdc3 81bc f1ca e03a 808b 8fb9 d2a0 78bd
000000d0: 8afa 403b 10ce dfb9 4f26 85ba 6944 903b
000000e0: 0330 0fbb 169b c4bb ba3a fcbb ecbe 66ba
000000f0: f2a1 753b d760 d438 653d ff3b 4097 95bb

gnn_layers.0.gnn.lin.weight f4 [64, 15]
-0.1444894 -0.32040682 -0.07734054 0.16057943 -0.12995297 -0.25781572 -0.08593749 -0.27547875
0.14937839 0.0059158294 0.20924893 0.056357548 0.020302882 -0.014395361 0.17439061 -0.14198846
-0.20421265 0.19662145 0.12879027 0.29391345 0.09359746 0.08567157 0.13320844 0.1835596
0.19335595 -0.10210423 0.15873294 -0.14675237 0.09070677 0.49321854 -0.07117504 0.27172366
0.3039625 0.0949732 -0.18194552 0.01318396 0.16959587 0.0054659937 0.14627409 -0.078411974
-0.15488246 0.20185536 0.22059728 0.2783497 -0.3421016 -0.053728856 0.21747865 0.104529835
0.21362464 -0.19182038 -0.05261549 0.019663047 -0.13244978 0.17336202 0.1683018 0.21359749
0.017510517 -0.23282161 -0.21678686 -0.2798496 -0.018723035 0.08973153 -0.04812319 0.1995927
0.25612026 0.2661694 0.1017373 -0.10565965 0.00072184973 -0.06520836 0.19126573 0.044595957
0.14927708 0.16889092 0.14276734 -0.05721985 -0.06309271 0.05267963 -0.17948216 -0.027518801
0.13308324 0.06843791 -0.20047414 0.15310013 -0.17192869 0.13377798 -0.12914877 0.23671201
0.270175 0.16733792 0.20550089 0.20887499 -0.21320526 0.045658555 0.19425696 0.0046048444
0.17567147 0.25549662 -0.18058339 0.13103533 -0.21382025 0.17798609 -0.15468362 -0.09938716
0.031397395 -0.22598627 -0.030118207 -0.109099455 0.06216312 -0.04068575 -0.25060314 -0.079162285
0.049652558 0.14569053 -0.20651023 -0.19720839 0.08535954 -0.1802878 -0.16976441 -0.49213016
0.018249251 -0.124882676 0.13465248 0.280194 0.1923691 -0.12511657 0.27833843 -0.1599558
-0.09458867 0.11401835 0.118649796 0.14921723 -0.006242656 -0.19150999 -0.47418994 0.053091444
-0.18407995 -0.1125481 0.2320205 -0.027849868 0.11854396 -0.17219512 0.056308243 0.25412655
0.051807158 0.032776855 -0.14914337 -0.14852826 0.15689188 -0.38247806 0.0143270455 -0.23263364
0.008876664 -0.29536486 0.06496943 -0.0062948973 -0.19860521 -0.0911714 -0.10429028 -0.150223
-0.07332287 0.008965416 -0.20177022 -0.0067009064 -0.40916795 0.26332834 -0.117722385 0.14288083
-0.19249362 -0.21629053 -0.066907056 -0.15788145 -0.09125356 -0.15197168 -0.11388987 -0.25687623
0.26836523 0.19738418 -0.090883665 -0.027208665 -0.070867054 -0.2244236 0.08527822 -0.106457144
0.1902276 -0.061408915 -0.22552808 0.25138918 0.073416404 0.05640816 -0.025760012 -0.250945
0.047054872 -0.07030962 -0.3417209 0.17362462 -0.18570514 -0.11545877 -0.03319489 -0.23027273
-0.20646182 -0.018001314 -0.018193325 0.20221195 0.12746058 0.22461577 0.10543574 0.084383175
-0.083549015 -0.3980602 0.17415838 0.016685354 0.1827245 -0.08058139 -0.10088708 0.11821065
-0.09686327 0.15389006 0.0024748177 0.020889448 -0.14029957 0.13031313 -0.19041109 -0.33816543
-0.33883864 -0.18576393 0.17857489 0.04643626 0.04146427 -0.0680389 0.020425178 0.050139185
-0.15369396 0.12790665 0.112209365 -0.011930005 0.14007838 0.14665549 0.03020438 -0.4280271
-0.14596598 -0.23954956 -0.07578136 0.13234526 0.2518109 -0.27058145 -0.23759025 0.20378794
-0.12118757 -0.016843222 0.14106236 0.24458247 0.12796193 0.14747947 0.21315978 -0.016861642
00000000: 07f5 13be 5d0c a4be b864 9ebd ef6e 243e
00000010: 6412 05be 6c00 84be ffff afbd 8d0b 8dbe
00000020: a6f6 183e 93d9 c13b 5a45 563e 2cd7 663d
00000030: 3b52 a63c 85da 6bbc 7493 323e 6c65 11be
00000040: 1f1d 51be 2257 493e 99e1 033e d37b 963e
00000050: 06b0 bf3d 9374 af3d cb67 083e 0cf7 3b3e
00000060: 1aff 453e 061c d1bd e38a 223e 4146 16be
00000070: 79c4 b93d 2487 fc3e 38c4 91bd 5d1f 8b3e
00000080: f9a0 9b3e 4f81 c23d ed4f 3abe 8901 583c
00000090: 8aaa 2d3e 141c b33b e0c8 153e 7596 a0bd
000000a0: 8299 1ebe 2cb3 4e3e 41e4 613e da83 8e3e
000000b0: f127 afbe ca12 5cbd b9b2 5e3e bd13 d63d
000000c0: 6bc0 5a3e 906c 44be 5783 57bd 6614 a13c
000000d0: eaa0 07be d085 313e 4f57 2c3e 4db9 5a3e
000000e0: 3772 8f3c ca68 6ebe 60fd 5dbe 7248 8fbe
000000f0: 0d61 99bc 2ac5 b73d d21c 45bd 0762 4c3e
00000100: 3222 833e 5b47 883e a55b d03d 1664 d8bd
00000110: 843a 3d3a f68b 85bd 2adb 433e 40aa 363d
00000120: 17dc 183e bef1 2c3e 9a31 123e 5d5f 6abd
00000130: c036 81bd 99c6 573d 2cca 37be 1c6f e1bc
00000140: f946 083e 2d29 8c3d 1849 4dbe 48c6 1c3e
00000150: 130e 30be 18fd 083e 933f 04be a264 723e
00000160: 6154 8a3e a25a 2b3e d36e 523e 53e3 553e
00000170: 7b52 5abe 7704 3b3d 4ceb 463e 3ce4 963b
00000180: 39e3 333e 74d0 823e daea 38be 202e 063e
00000190: b2f3 5abe fc41 363e 6265 1ebe 7f8b cbbd
000001a0: 8e9a 003d f268 67be 75ba f6bc 896f dfbd
000001b0: c19e 7e3d 1aa6 26bd 0e4f 80be d61f a2bd
000001c0: 7b60 4b3d e62f 153e 6b77 53be fff0 49be
000001d0: fcd0 ae3d 5d9d 38be b9d6 2dbe 7cf8 fbbe
000001e0: 747f 953c 7dc2 ffbd 57e2 093e 9775 8f3e
000001f0: 68fc 443e 8f1e 00be 6082 8e3e 74cb 23be
00000200: b4b7 c1bd 7482 e93d aafe f23d 67cc 183e
00000210: 328f ccbb 321b 44be 06c9 f2be 6a76 593d
00000220: 747f 3cbe 9e7f e6bd c896 6d3e 6825 e4bc
00000230: 2dc7 f23d eb53 30be 79a3 663d e01c 823e
00000240: be33 543d 0641 063d 0ab9 18be cb17 18be
00000250: 44a8 203e 2ad4 c3be fcbb 6a3c 8337 6ebe
00000260: 6d6f 113c 103a 97be b10e 853d 6d45 cebb
00000270: 2a5f 4bbe 12b8 babd 2496 d5bd 0fd4 19be
00000280: 4d2a 96bd aee3 123c da9c 4ebe 4793 dbbb
00000290: 767e d1be f9d2 863e 6f18 f1bd 5a4f 123e
000002a0: 0c1d 45be 447b 5dbe 9106 89bd adab 21be
000002b0: 25e3 babd 779e 1bbe 183f e9bd 4885 83be
000002c0: 2b67 893e 141f 4a3e 3721 babd b5e4 debc
000002d0: bf22 91bd 4dcf 65be 59a6 ae3d 3406 dabd
000002e0: 06cb 423e ea87 7bbd d5f0 66be 15b6 803e
000002f0: 575b 963d 3e0c 673d a906 d3bc dd7b 80be
00000300: 9cbc 403d 7dfe 8fbd 0bf6 aebe a7ca 313e
00000310: 7d29 3ebe a675 ecbd 5df7 07bd 9dcc 6bbe
00000320: ba6a 53be 7e77 93bc 2b0a 95bc a610 4f3e
00000330: 0785 023e ad01 663e b1ee d73d 16d1 ac3d
00000340: bf1b abbd 8cce cbbe 9356 323e b9af 883c
00000350: 221c 3b3e db07 a5bd e39d cebd 6d18 f23d
00000360: 4060 c6bd 5b95 1d3e 8d30 223b 5920 ab3c
00000370: b1aa 0fbe ce70 053e 20fb 42be 0524 adbe
00000380: 427c adbe e638 3ebe 56dc 363e f333 3e3d
00000390: 70d6 293d fb57 8bbd b452 a73c bf5e 4d3d
000003a0: f361 1dbe f6f9 023e 06ce e53d 1176 43bc
000003b0: b570 0f3e db2c 163e 2d6f f73c 5e26 dbbe
000003c0: 1b78 15be 7b4c 75be 4233 9bbd 8485 073e
000003d0: 5ced 803e a789 8abe dc4a 73be c9ad 503e
000003e0: 3031 f8bd ccfa 89bc a772 103e d473 7a3e
000003f0: 7408 033e dc04 173e 8f46 5a3e 6d21 8abc

gnn_layers.0.bn.weight f4 [64]
0.9563735 0.5884756 0.63826895 0.8788539 0.30340457 0.5788619 0.27712753 0.79213434
0.9423613 0.9624385 0.31894428 0.8403227 0.6558837 0.90779823 0.634357 0.77994776
0.45420736 0.484585 0.802332 0.22933103 0.72068936 0.67620784 0.32326487 0.4161302
0.66025907 0.6469304 0.78687215 0.26278856 0.8007643 0.50596035 0.81786346 0.4456799
0.76733226 0.9257527 0.5237159 0.59653246 0.872987 0.63372123 0.41516924 0.50306237
0.7488055 0.5230669 0.58879894 0.89862514 0.45296636 0.5789915 0.36061752 0.5004791
0.49950516 0.64749116 0.4053654 0.36845505 0.5242793 0.9404541 0.4947573 0.31793934
0.87577593 0.6469107 0.17811775 0.77382964 0.89405537 0.8877254 0.6819332 0.79258925
00000000: e5d4 743f 56a6 163f 9865 233f 92fc 603f
00000010: d857 9b3e 4b30 143f a9e3 8d3e 51c9 4a3f
00000020: 973e 713f 5f62 763f aa4c a33e 631f 573f
00000030: ffe7 273f 7765 683f 3865 223f a8aa 473f
00000040: de8d e83e 861b f83e a165 4d3f c1d5 6a3e
00000050: 197f 383f f51b 2d3f f982 a53e 040f d53e
00000060: bd06 293f 3b9d 253f 7470 493f 398c 863e
00000070: e4fe 4c3f 9e86 013f 805f 513f 2830 e43e
00000080: e36f 443f 21fe 6c3f 3f12 063f 5ab6 183f
00000090: 137c 5f3f 8e3b 223f 1091 d43e b2c8 003f
000000a0: b8b1 3f3f b6e7 053f 87bb 163f 4c0c 663f
000000b0: 35eb e73e c938 143f dca2 b83e 661f 003f
000000c0: 24bf ff3e fbc1 253f 0e8c cf3e 24a6 bc3e
000000d0: 2b37 063f 9ac1 703f d450 fd3e f2c8 a23e
000000e0: da32 603f f19b 253f 8064 363e b319 463f
000000f0: d0e0 643f f941 633f 2d93 2e3f 21e7 4a3f

gnn_layers.0.bn.bias f4 [64]
-0.04411841 -0.20034963 0.31323218 0.034047604 -0.28270295 0.36728665 0.3786351 0.13411014
-0.04306246 -0.05082807 -0.31194085 0.13060316 -0.13244753 -0.016826948 -0.19609167 0.124758884
0.40236953 -0.25492284 -0.03548765 0.5008468 -0.17774169 -0.09638544 0.38601336 0.35880774
-0.20217955 0.25139657 0.15577158 0.38234648 0.18023048 0.39461812 0.13698222 0.36196184
-0.15533482 0.042743083 -0.3119425 -0.21715717 0.10284886 0.2988109 0.4190743 0.38470483
-0.13969332 -0.25015408 0.21891266 -0.076070234 0.46002936 0.30572143 -0.27964538 0.43617293
0.43769932 -0.22201248 0.16936561 0.4290953 0.25657216 -0.0009204363 0.4090371 0.46957657
0.07833578 0.2033823 0.32223302 0.11845245 0.08129576 -0.07068285 -0.15799583 0.17972346
00000000: 82b5 34bd 7428 4dbe f85f a03e 8075 0b3d
00000010: 71be 90be ff0c bc3e 76dc c13e 2b54 093e
00000020: 4362 30bd 1831 50bd b6b6 9fbe d6bc 053e
00000030: 53a0 07be abd8 89bc 41cc 48be 9681 ff3d
00000040: 6103 ce3e 3f85 82be 805b 11bd 7f37 003f
00000050: eb01 36be bb65 c5bd 8ba3 c53e a6b5 b73e
00000060: 2808 4fbe 0db7 803e 9682 1f3e ebc2 c33e
00000070: 578e 383e 630b ca3e 1145 0c3e 1053 b93e
00000080: 1710 1fbe 5f13 2f3d edb6 9fbe 735e 5ebe
00000090: 6ca2 d23d befd 983e e890 d63e 08f8 c43e
000000a0: c40b 0fbe 3214 80be a42a 603e b6ca 9bbd
000000b0: f888 eb3e 8587 9c3e ae2d 8fbe 0f52 df3e
000000c0: 201a e03e 3d57 63be 2e6e 2d3e 61b2 db3e
000000d0: 6d5d 833e 6f49 71ba 506d d13e 576c f03e
000000e0: 826e a03d 7343 503e bafb a43e 3397 f23d
000000f0: 647e a63d 2cc2 90bd a9c9 21be 6d09 383e

gnn_layers.0.bn.running_mean f4 [64]
0.16529119 -0.48049536 -0.2862272 0.025706239 -0.45269662 -0.16489539 -0.17593029 0.5546166
-0.021288538 0.08074171 0.55879474 0.19160102 0.2375581 0.1256991 0.17886724 0.00021077854
-0.13920578 0.0790565 -0.4506554 -0.11852896 0.3991245 -0.14143477 -0.14232461 -0.20171273
0.054117333 0.12891318 0.030439973 -0.59818035 0.25131848 -0.19758722 0.20749013 -0.20110904
0.22482736 0.21137491 0.14087638 0.36301976 0.17679432 0.38004687 -0.21037935 -0.16068624
0.36183667 -0.13137072 -0.5012516 0.1758962 -0.08856196 -0.020828087 0.32140592 -0.29285288
-0.10999431 0.15523264 -0.15006241 -0.21704796 0.01603483 0.11630918 -0.18509383 0.8178015
0.15010312 -0.4020314 -0.28717843 0.061168212 0.029586371 0.1822201 0.1841773 -0.52180433
00000000: 1842 293e 7d03 f6be 5f8c 92be e495 d23c
00000010: dac7 e7be 56da 28be 1227 34be 5afb 0d3f
00000020: 4d65 aebc e95b a53d 2c0d 0f3f 0f33 443e
00000030: 6e42 733e 44b7 003e f928 373e 6f04 5d39
00000040: f68b 0ebe 60e8 a13d 4ebc e6be 50bf f2bd
00000050: 0c5a cc3e 47d4 10be 8bbd 11be c88d 4ebe
00000060: 23aa 5d3d d101 043e 405d f93c 5922 19bf
00000070: d1ac 803e 4e54 4abe 4b78 543e 87ef 4dbe
00000080: 2539 663e aa72 583e e641 103e badd b93e
00000090: 9209 353e 8195 c23e af6d 57be ef8a 24be
000000a0: a842 b93e 0c86 06be 0652 00bf 221e 343e
000000b0: f95f b5bd aa9f aabc 518f a43e d0f0 95be
000000c0: b244 e1bd 4ef5 1e3e f6a9 19be d241 5ebe
000000d0: 7a5b 833c 8233 ee3d 3d89 3dbe 705b 513f
000000e0: a2b4 193e 0fd7 cdbe 0d09 93be 858b 7a3d
000000f0: 1e5f f23c e897 3a3e f998 3c3e f894 05bf

gnn_layers.0.bn.running_var f4 [64]
0.06460255 0.47551396 0.167095 0.005696388 0.41729814 0.041041106 0.068992585 0.61038744
0.007436374 0.0141715985 0.6295765 0.08454692 0.11034138 0.0348726 0.067547604 0.0023112416
0.038755078 0.014539494 0.41410473 0.028801754 0.31136507 0.04330766 0.051635098 0.06147305
0.006827396 0.04006107 0.0067280126 0.7211503 0.13041575 0.06869052 0.084874235 0.09854009
0.0976479 0.10325863 0.0444554 0.25705606 0.07437844 0.2853718 0.085635334 0.06566602
0.2589205 0.034112237 0.51439923 0.0580473 0.028661076 0.003630596 0.20985194 0.1678357
0.018692167 0.0478767 0.05015734 0.04777921 0.006413034 0.03498087 0.0660666 1.3233486
0.048287503 0.3094408 0.15596311 0.01637852 0.0048640394 0.06941962 0.06377569 0.5339518
00000000: 574e 843d 9176 f33e f41a 2b3e c4a8 ba3b
00000010: 1aa8 d53e b81a 283d fc4b 8d3d 5a42 1c3f
00000020: d4ac f33b fe2f 683c ed2b 213f f026 ad3d
00000030: a9fa e13d 92d6 0e3d 6656 8a3d 3378 173b
00000040: a5bd 1e3d 0f37 6e3c 8905 d43e a8f1 eb3c
00000050: 3e6b 9f3e 5f63 313d 537f 533d 2acb 7b3d
00000060: 59b8 df3b 1417 243d a976 dc3b 4e9d 383f
00000070: b58b 053e 9ead 8c3d 8bd2 ad3d 63cf c93d
00000080: 9ffb c73d 4379 d33d de16 363d da9c 833e
00000090: b953 983d 411c 923e 9461 af3d e87b 863d
000000a0: 3a91 843e 46b9 0b3d abaf 033f 01c3 6d3d
000000b0: a2ca ea3c 4bef 6d3b 6de3 563e 1fdd 2b3e
000000c0: 5120 993c 5c1a 443d c871 4d3d 22b4 433d
000000d0: 6e24 d23b 1a48 0f3d ed4d 873d 7d63 a93f
000000e0: 1ec9 453d 066f 9e3e cbb4 1f3e 3f2c 863c
000000f0: 8562 9f3b e02b 8e3d d49c 823d 11b1 083f

out_layer.mlp.0.weight f4 [1, 64]
-0.037418544 -0.102995396 0.03506251 -0.039793365 0.051779043 0.058268726 0.0245159 -0.039398223
0.027124174 -0.027614726 0.054860532 -0.045051865 0.09330861 -0.04637385 0.07049207 -0.048756026
0.05000063 -0.025786558 -0.01759904 0.042552453 0.08243384 -0.017021745 -0.12964931 0.056075085
-0.037921168 -0.038797457 -0.04483789 0.047996458 -0.043073494 0.055326637 -0.04155816 0.061819516
-0.057152182 -0.043246645 -0.0260089 0.08136577 -0.042972047 -0.032931842 0.07446415 0.05048113
0.085897475 -0.04219153 0.07797052 -0.04303313 0.059024498 0.05283184 0.086996265 0.05601078
0.05851719 -0.03923407 -0.021761699 0.05295157 -0.03817067 -0.0412782 0.050241657 -0.04337244
-0.042480025 0.07988752 0.0247462 -0.042102013 -0.056145065 -0.048428707 0.08581278 0.046764914
00000000: 3044 19bd 40ef d2bd b59d 0f3d 5efe 22bd
00000010: 4316 543d 30ab 6e3d 92d5 c83c 0860 21bd
00000020: 8433 de3c 4738 e2bc 70b5 603d 4e88 38bd
00000030: 9618 bf3d 82f2 3dbd 255e 903d 66b4 47bd
00000040: 76cd 4c3d 553e d3bc dd2b 90bc 7b4b 2e3d
00000050: 13d3 a83d 3071 8bbc cac2 04be fdae 653d
00000060: 3a53 1bbd 15ea 1ebd efa7 37bd ef97 443d
00000070: d56d 30bd 2f9e 623d e438 2abd 7636 7d3d
00000080: 6818 6abd 6523 31bd 9e10 d5bc 19a3 a63d
00000090: 7503 30bd 8ae3 06bd a980 983d 4dc5 4e3d
000000a0: 04eb af3d 07d1 2cbd 02af 9f3d 8243 30bd
000000b0: acc3 713d 3366 583d 192b b23d 8f6b 653d
000000c0: b9af 6f3d e7b3 20bd 9745 b2bc bfe3 583d
000000d0: d958 1cbd 5413 29bd 32ca 4d3d 4da7 31bd
000000e0: 89ff 2dbd 119c a33d 8bb8 ca3c 2973 2cbd
000000f0: 5ef8 65bd 2e5d 46bd 9cbe af3d 918c 3f3d
