pretrained/best_01_26-18_05_35.pt (torch_old, 17588 bytes, 16 tensors)

embedding.weight f4 [27, 64]
00000000: c5b1 cfbd 3486 87bd ea56 943d dda2 143d
00000010: 5ef4 3c3d ed6b b9bd 5604 c23d 187a 6e3c
00000020: f822 343d 409b 1e3d 1f13 dabc 411f 7e3d
00000030: b36e c53d 563d 143d b841 cfbb 9f02 463d
00000040: 01bf b4bd 2fdc 343d 6998 7e3d f863 8c3d
00000050: 25b2 f8bc 4c12 23be efe7 2c3d 67a1 64bb
00000060: 241a fc3d cf80 293c 0566 893d 0f27 b53d
00000070: ac04 50bd 3003 793d 434e 143d ce06 a73c
00000080: 0919 af3d c218 11be 4810 6f3d c45c 153e
00000090: 2c33 9bbd d31c babd 8322 e7bd a9c6 6abd
000000a0: 2fa2 403d 9a53 bc3d b5b1 b9bd a019 d3bd
000000b0: 9658 96bc 74cd 073c 85d0 be3c 87b1 a63d
000000c0: 211d 9c3d be3a 0c3b 3d42 db3c 26de 62bc
000000d0: e573 3bbd 700e 28bc be1b 06bd 819a e3bd
000000e0: fab9 803d 5974 c1bd ea98 4fbd 8817 bc3d
000000f0: c5c2 b0bc 07c0 353d c7e9 c43d 2800 a4bc
00000100: 96c1 df3c 248d fb3d d995 a5bd 11f0 4bbd
00000110: 6b58 58bc 1c20 76bd 058f 663d b505 953d
00000120: dea4 28bd 5e29 123c 18fd 213b dd7c d2bd
00000130: c30e cbbd 8b60 02be cdfb a43d 930c f8bd
00000140: fe8d c1bd a457 b93d ff16 c6bd eb75 cc3d
00000150: 8907 87bd 0a41 033d ffe3 00bd 1fb1 bdbc
00000160: 4ca9 8e3d 906b e63d d3e0 e8bd 503a 953d
00000170: d7d6 f73c 1eb4 0bbd 8373 d1bd f80b 5a3d
00000180: 0de9 d53d d296 eabd 9e0e c0bd 2653 eabd
00000190: dfc9 0abd ec6d 1cbd 6d4e 86bd 14d0 ff3d
000001a0: c449 76bd e033 e2bd 50ac 493d 6a0d 2dbd
000001b0: 34b6 dcbd 1bb4 883d 86dd e13c f907 f6bd
000001c0: 2520 d93d 1047 9b3d 6bb3 b0bd a726 273d
000001d0: d4e3 1b3d 1086 dbbd 5ea4 a3bd 7f4c f6bd
000001e0: 9ba7 803d fff5 073d 2cbb 6e3d 71da 85bd
000001f0: d3fb 703d 6375 2b3c de2d c4bd 56d7 07bc
00000200: 06a8 a43d 116b 953d 44b7 42bd d7b8 a8bd
00000210: 44cc d7bd e274 6c3d bdcf bdbd 9065 5a3d
00000220: 2261 bbbc 56e2 063d 703a cebd 2ec8 6bbd
00000230: f357 9c3d 5399 1ebe 3c22 213d 5002 e2bd
00000240: 83d1 95bb 462f 11be 4b61 c4bd 2825 ddbd
00000250: 6004 8fbd 5e01 cfba 6f21 d3bd 0123 8fbc
00000260: eca0 d13d 0c35 803d 11da e93d b3d6 da3d
00000270: c540 e8bc e204 6dbd 9d48 db3d 4754 0b3c
00000280: bcb5 d3bc 6448 933d b206 a8bd c353 d83d
00000290: e962 243d 3879 b0bd 704c 06be bf16 0b3e
000002a0: cbbb 0e3e bef9 f23c c425 abbd e9ce b43d
000002b0: f18e f6bb 4ed6 98bd 34cb d03d f475 883d
000002c0: be18 7c3d 67f6 b03d 0fa3 cebd 0b51 ddbd
000002d0: 25e5 633d 997c a03c 0d22 57bd 7da2 e03b
000002e0: 70a6 8e3d 1789 20be 3b73 803d 8264 33bd
000002f0: 92cd febd 9cd8 0cbd 8d56 8abc 6acc 61bd
00000300: c8ea 03be 48a9 b13d 474d 60bd 969d 283d
00000310: 8d83 033e 3beb 97bd bed8 c9bd 4072 32be
00000320: d8c0 293d 1bf8 90bd f9aa 39bd 6b8f 873d
00000330: 6df4 d53b 081f 433d a191 82bd 20f1 83bd
00000340: 300e 01be d805 e9bb b7c8 9ebd 83db 843c
00000350: c20d e0bc 17f0 1a3d 0054 90bd e42e d0bd
00000360: 7999 1b3d 32d4 d5bd 0ac2 a23d 3f4e 0ebd
00000370: 8d61 853d f83e 963c 70bc 593d 7632 a4bd
00000380: 51db 493d 92be c0bd 3338 c6bd 005c 363d
00000390: 0669 92bd 6c7a bebd d977 8fbc a56c fe3d
000003a0: 68f7 92bd 920f 3b3d 0b79 d7bd b564 1f3d
000003b0: 3011 c6bb 15db 96bd 8095 e73d c47b 09be
000003c0: f48a a2bd 8f87 8fbd b6df f03d 725e 6e3d
000003d0: 50c5 073e 12f6 cc3d a48c 09bd b42f 03be
000003e0: 6213 5bbd 7551 12bc e61a d8bd 1bc6 ae3d
000003f0: f083 3c3b a296 83bc 69dd e6bd 8274 e33d
-0.10141329 -0.06617394 0.0724314 0.03628813 0.046131484 -0.09053788 0.09473483 0.014555477
0.04397866 0.038722277 -0.026620446 0.062041525 0.09640255 0.036191307 -0.006324973 0.048342343
-0.088254936 0.044155296 0.06215707 0.06855005 -0.030358383 -0.15924948 0.042213377 -0.0034886242
0.123096734 0.010345652 0.06708912 0.088453405 -0.050785705 0.060794055 0.03620745 0.020388987
0.08549697 -0.141696 0.058365136 0.14586169 -0.0757812 -0.09087529 -0.112858795 -0.057318363
0.04702967 0.09195633 -0.09067098 -0.10307622 -0.018352788 0.00828873 0.02329279 0.081393294
0.076227434 0.0021397318 0.026764983 -0.01384691 -0.045764823 -0.010257348 -0.0327413 -0.11113454
0.06285472 -0.0944602 -0.05068294 0.09184176 -0.021577248 0.044372585 0.09614902 -0.020019606
0.027313989 0.1228278 -0.08085222 -0.049789492 -0.013204674 -0.060089216 0.056288738 0.07276479
-0.041172855 0.0089209955 0.0024717506 -0.10277722 -0.09914925 -0.1273214 0.0805584 -0.12111773
-0.09450911 0.09049919 -0.09672355 0.099834286 -0.06593234 0.032044448 -0.031467434 -0.023155747
0.069658846 0.11250985 -0.11371007 0.07286513 0.03025381 -0.03410732 -0.1022711 0.05323407
0.104448415 -0.11454548 -0.09377788 -0.114416406 -0.033883926 -0.038190767 -0.06557927 0.1249086
-0.060128942 -0.110450506 0.049236596 -0.04224912 -0.1077694 0.066749774 0.02757145 -0.120132394
0.10601834 0.075819135 -0.08627971 0.040808346 0.03805907 -0.1071893 -0.07990335 -0.12026309
0.06281968 0.033193585 0.05828397 -0.06535805 0.05883391 0.010464999 -0.09579061 -0.008291086
0.080398604 0.07295812 -0.047538057 -0.082383804 -0.105370075 0.057728656 -0.092681386 0.053319514
-0.022873465 0.032930695 -0.1006974 -0.057563953 0.076339625 -0.15488176 0.03933929 -0.11035597
-0.004572095 -0.1417819 -0.0958887 -0.107981026 -0.06983256 -0.0015793254 -0.10309111 -0.017472746
0.102357715 0.06260118 0.11418546 0.10685482 -0.028351197 -0.057865985 0.10707209 0.00850398
-0.025843494 0.07191542 -0.08204402 0.10562851 0.04013339 -0.08616871 -0.13115096 0.13582896
0.13938825 0.029660102 -0.083568126 0.088285275 -0.007524364 -0.074627504 0.10195008 0.06663123
0.061547033 0.086407475 -0.10089695 -0.10806473 0.05563845 0.019590663 -0.052522708 0.0068553076
0.06965339 -0.15677296 0.062719785 -0.043797024 -0.12441553 -0.034386262 -0.016886974 -0.055126585
-0.1288253 0.08674866 -0.054761197 0.04116591 0.12843151 -0.074179135 -0.098557934 -0.17426395
0.041443676 -0.07078572 -0.045329068 0.06619152 0.006529382 0.047637016 -0.06375433 -0.06442475
-0.12603068 -0.0071112923 -0.07753127 0.016217953 -0.02735031 0.037826624 -0.07047272 -0.10165194
0.03798816 -0.10440864 0.07947166 -0.03474259 0.06512747 0.018340573 0.053158224 -0.08017437
0.049281422 -0.094113484 -0.09678688 0.04452133 -0.07148938 -0.09300694 -0.017513203 0.12423066
-0.07176095 0.045669146 -0.10521134 0.0389144 -0.0060445294 -0.07366005 0.11307812 -0.13426119
-0.079366595 -0.070082776 0.117614195 0.05819554 0.13258862 0.10007872 -0.03358139 -0.12811166
-0.05348528 -0.008930554 -0.105520055 0.08533879 0.0028765164 -0.016063038 -0.112726994 0.111062065

bn_outlayer_in.weight f4 [64]
00000000: 27e9 773f ec99 843f c1f9 833f 1efd 813f
00000010: 7c9c 773f f31e 823f 65d8 823f c14b 733f
00000020: 9d6a 783f 839c 783f 7216 8a3f d9ae 7c3f
00000030: 8220 763f cab8 753f b267 783f 3069 7e3f
00000040: f980 783f 3c11 7f3f d554 7e3f ba8c 813f
00000050: 018e 7f3f ecd7 763f ff3c 7c3f f1fb 793f
00000060: dce5 7a3f 1572 7e3f b979 7d3f 7f76 7e3f
00000070: bc4b 7b3f 1c9c 7d3f d5e7 813f 3092 793f
00000080: 939c 783f 72c7 7b3f b4a5 843f 98a6 7f3f
00000090: 462e 873f 10a9 813f cb2b 843f b88e 863f
000000a0: 6fa4 783f de20 763f 2ebd 803f 3ac7 813f
000000b0: 4f5c 843f 7cf8 7f3f b680 7b3f c075 753f
000000c0: d1a4 7d3f 89d6 773f ee7c 783f d009 7c3f
000000d0: 4c81 7b3f 4442 773f 5ba7 8d3f caf5 7f3f
000000e0: 0718 7c3f 6b08 7b3f e259 7d3f b759 7d3f
000000f0: 726e 7f3f 35b5 823f 3fa0 7d3f 3853 813f
0.9684014 1.0359473 1.0310594 1.015537 0.9672315 1.0165695 1.0222288 0.95037466
0.9703768 0.9711382 1.07881 0.98704296 0.96143353 0.9598509 0.97033226 0.99379253
0.97071797 0.9963567 0.99348193 1.0121071 0.99826056 0.9642322 0.9853057 0.9765006
0.9800699 0.99392825 0.9901386 0.9939956 0.98162436 0.9906633 1.0148875 0.9748869
0.97113913 0.98351204 1.0363069 0.99863577 1.0560997 1.0129719 1.0325865 1.0512304
0.97125906 0.961439 1.0057733 1.0138924 1.034067 0.9998853 0.9824327 0.958828
0.99079615 0.9681173 0.9706563 0.9845247 0.98244166 0.9658549 1.1066698 0.9998442
0.9847416 0.9805972 0.98965275 0.9896502 0.997779 1.021155 0.9907264 1.0103521

bn_outlayer_in.bias f4 [64]
00000000: 4983 87bd e4d3 763d 4d4d 253d e3c0 dc3c
00000010: 3bbf 7a3c 3f2b 4e3d 3fd7 7d3d 0ef5 03bd
00000020: 24d8 cbbc 7093 93bd 9d36 8e3d 4953 513d
00000030: 44dc 52bd 63ab 44b9 3ed7 3cbb b013 703b
00000040: 0fbc bd3c f821 5f3d 5f06 bc3c e68e 963d
00000050: 6534 5b3c 7a86 8b3d 2d01 963c 5eae 333d
00000060: 44ac 67bd 3387 db3c 4d29 473d c169 86bc
00000070: ef1e 6ebc 2fc4 0d3d 4246 423d 63d9 7a3d
00000080: d0c5 07bd f503 2ebc aa30 8bbb b7dc 26bd
00000090: 96ef ba3d 217c 143d 2ea5 393d 28b4 1b3d
000000a0: 6edd 62bc 21fa 4cbd 40b4 6d3d 8406 f1bc
000000b0: 71b7 8b3d c52d 5d3d 028f 9dbd 1831 8abc
000000c0: 32f6 283d 5e37 96bd 9379 0dbd a9cd 6e3d
000000d0: 343d 873b 1489 34bd 5243 b33d 510a 403d
000000e0: 2fd6 2cbd 39a7 453d e617 d3bc 5b04 9a3c
000000f0: f62f 763d 72c2 a43d 04a6 90bc d0b4 1abc
-0.066168375 0.06026067 0.040356923 0.026947444 0.015304382 0.05033421 0.061972853 -0.032216124
-0.024883337 -0.07205856 0.069440104 0.051104818 -0.051479593 -0.00018755863 -0.0028814818 0.0036632828
0.023160962 0.054475754 0.022952257 0.073514745 0.013379191 0.06812759 0.018311108 0.04386746
-0.05656077 0.026797866 0.048623372 -0.01640785 -0.014533742 0.034610923 0.047430284 0.061242472
-0.033147633 -0.010621061 -0.0042477446 -0.040737834 0.09127729 0.03625119 0.045323543 0.038013607
-0.013846738 -0.05004323 0.058033228 -0.029422052 0.06822098 0.053998727 -0.07693292 -0.016869113
0.041250415 -0.07334779 -0.03453977 0.0583016 0.004127169 -0.04407604 0.08753075 0.04688484
-0.04219645 0.04825518 -0.025768232 0.018800905 0.060104333 0.080449 -0.017657287 -0.009442523

bn_outlayer_in.running_mean f4 [64]
00000000: 1481 973b aebf d33b f322 da3a 923a 8c3a
00000010: 1819 09bc 62f8 a2b9 5e13 803b 4c3f 0cbc
00000020: f27c 22ba 047e 143b 1a33 c8bc 2f5b b3bb
00000030: e166 873a e6e1 bbbb 4671 74ba c0f9 ca39
00000040: 97f7 693a 0464 a13a c728 1abb af1e 46bc
00000050: e08e adbb c902 b63b bfea 12bc eb30 87bc
00000060: b10f 113c aee9 96b9 235e 77bc 5da9 2738
00000070: 42e3 b93a 1fa0 f3ba c859 113b d01a 7ebc
00000080: 9d78 1c3c c0fe 3dba bed4 ce38 1f18 243b
00000090: b34f 9abc b7ee 093b 7623 e2bc 8ec6 f83a
000000a0: a8e9 b8bb 1372 c838 d13e 5fbc 89b4 97ba
000000b0: 458f bdbc bb2f 62bc 460b ca3b 5655 8cbc
000000c0: 2ec5 cf3a ae3d f23a d99d b13a 8e88 69bc
000000d0: fe75 f83a f450 bc3b 0925 8cbc b15d 05bc
000000e0: bc5a 36ba 701e 2db9 e25e 14ba b0e0 e739
000000f0: 605f aebc 39e9 b03b 588b b4b8 cc09 343b
0.0046235416 0.006462059 0.0016642496 0.0010698608 -0.008367799 -0.00031084107 0.0039085587 -0.008560013
-0.0006198428 0.002265812 -0.02443843 -0.0054735164 0.0010330343 -0.0057337163 -0.00093247404 0.0003871452
0.00089251384 0.0012313132 -0.002352284 -0.0120922765 -0.005296573 0.0055545312 -0.008967101 -0.016502818
0.008853839 -0.00028784334 -0.015098128 3.9973635e-05 0.0014182108 -0.0018587149 0.0022178758 -0.015509322
0.009550241 -0.00072477385 9.862472e-05 0.0025038791 -0.018836832 0.0021046826 -0.0276048 0.0018980072
-0.0056430884 9.557991e-05 -0.013625816 -0.0011574189 -0.023139605 -0.013805325 0.0061658947 -0.017130535
0.0015851611 0.0018481517 0.0013551071 -0.014253749 0.0018956063 0.005746955 -0.017107503 -0.008140014
-0.00069562695 -0.00016509905 -0.00056598906 0.0004422716 -0.021285713 0.005398896 -8.609024e-05 0.002747166

bn_outlayer_in.running_var f4 [64]
00000000: 7dc7 823b ad8b e13a dbba ca3a 5e02 973a
00000010: 66ad a23b 72d8 563b d968 ff3a e0ff 083b
00000020: d730 7e3a 6278 3d3b 7333 6a3a 8b5d 973b
00000030: 85d6 823a 628d d83b 88a6 873b 9b9a 1b3a
00000040: 8916 a03b 0e80 c93b aea6 433b eab7 cb3b
00000050: 8f32 773a d36b 9f3b 6299 383b 6283 8d3a
00000060: 9315 b03b 6ebe 803b e1f7 c13b e158 c13a
00000070: 59fc 913a 2df0 8b3b d3ec f13a a89e f43a
00000080: 80e6 8e3a ec3b b63b 444c 833a 7016 693b
00000090: f1b1 903b 3259 f93a 0fb0 d13a 1d39 e23a
000000a0: c8a1 263b 652d 883b 5e42 e23a aeb9 a23a
000000b0: b655 c73a a3b3 453a 1463 423b 68d4 d53b
000000c0: fcf1 d03a 9b3f 6e3b 3ad8 a23a 8a0b 9d3a
000000d0: d1fb 173b 2d6a 7a3a c917 9739 6dfc 973b
000000e0: bcd0 483a 0e26 873b e68b 8a3a e894 c73a
000000f0: 7240 b63a 02ff 7d3b 3274 ae3a d4f6 bb3a
0.003991066 0.0017207764 0.0015467064 0.0011521091 0.0049645184 0.003278282 0.0019486203 0.0020904467
0.0009696609 0.0028910865 0.0008934058 0.0046193055 0.0009982145 0.006608651 0.004139725 0.0005935819
0.004885499 0.0061492985 0.0029853988 0.0062169926 0.0009429836 0.0048651486 0.0028167595 0.0010796601
0.0053736656 0.003928951 0.005919442 0.001475122 0.0011137828 0.0042705745 0.001845742 0.0018663006
0.0010902435 0.0055613425 0.0010017236 0.0035566352 0.0044157435 0.0019023775 0.0015997904 0.0017259453
0.002542602 0.004155802 0.0017262211 0.0012414956 0.0015208039 0.00075417216 0.0029661106 0.006525565
0.0015941258 0.003635383 0.001242406 0.0011981588 0.0023190866 0.00095525646 0.00028818686 0.004638246
0.00076604984 0.0041244095 0.0010570257 0.0015226873 0.0013904704 0.0038756733 0.0013309775 0.0014340528

gnn_layers.0.gnn.att_i f4 [1, 1, 64]
00000000: 94cc 443b 76bc 6b3e f109 8e3d 655f a4be
00000010: 7407 a53e 2956 613d f847 76be 3faa 1dbe
00000020: 86e0 7e3e 0acc 623d 4759 063e 2a31 2b3e
00000030: 49b0 efbd 5276 ae3c f1c7 5dbe ca5a 993e
00000040: 81e1 30be 5828 6e3e 3bb5 c23d 221d bb3d
00000050: df9a 9bbe b9c1 a13c edf6 4c3e 2fed 2b3c
00000060: 65a4 193d f7c9 013e 36e9 34be 0669 37bd
00000070: 4a7b 603d a061 793e 460f 4a3e 3be4 53bd
00000080: fa57 133d a628 fdbd 665d efbc f784 34be
00000090: 0223 6d3e 43e0 92bd f909 e13d 8566 133e
000000a0: 9da1 513c 6c8b 063d 7b2a ea3c bcd8 7ebe
000000b0: 19a3 32bd e9c3 6bbc ed23 a4be 4ce4 c63e
000000c0: 99c3 96bd d218 1abe c464 bdbe c4b1 a8be
000000d0: 2e46 383e 9b3e 1ebe 9951 35be 3cec a0bd
000000e0: 463b 6d3e 738f f4bd 8552 3a3e 19e8 2c3e
000000f0: 8686 9bbe 98d7 7b3e 7c54 a8bb e157 983e
0.0030029165 0.23021111 0.0693549 -0.3210403 0.3223225 0.05501381 -0.24050891 -0.15396975
0.24890336 0.055370368 0.13119994 0.16717973 -0.117035456 0.021296654 -0.21658303 0.2995208
-0.17273523 0.23257577 0.09507223 0.09136416 -0.30391595 0.019745694 0.2001607 0.010493561
0.037510294 0.126747 -0.17667088 -0.044777893 0.054805078 0.24353647 0.19732389 -0.05173133
0.035972573 -0.12361269 -0.02921934 -0.17628847 0.23157886 -0.07171681 0.1098823 0.14394577
0.012794879 0.032847807 0.02858471 -0.24887365 -0.043612573 -0.01438997 -0.3205866 0.38846052
-0.07361526 -0.1504853 -0.3699094 -0.32948124 0.17995521 -0.1545357 -0.17706908 -0.07857558
0.23167142 -0.11941423 0.18195541 0.16885413 -0.3037607 0.24593961 -0.0051370244 0.29754546

gnn_layers.0.gnn.att_j f4 [1, 1, 64]
00000000: 4dc9 293e 388f 9bbe 9fd7 3a3d 5033 c43d
00000010: 3833 c2bd 70d1 763e 4f1e 83be 64dc ddbd
00000020: 9023 913e fa42 993e 6e4d 0f3e 5dc7 28be
00000030: e6c5 8cbe 368c 6ebe 5f12 7ebd 7570 193e
00000040: e639 cf3d 056a bcbc d317 913e 1f3c 863e
00000050: e12d 11be a803 ebbd 114a 0a3c df96 513d
00000060: 72bc 303c 8aad 073e 0fe3 643e 9ef1 9ebd
00000070: f1a6 fd3d 4ae2 613d d590 ee3d 7058 e53d
00000080: c3ae bfbd f126 06be 3714 ec3d bd32 38be
00000090: ccd5 2e3e 55ba 49be 2f70 493e 1d30 df3d
000000a0: 49f3 5cbd a3e0 3b3e aba1 8ebd 474d 603d
000000b0: d207 a23d c9fe 903c b439 933d 4166 3e3c
000000c0: 0b18 87bd 3009 383e 73d4 db3d 92f0 d13d
000000d0: e247 3a3e e3ff 31be 9031 adbd 1718 1d3c
000000e0: 0927 713e 0a7f 60be 04bc 3abe f4a2 98bd
000000f0: e527 89be 6dff 66be 55a2 4c3e c75d a5ba
0.16580696 -0.30382705 0.04561579 0.095800996 -0.094824255 0.24103332 -0.2560906 -0.10833052
0.28347445 0.29933912 0.13994381 -0.16482301 -0.27494735 -0.23295674 -0.06202924 0.14984305
0.10118465 -0.022999773 0.2833849 0.26217744 -0.14177658 -0.11475307 0.00844051 0.051169273
0.010787116 0.13249794 0.22352241 -0.077609286 0.12385357 0.055147447 0.11648718 0.11198509
-0.09359505 -0.13100792 0.11527293 -0.17988105 0.17073745 -0.19699986 0.19671701 0.10897849
-0.053942952 0.18347411 -0.069644295 0.054761197 0.07911648 0.017699616 0.071887404 0.011621059
-0.06596383 0.17972255 0.10733881 0.10250963 0.18191484 -0.1738277 -0.08456719 0.009588263
0.23550047 -0.21923462 -0.18235785 -0.07452956 -0.2678825 -0.22558375 0.199838 -0.0012616449

gnn_layers.0.gnn.att_em_i f4 [1, 1, 64]
00000000: dbd3 36bd 5f41 23bd 80ff f53c 8f48 293d
00000010: 6310 d23c 42a8 43bd 9fc0 0b3d 8142 63bc
00000020: 20af 493c 750b cebb a9da 04bc 5af0 133d
00000030: fbe5 f23c c2b4 83bc c51e 65bd 1fe9 7f3b
00000040: b9a9 24bd c166 bf3c 0d01 2e3d 7524 f83c
00000050: 3985 1f3d 39ab 06bc 6bdd 8b3c 31e6 54bc
00000060: 457f 36bd f46f 16bd 61d2 10bc 5763 543c
00000070: 9013 a03c ad36 febb 5c8a 873c 7669 dd3b
00000080: 391f 633d c0cc c13a 4cfd 05bc bd83 f3ba
00000090: b63b 973d 08fb dabc 2dba ecbc e8b1 f9b7
000000a0: b61d acbc 0026 11bc 865c b73b 6de9 0dbd
000000b0: 2f3d 1c3d c4d7 12bc 643c 963c 747f 173d
000000c0: 561c 77bd 7b93 203c 2881 893c 15f8 06bd
000000d0: ed29 d6bc 74c9 843d d2d4 e63c 56f6 98bc
000000e0: 2c82 eebc 1a76 b5bc 553c 583c edfe ac3c
000000f0: 8287 b93c f251 adbd e56b 98bd cbe4 05bd
-0.044635635 -0.039857265 0.030029058 0.041328963 0.02564258 -0.047767885 0.034119245 -0.013870836
0.012309819 -0.006287987 -0.008108773 0.03611789 0.029650679 -0.016077403 -0.055937547 0.0039048863
-0.040200923 0.023364427 0.04248147 0.030290822 0.03894541 -0.008219534 0.017073354 -0.012994335
-0.044554967 -0.03672786 -0.008839221 0.012963138 0.019540578 -0.0077579827 0.016545467 0.0067569567
0.055449698 0.0014785752 -0.008178066 -0.001857869 0.07384436 -0.02673103 -0.02889737 -2.9765957e-05
-0.021010261 -0.008859158 0.0055957465 -0.03464644 0.038144287 -0.008962575 0.018339343 0.036986783
-0.060329758 0.009800787 0.01678522 -0.032951433 -0.026143039 0.06483737 0.028177653 -0.01867215
-0.029114805 -0.022151042 0.013197978 0.021117652 0.022647623 -0.084628955 -0.07442454 -0.032688897

gnn_layers.0.gnn.att_em_j f4 [1, 1, 64]
00000000: 24fb 72bd 1e73 6dbd 8c3b 6c3d ee25 4cbd
00000010: 575b 0bbd 635f 813d 95a4 58bd e2f1 363c
00000020: ddf0 613d 4474 edbc 12aa ad3c dea1 44bb
00000030: 9a8e 3dbc 9d00 073d c28c a0bd eee0 28bd
00000040: 47dc 8d3d 97cd 413d 2293 4f3d b1ba 7ebd
00000050: 70c0 7a3d 3d24 653b 6169 36bd c6e4 123d
00000060: 5877 d7bc 7ee0 a4ba c0fe f03b 6521 283d
00000070: 6385 0e3d 4421 01bc 8cb2 a3bc 81d4 883d
00000080: 4ea8 5cbc 4cac 543c 93e6 5f3c 2656 9bbc
00000090: f89c 3ebd 2893 9fbc 93e6 0d3d 134b 6ebd
000000a0: e864 26bd e273 6f3c 99f2 a73c 4caa 76bd
000000b0: 4cd1 703d 11da 273d f633 983d bf9a 433d
000000c0: 2807 7bbd 8476 3c3a f902 41ba d2a9 1e3d
000000d0: d5ae a1bd 099d c33b 6a4f 673d 28c6 f13c
000000e0: cfda 9b3c 3f9c 2cbd 1a0f 723d a50a f1bc
000000f0: 2512 663d 3394 d63c d895 31bb 950c 87bd
-0.059321538 -0.057971112 0.057673976 -0.04984086 -0.034022655 0.06317022 -0.052891333 0.011166068
0.055161346 -0.028986104 0.02119926 -0.0030003707 -0.011569643 0.03295957 -0.078393474 -0.041230135
0.0692678 0.047315206 0.050677426 -0.06218976 0.06121868 0.0034964227 -0.04453409 0.035862707
-0.026302025 -0.0012579111 0.0073545873 0.041047473 0.034795176 -0.007881466 -0.019982599 0.06681157
-0.013467861 0.012980532 0.013665813 -0.018961977 -0.046536416 -0.01947935 0.03464372 -0.058177065
-0.040623575 0.014615031 0.020501422 -0.060221 0.05879335 0.04097945 0.07431786 0.047755
-0.06128612 0.0007189291 -0.00073628087 0.038736172 -0.07894675 0.005969648 0.05647222 0.029513434
0.019025235 -0.042141195 0.059096433 -0.029424021 0.056169648 0.026193714 -0.002709737 -0.06594197

gnn_layers.0.gnn.bias f4 [64]
00000000: 33cc fbb9 1af5 fab8 9623 05b9 e22a 8eba
00000010: 968d fa38 7478 bb39 c19a 2abb 7942 553a
00000020: fe5e ed39 4951 e439 6975 44b9 a01b 2c39
00000030: 8275 253b 4756 96ba 39b3 713a 3962 50bb
00000040: 21ce 9cba 7868 933a 1a12 f238 641f aab9
00000050: b290 6ebb a88d 8939 1265 9e37 3ebe 6abb
00000060: f0ad 1eba 2fc4 34bb 6167 acb8 0be9 2c3b
00000070: 66a8 6fba f14d b23a 3bb9 b1bb 53d5 caba
00000080: e50d f93a c411 45bb cf88 b3ba 3206 d6ba
00000090: 37d5 84ba e23f 193b d732 1cba 162b 7ab9
000000a0: 4f5b 7cba 9419 ab3a afd9 f1ba 9285 90b9
000000b0: 7bba f1b9 1182 ef39 a3cd 813a 03b2 823b
000000c0: 7767 40ba 6481 0e3b 58f6 8aba 8501 d5b9
000000d0: 16f1 dc39 a672 063a 2ec3 92ba 16ed cdba
000000e0: 5ca5 923a 07f0 ecbb af44 a9ba f0ae 5ab9
000000f0: 3545 6bba 8e60 9aba 5997 d43a 930c ccba
-0.0004802659 -0.00011966583 -0.00012697125 -0.001084652 0.000119473014 0.00035757164 -0.0026032182 0.00081352104
0.00045274937 0.0004354811 -0.00018735755 0.0001641349 0.0025247042 -0.0011469804 0.00092201267 -0.0031796827
-0.0011963287 0.0011246344 0.00011542831 -0.00032448315 -0.0036402163 0.00026236218 1.8882132e-05 -0.003581896
-0.00060531404 -0.0027582755 -8.220855e-05 0.0026384022 -0.000914222 0.0013603551 -0.0054236925 -0.0015474953
0.0019001333 -0.0030070404 -0.0013697388 -0.0016328751 -0.0010134344 0.0023384024 -0.00059585035 -0.00023857909
-0.0009626643 0.0013053888 -0.0018451716 -0.00027565338 -0.0004610604 0.0004568254 0.0009903203 0.003988506
-0.0007339636 0.0021744603 -0.0010601981 -0.00040627658 0.00042141293 0.0005128778 -0.0011197084 -0.0015710916
0.0011188197 -0.007230762 -0.0012914146 -0.0002085527 -0.0008974851 -0.0011778043 0.0016219422 -0.0015567712

gnn_layers.0.gnn.lin.weight f4 [64, 15]
00000000: c397 e93d 531d 6dbd 6ea0 8d3e 29cd 5c3c
00000010: 67ef 02be 88a2 b03d bf02 1f3e eae0 7b3c
00000020: 60f5 7c3e 76ea 28be ded5 f83d cbe0 223e
00000030: 74d3 143e cf30 463c a9c2 a03d 2217 70be
00000040: 8732 67be 4ca4 e8bc d923 45bd 2b49 473e
00000050: 5123 403e d818 383e 7dc4 00be cb49 5ebe
00000060: 83b0 86be 88ca d83d 1eb1 6cbe 74ee 7fbe
00000070: 63bf dabd e00e 3bbe 926a 02be 0226 39be
00000080: a22f 1cbe 7777 7a3e e35d 7bbd 6df2 5c3e
00000090: 8522 85bc 7525 14bd b7f1 a9bd 7be6 4fbe
000000a0: 380e 67be 9df1 383e 4b71 b8bd b080 88be
000000b0: 05c3 883e 2755 d83c 8918 33be e3f2 4fbe
000000c0: 5cd0 62be d845 71be fed1 823e 0744 443e
000000d0: eb56 0e3c febb 79be 57d1 8dbd 8152 8bbe
000000e0: befb 603d d2bd 00be 42f0 f9bd ac4f 32be
000000f0: ad6d da3d 2170 103e 72a1 523d 139c 33bd
00000100: 1e67 e7bc f5d6 24bb 3393 4ebe 34f4 923e
00000110: 7e98 c9bd 2ecb 2f3e 9d7a 03be 4c34 3e3d
00000120: 0000 1a3e 6da1 41be f777 573e 8858 43be
00000130: 5f5b 6a3d 0476 16bd 8a92 353e d956 913e
00000140: 911c a03d b366 bf3b 5399 f5bd e6b9 e83d
00000150: 9efc febd b5e3 f03d 8cc7 e3bd 1000 4a3e
00000160: e8ed 643e b348 433e 97f2 0fbc bd5c f03d
00000170: bdec 85be 9775 563e 3a4d b1bd acd3 aa3d
00000180: b4a5 74bd df2d f0bd fa18 18be 7096 2c3e
00000190: 41fb 24be d057 a5bd 5602 bd3d cd50 dcbc
000001a0: 6c4f 9abe 1353 89be 8fbc 0abe 5158 803e
000001b0: 31c0 49be 0d5a 183e ff61 493e 3aa5 f0bd
000001c0: 59af 0bbe 5ae2 54be 8547 183d 7b73 41bd
000001d0: 7157 d73a 8a6f d13d 17c1 c13d bd3b f2bd
000001e0: d12a 3ebc 60a7 143d 39cd a2bc cc40 d03c
000001f0: 6a5d 0cbe a83f 543e 81f4 4dbd 8f5f 23bd
00000200: dc69 7cbe 8ee3 4cbe a063 0e3c 2815 17bd
00000210: 55b4 fdbd c9a3 293e c1c0 473c 6af5 cf3d
00000220: 9805 6f3e 9abd fbbd f383 01be 17ac 30bd
00000230: 68e7 0dbc d572 05be af24 43bd 3197 c93b
00000240: 626d 093e c0d0 853e af4e 5b3e f3e4 443d
00000250: fe8b f93b 642a bd3d 069f 0b3a f70b c0bc
00000260: 5b3b d93d 1aff 57be 72be 5ebe 2a80 9c3c
00000270: 2b1f 8cbd caa9 debd e34c 6fbe defc 4a3e
00000280: f8c4 003c e720 e8bd 08fe 84bd 7b16 013e
00000290: 729d 04be ac41 a2ba 3144 62bc 1913 aa3d
000002a0: f18c c93d fe64 36be 44d2 f33d c8a9 593e
000002b0: ebcd 0c3d 2db4 1f3e a126 b8bd 94cf a03d
000002c0: 7cb6 e83d 3b58 b5bd aa1c 5c3e 51ee 4dbe
000002d0: 58a8 eebd 08f1 32be 2c4a 35be 6b1c 39be
000002e0: ce9e 8cbe eb0e f63c 7dcd 89bd ba11 82be
000002f0: 5293 8ebc 5a0f 68bd ac04 d23d 0644 72be
00000300: afc5 debd a302 9f3c 9a63 983d 8902 e43b
00000310: d9ab 883d 7f05 873e 98d5 e1bd 33fa 2f3e
00000320: 5776 603e 990e 84be f448 503d 4d88 143e
00000330: 00ba 5cbd 2f24 183e 32a0 393c 2031 543e
00000340: 6e03 833b 2bc3 2bbe 9f52 6b3e c77d cc3d
00000350: 7a79 7b3e 4711 9c3d 91d2 133e d51c 273e
00000360: 7fb6 423d 7dda 95bd 490a 673d f9b6 3ebe
00000370: 979b 3f3c 5163 bfbd add5 f33a 88ad 74be
00000380: d320 093e f641 8fbe 5d8a c43d 0862 1e3e
00000390: 62ca 91be 2b7c 653e 777f 5fbe 913e 8ebd
000003a0: e3f5 0f3e f3ae b9bd 4624 6e3e 123b 04be
000003b0: d1a9 23bd f646 31be 4500 ecbd 8b16 933e
000003c0: 1496 5f3e 1379 d93c 5fa4 d13c 5a8e 6dbe
000003d0: b035 4b3e 6c88 5cbd e4ad 02be 2895 73be
000003e0: a764 563e 2c36 f03d e9d3 1b3e 6eeb 923c
000003f0: 3465 50be 888a bf3d 4208 263c 811b b73d
0.114058994 -0.057889294 0.2766146 0.013476648 -0.12786637 0.086247504 0.15528391 0.015373448
0.24702978 -0.1649569 0.12150167 0.15906064 0.14533788 0.012096598 0.078496285 -0.23446324
-0.22577868 -0.028398655 -0.04812989 0.19461505 0.18763472 0.17978227 -0.12574954 -0.21707837
-0.26306543 0.10585505 -0.2311444 -0.24993306 -0.10681035 -0.18267393 -0.12735966 -0.18080905
-0.15252545 0.24459635 -0.061368834 0.21576853 -0.016251812 -0.036168534 -0.082980566 -0.20302765
-0.22564018 0.18060918 -0.09005984 -0.2666068 0.26711288 0.026407791 -0.17489828 -0.20307498
-0.22149795 -0.235618 0.25550836 0.19166575 0.008687715 -0.2438812 -0.06924694 -0.27211383
0.05492758 -0.1257241 -0.12204029 -0.17413205 0.1066545 0.14105274 0.051423497 -0.043850016
-0.028247412 -0.0025152538 -0.2017334 0.28701937 -0.09843539 0.1716735 -0.12839742 0.046436593
0.15039062 -0.18909235 0.21041857 -0.1907674 0.057216045 -0.036733642 0.17731681 0.28386572
0.078179486 0.0058411 -0.11992135 0.11363582 -0.12450527 0.11762182 -0.11122045 0.19726586
0.22356379 0.19070701 -0.008785865 0.117364384 -0.2615718 0.20943294 -0.08657308 0.083411545
-0.05972834 -0.11727499 -0.14853278 0.16854262 -0.16111471 -0.080733895 0.09228961 -0.026893998
-0.3013872 -0.26821193 -0.13548492 0.2506738 -0.19702221 0.14878102 0.19666289 -0.117502645
-0.13641109 -0.20789471 0.03717758 -0.04722927 0.0016429258 0.102263525 0.09460657 -0.118278004
-0.011606888 0.036292434 -0.019873248 0.025421523 -0.1370751 0.20727408 -0.050282005 -0.039886054
-0.24649757 -0.2000868 0.008690745 -0.03688541 -0.12387911 0.16566385 0.012191952 0.10154231
0.23341978 -0.12292023 -0.12647991 -0.043132868 -0.008661129 -0.13032086 -0.047642406 0.0061520566
0.13420632 0.26135826 0.21416734 0.048069905 0.0076155653 0.09236601 0.00053261255 -0.023443205
0.10607024 -0.21093407 -0.21752337 0.019104082 -0.06841882 -0.108722284 -0.23369174 0.19823024
0.007859461 -0.113344006 -0.06493765 0.12606232 -0.12950686 -0.0012379191 -0.013810203 0.08304424
0.098413356 -0.17811963 0.11905339 0.21256173 0.034376066 0.15596075 -0.08991743 0.078520924
0.11362931 -0.08854719 0.2149531 -0.20110442 -0.11653203 -0.17474759 -0.17704076 -0.18077247
-0.27464908 0.03003641 -0.06728647 -0.2540415 -0.017404232 -0.056655265 0.10254797 -0.23658761
-0.10877549 0.019410437 0.074408725 0.00695831 0.06673402 0.2637138 -0.11027068 0.17185287
0.21920143 -0.25792387 0.050850824 0.1450512 -0.05388832 0.14857553 0.011329697 0.20721865
0.0039982116 -0.1677367 0.22980736 0.099849276 0.24558058 0.07620483 0.14435793 0.16319592
0.047537323 -0.07317064 0.056406293 -0.18624486 0.01169481 -0.09345115 0.0018603109 -0.23894322
0.13391428 -0.27980012 0.09596703 0.15467083 -0.28474718 0.22410648 -0.21825968 -0.06945527
0.14058642 -0.09066572 0.23256025 -0.12913159 -0.03995687 -0.17312226 -0.11523489 0.28728136
0.21834594 0.02654699 0.025591074 -0.23198834 0.19844699 -0.05384104 -0.12761647 -0.23787367
0.20936833 0.117290825 0.15217556 0.017934527 -0.20351106 0.093525946 0.010133805 0.08940793

gnn_layers.0.bn.weight f4 [64]
00000000: 5e0b 6d3f 8e45 793f 09a1 673f 1332 663f
00000010: f2b3 7a3f 8db1 613f dae8 683f 0088 6e3f
00000020: b9a9 763f e1fc 643f 3154 6f3f bc98 683f
00000030: 708a 6f3f f76a 643f 1462 6a3f cfc4 653f
00000040: 1881 643f 25e6 613f bee8 603f 49f1 783f
00000050: 3208 603f aa45 673f 8356 623f 08dd 743f
00000060: b71d 653f b549 673f cebd 803f 1884 693f
00000070: 0892 6a3f 60a9 613f 66d5 643f 6034 733f
00000080: 3446 763f 184b 693f 3fd7 683f af24 813f
00000090: 0c03 553f a248 673f 4b35 6a3f 221e 623f
000000a0: 6225 723f 9930 673f 0b3d 6a3f a55e 643f
000000b0: d0e2 663f 4afe 7e3f 93c0 5d3f 9b52 7d3f
000000c0: 8721 623f f0d0 623f 6799 6a3f a920 7e3f
000000d0: 52a5 673f 4d67 763f cb90 6f3f 2873 663f
000000e0: c0e0 773f b528 623f 6fe8 723f 37cd 663f
000000f0: d77d 6a3f 8ab2 643f a64b 5e3f cac3 6f3f
0.9259547 0.9737176 0.90480095 0.8992016 0.97930825 0.88161546 0.90980303 0.9317627
0.96352726 0.8944836 0.9348784 0.90858054 0.93570614 0.89225715 0.91555905 0.8975343
0.8925948 0.882418 0.87855136 0.9724317 0.87512505 0.90340674 0.88413256 0.95649767
0.89498466 0.90346843 1.0057924 0.91217184 0.91629076 0.8814907 0.8938812 0.9500179
0.9620087 0.9113021 0.9095344 1.008932 0.83207774 0.90345204 0.9148757 0.8832723
0.9458829 0.9030853 0.91499394 0.89206916 0.9018984 0.99606764 0.8662197 0.9895417
0.8833241 0.88600063 0.91640323 0.99268585 0.90486634 0.96251374 0.9358031 0.90019464
0.96827316 0.88343364 0.94885916 0.90156883 0.91598266 0.8933493 0.8683418 0.93658125

gnn_layers.0.bn.bias f4 [64]
00000000: c693 42bd ae01 953d 3c6e d93d bc60 d43d
00000010: a81e bdbc 4894 b83d 53b2 b93d 01a4 16bd
00000020: 7f82 fd3c 66f0 72bd eb1b d73d 1486 72bd
00000030: df97 36bd c381 8e3d 4da0 873d 6146 b73d
00000040: 628e 913d 65e5 b13d 7c50 7fbd 32c4 dbbc
00000050: 8050 ca3d 9ec7 8e3d 5173 a1bd ff1d 133d
00000060: 943d 74bd 8cc9 9c3d c09c 05bb aa25 933d
00000070: 0c9d 893d 0f78 a83d 478e d83d bcb7 4e3d
00000080: 524d 1dbd 691b 863d e005 e83d e19d 773c
00000090: f058 063e e711 d93d 0f7c 723d e779 e73d
000000a0: c855 f2bc c292 62bd 77f3 8c3d 0afc c13d
000000b0: a450 a73d 8e8a 48bc a9fb aabd 2a1d 973c
000000c0: a2de af3d 8a1a 91bd e57b 823d 2822 66bc
000000d0: 8827 7b3d 95c7 a7bc 1d5c 033e a2ec 8f3d
000000e0: 7edc 203d f3a5 b53d 0063 613d b8ab 963d
000000f0: c5ae 573d 3377 c13d 2439 c13d 9ec0 753d
-0.04750421 0.07275711 0.10616729 0.10370013 -0.023085907 0.090126574 0.09067216 -0.0367775
0.030946014 -0.059311293 0.10503372 -0.059209898 -0.04457843 0.06958344 0.06622372 0.089489706
0.071072355 0.08686332 -0.062332615 -0.026826952 0.098786354 0.06971668 -0.07883323 0.03591728
-0.059629038 0.076556295 -0.002038762 0.07184918 0.067194074 0.08226024 0.10574012 0.05046819
-0.038403817 0.06548197 0.113292456 0.015113325 0.13119864 0.10599118 0.059200343 0.11302548
-0.02958192 -0.05531574 0.06882375 0.09471901 0.08169678 -0.012240065 -0.083487816 0.018446524
0.08587386 -0.0708514 0.06371287 -0.014046229 0.061316997 -0.02048091 0.12828107 0.07027556
0.039272778 0.08869543 0.055026054 0.073569715 0.052656908 0.094465636 0.09434727 0.059998147

gnn_layers.0.bn.running_mean f4 [64]
00000000: 802f ef3e d730 0dbf 2312 67be 6379 11bf
00000010: 375b 4a3e 78d8 c43e 02e4 86be 74ea 27be
00000020: ab52 38be 0af1 8e3e c055 9bbe e6d9 6c3e
00000030: bd38 1abf 6b90 963e da5f 653e 8a8b e4bd
00000040: 2477 ad3d 32d4 1f3e d892 c33e 8521 f33d
00000050: 4b25 17bd 976e 8a3e a62b fc3e 4872 90be
00000060: 6625 833e cac6 be3e cb5f b33e a93c 6bbe
00000070: aab0 dfbd 03c6 f83d a31b 5fbd a320 1dbd
00000080: 9a12 5cbe c9d3 9a3d 2860 48be 84f9 373c
00000090: df08 fa3e 516f 90be 694c 98be a9dd 6ebe
000000a0: fbba c13c 7ffa e63e 4fe6 d5bc ae7a f7be
000000b0: de8b 65bd c26a 5dbe 3ae1 df3d fb98 253e
000000c0: a191 bcbd 2dd2 783e 78f6 91be cb57 38bf
000000d0: 9f7b 88be 8859 42bf d1db e7be 78c2 d03c
000000e0: 1feb c1be 2214 0c3e 25bb dbbe 035f 78be
000000f0: 4c40 14bf 3a0d 853d c18b 2cbe 3da5 5abe
0.46715927 -0.5515265 -0.22565512 -0.56825846 0.19761358 0.38446403 -0.2634583 -0.1639803
-0.18000285 0.27918273 -0.3033886 0.23129997 -0.60242826 0.29407057 0.22399846 -0.111594275
0.0846999 0.1560829 0.3819797 0.11871628 -0.0369008 0.27037498 0.4925205 -0.2821219
0.2561447 0.3726104 0.35034022 -0.22972359 -0.10922368 0.12147143 -0.054469716 -0.038361203
-0.21491471 0.07559926 -0.1956793 0.011228923 0.48834893 -0.28209928 -0.29745796 -0.23326744
0.02364873 0.45112988 -0.026110796 -0.48335785 -0.05604159 -0.21622756 0.109316304 0.16171639
-0.09207464 0.24298926 -0.28508353 -0.7200896 -0.26656815 -0.75917864 -0.45284894 0.025483355
-0.37874696 0.13679555 -0.42916217 -0.24254994 -0.5791061 0.064966634 -0.16850187 -0.21352096

gnn_layers.0.bn.running_var f4 [64]
00000000: ca73 7e3f 53f4 aa3f 3ba2 6d3e 44ca b93f
00000010: 1559 3b3e 6a3f 293f 18b5 9c3e cafa 053e
00000020: 8178 143e 491d af3e 053c db3e 4828 7a3e
00000030: 79ec de3f e33d d23e 0527 983e ad51 713d
00000040: 7197 193d 0f5e d03d 7d67 213f 8a6b 943d
00000050: 644b b33c 998c af3e ba36 8d3f c9c3 c33e
00000060: 7307 943e 1f73 223f fb5d 113f 7f00 843e
00000070: 9252 613d 2bb8 7b3d 81c0 883c 0a4c 3d3c
00000080: ffb7 6c3e 2262 f73c 18bd 5f3e c181 483b
00000090: 2cf6 913f 5a42 b73e 48d3 cf3e b81c 963e
000000a0: 6a2e 863c 3619 733f 7bdb 813b f8f6 8b3f
000000b0: 17cb 723c aae6 6b3e 1d67 8b3d 9878 fd3d
000000c0: 278b 1f3d 23a6 853e fa18 b83e d52e 1340
000000d0: f5c0 bb3e 7038 2c40 34ad 6e3f 399e f13b
000000e0: 91d2 2b3f 6edb c83d 44d6 5b3f 0366 863e
000000f0: 36d2 b83f 099d 113d 7589 053e 76c2 7a3e
0.9939543 1.3355812 0.23206417 1.4514852 0.18295701 0.6611239 0.30606914 0.1308395
0.14499094 0.3420203 0.4281923 0.24429429 1.7415916 0.4106284 0.2971727 0.058915783
0.03749794 0.1017419 0.63048536 0.07247074 0.021886535 0.34286955 1.1032326 0.3823531
0.28911933 0.6345691 0.5678403 0.25781628 0.055010386 0.061454933 0.016693356 0.011553774
0.23117064 0.03019816 0.21849477 0.0030594917 1.1403251 0.3579281 0.40590882 0.29318786
0.016379554 0.94960344 0.0039629317 1.0934744 0.014818928 0.2303721 0.06806777 0.12376517
0.038951065 0.26103315 0.35956556 2.2997334 0.36670652 2.6909447 0.93233037 0.007373598
0.67118174 0.09807478 0.8587382 0.26249704 1.4439151 0.03555015 0.13040717 0.24488243

out_layer.mlp.0.weight f4 [1, 64]
00000000: 1640 8ebd fba1 5bbd 0b79 f8bc 0741 7abd
00000010: 39fb 8ebd f447 b13d 30f2 24bd bdb0 863d
00000020: 2675 84bd 2da3 24bd a1c3 773d 45f6 9cbd
00000030: 0ab5 433d e243 5b3d 662e a23d adca 95bd
00000040: 1dd0 6c3d b431 ae3d fea2 39bd 71ab e4bc
00000050: 1634 703d 0789 593d 619e d1bd 8e02 d33d
00000060: 78ea 84bc 432a 353d dbc2 90bd ce70 b9bd
00000070: 0cc2 87bd 25ef 863d 9e0a a1bd 6b14 493d
00000080: a601 d2b9 32f6 e83c f0c4 79bd 9e66 29bd
00000090: 228e e6bd 3457 acbd e65c 183e bbec 27bd
000000a0: 5a9b b0bc 62c0 9abd 336d 9c3c dc3d 0ebe
000000b0: 9d37 f53c 3479 a63d d1fc 6ebd 4061 973c
000000c0: a7bf 0abd a8e6 86bd 3989 bfbd 5cb7 483d
000000d0: 1956 9fbd f437 a73c cfc1 da3d f3bb 8f3d
000000e0: 1fa4 a5bd a0b8 b73d 25ac ebbd 85fd adbd
000000f0: 60d4 9d3d dc5c f23c 3395 7cbd 71a6 19bd
-0.06945817 -0.053621273 -0.030331155 -0.06109717 -0.06981511 0.08656302 -0.04027003 0.06576679
-0.06467657 -0.04019468 0.0604893 -0.0766416 0.047780074 0.053531535 0.07919006 -0.07314048
0.05781566 0.08505574 -0.045321457 -0.02791378 0.058643423 0.053109195 -0.102352865 0.10303222
-0.016225085 0.044229757 -0.07068416 -0.09054719 -0.066288084 0.06588582 -0.07863353 0.049091738
-0.0004005555 0.028437708 -0.06097883 -0.04135763 -0.112575784 -0.0841507 0.14879188 -0.04099725
-0.021558452 -0.07556225 0.019095039 -0.13890785 0.029933745 0.081285864 -0.058346573 0.01847899
-0.03387418 -0.06586963 -0.09352345 0.04900299 -0.07780094 0.020412423 0.10681497 0.0701827
-0.08087944 0.08970761 -0.11507443 -0.08495621 0.07706523 0.029585294 -0.061665725 -0.037512247
