pretrained/best_01_24-01_29_15.pt (torch_old, 17588 bytes, 16 tensors)

embedding.weight f4 [27, 64]
00000000: da53 e2bd d2ee 90bd 1a64 893d 7aea 1f3d
00000010: 0e7f 2a3d 2fe8 f3bd 0dc6 b03d 5ccb 203c
00000020: 9406 273d c424 553d 841a 2cbd 62c4 5c3d
00000030: ab93 bc3d c943 d63c 0b00 bbbb cd7c 303d
00000040: 66e8 d3bd d9c6 613c 8997 6c3d b254 533d
00000050: 6214 46bd 7e71 39be 34c1 c33c 5ec9 59bc
00000060: 72a5 f23d 61cc 7bbb 9f3a 4b3d 405a 8b3d
00000070: 4927 78bd 9cce 033d 360b 0c3d 072e b4bb
00000080: e77b af3d c510 1ebe cdd4 8a3d d6ed 0f3e
00000090: 002f 80bd 30a9 f1bd 8f4b d6bd 841e a9bd
000000a0: 470f 6c3d 6e30 ac3d 5f40 9bbd 64f2 f8bd
000000b0: 5ead 58bd 928c 1fbc eecf 233d b52e a43d
000000c0: 85f3 603d 76c5 c739 a2d2 ce3c 0058 02bd
000000d0: 0d38 77bd 281b 923c be73 efbc 9e80 b3bd
000000e0: 3293 373d 39d9 efbd 5a57 31bd 87ea 9b3d
000000f0: 5ab2 40bd c944 a73c 040e 983d 1748 14bd
00000100: fbf0 f03c 5647 1b3e 3a96 11be ac30 09be
00000110: b955 17bd 6903 29bd b4ad 8d3d 28a0 923d
00000120: aeef 4abd 6cd4 b93c 7c59 9ebd 0a00 0dbe
00000130: 535f ddbd 2812 e8bd b913 973d 242f fcbd
00000140: d5f4 b1bd 7b8c bf3d 032b f4bd a5fa e73c
00000150: 35f1 a4bd 7f65 2b3d 36b4 4cbd 1d1e 17bd
00000160: 7717 803d 24c4 003e d719 10be d371 9b3d
00000170: ee13 e13c bf35 6ebb ca90 05be 8fac e03d
00000180: d7e0 bd3d a1d1 eabd 34ea b7bd a831 07be
00000190: 9a23 9bbd 36a3 36bb 47b9 83bd 18e4 b53d
000001a0: f969 53bd aedc 02be 17e5 c03d 8103 d8bc
000001b0: 5c08 37be 0ca7 843d 63df 113d e39a 0abe
000001c0: 76f3 113e 7aeb 963d 1210 bbbd 47b7 0b3d
000001d0: 5916 1a3d 0d70 07be b5d6 b9bd ba5c e2bd
000001e0: d92c 933d 505f 373d 19f5 763d 2235 8abd
000001f0: 98e1 bc3c 76c7 fe3c a2ce 17bd 83c1 e73c
00000200: 9f25 9a3d 222b a83d 4034 1dbd 5f44 b5bd
00000210: 86f6 e0bd 6d4a 143d b4ac c7bd 28aa 3d3d
00000220: 3198 7dbc 58d2 243d c8f6 66bd 2fb0 96bd
00000230: 9b44 8e3d 9f16 23be 5a83 db3c 24f8 efbd
00000240: d732 a1bb 0af6 1cbe 6b99 b3bd 1d51 bdbd
00000250: 8db2 7abd b66a 92bb 8165 d5bd 3570 1dbd
00000260: b934 de3d 288b 473d edd9 b53d a3de e23d
00000270: f7bc b1bc 7382 36bd 7059 d83d 0458 45bc
00000280: 182b da3b 261e 8b3d 5f9d aebd 233f c13d
00000290: 90ca c33c 4c7b afbd 7c49 efbd 48e9 283e
000002a0: 5f99 0d3e 5a2c 153d 056b 97bd 7658 a53d
000002b0: f79e a7bd 2a0b afbd 2380 be3d 2914 833d
000002c0: 4467 a03d e695 bb3d 98c8 e1bd b6ab e8bd
000002d0: cbdf 973d c11a ed3c 9ece 4fbd f4ce a9bb
000002e0: 0bbb 943d 7dd1 33be 176d 8b3d 8719 05bd
000002f0: 37d4 05be 3504 91bd fdaa 91bc 6dd7 9cbd
00000300: cc8b 13be 72e4 573d 0932 e5bc bfee 313d
00000310: 0340 f13d aa9e e8bd 8e9f d0bd 67b1 42be
00000320: 4329 213d e557 5fbd 7a8c 05bd ce1b 7f3d
00000330: 9993 903c 7eba 053d 2db1 d5bd e4b4 a2bd
00000340: 9722 18be 9269 18bc b71e 66bd a3f5 c03c
00000350: 70e1 1fbd a89b 923c ab71 82bd 6b93 c9bd
00000360: 5a41 9a3d e095 11be 9c75 8d3d 8995 e7bc
00000370: 590f 733d af27 a1bb f22a 173d 4c70 aebd
00000380: c9c4 8c3d 6499 ccbd 00a5 e3bd 747e 813d
00000390: 50a7 683c e8dc d5bd 3935 abbc 9d2c 003e
000003a0: 8629 bdbd 9c8c 693d 25b4 a5bd f065 bb3c
000003b0: 3e61 35bd acb6 8bbd 44d4 bf3d 4b09 f8bd
000003c0: e015 dfbd dc06 58bd 3b77 b33d 464e 3e3d
000003d0: d54f db3d 8ab2 e83d 0205 c5bc 61ef 03be
000003e0: 4f0d 88bd 7b89 68bc f4c7 e5bd 1d04 8f3d
000003f0: 67eb 1abc 5835 6ebd c5c5 13be baf4 b43d
-0.1105115 -0.07076801 0.06708546 0.039041974 0.041625075 -0.1190952 0.08631525 0.00981411
0.040777758 0.052037016 -0.042017475 0.053898223 0.09207853 0.02615537 -0.005706792 0.04308777
-0.10347061 0.013780319 0.057761703 0.051594444 -0.048359282 -0.181097 0.023895837 -0.013292639
0.118479624 -0.003842138 0.049616452 0.06804323 -0.06058434 0.03217946 0.03419038 -0.005498651
0.08568554 -0.15436085 0.0677887 0.14055571 -0.062589645 -0.11799848 -0.104636304 -0.082577735
0.057631757 0.08407675 -0.07580637 -0.12155607 -0.05289971 -0.009738104 0.03999322 0.08016721
0.05491974 0.00038103358 0.025246922 -0.031822205 -0.06035619 0.017835215 -0.029229995 -0.08764766
0.04481811 -0.11711354 -0.043296196 0.07613092 -0.04704509 0.020418542 0.07424548 -0.036201563
0.029411783 0.15163931 -0.14217463 -0.13397473 -0.036946986 -0.041263018 0.06917897 0.07159454
-0.049544983 0.022684298 -0.077319115 -0.13769546 -0.10809197 -0.11331588 0.07376809 -0.12313679
-0.08689276 0.093529664 -0.11922266 0.028317759 -0.08053819 0.04184484 -0.04997655 -0.036893953
0.062544756 0.12574822 -0.14072357 0.075900696 0.027475324 -0.0036347953 -0.13043514 0.10970413
0.092714004 -0.11465765 -0.089802176 -0.13202536 -0.0757515 -0.0027868277 -0.06431823 0.08881396
-0.051614735 -0.12779495 0.094186954 -0.026368858 -0.17874283 0.06477174 0.03561343 -0.13535647
0.14253029 0.07369132 -0.091339245 0.034110334 0.03761897 -0.13226338 -0.09074155 -0.110528424
0.071862884 0.04476863 0.060292337 -0.067484155 0.02305679 0.03110097 -0.037062295 0.028290516
0.07526707 0.08211352 -0.038379908 -0.088509314 -0.109845206 0.03620379 -0.097497374 0.04630485
-0.01547818 0.040239662 -0.056387693 -0.07357823 0.06946679 -0.15926598 0.026796032 -0.11717251
-0.0049193907 -0.15328231 -0.087694965 -0.09243987 -0.061205436 -0.0044682873 -0.10419751 -0.038437087
0.108499 0.048716694 0.08879457 0.11077621 -0.02169655 -0.044558 0.10563934 -0.01204491
0.006657969 0.0679286 -0.0852611 0.094358705 0.0239003 -0.08568439 -0.11683938 0.1649524
0.13828038 0.03641925 -0.07393459 0.08073513 -0.08184617 -0.08547051 0.09301784 0.064003296
0.07832196 0.0915945 -0.11024588 -0.11360876 0.07415732 0.028943421 -0.050734155 -0.0051821414
0.07262238 -0.17560382 0.068079166 -0.032495048 -0.13069235 -0.070808806 -0.017781729 -0.07658277
-0.14408797 0.052708097 -0.02797796 0.043440577 0.117797874 -0.11358388 -0.10186683 -0.19012986
0.03934599 -0.054527182 -0.032604672 0.062282376 0.017648505 0.032648556 -0.10434184 -0.079446584
-0.14856945 -0.009302514 -0.056181636 0.023554629 -0.039033353 0.017896488 -0.06369337 -0.09842571
0.07531996 -0.14217329 0.06907198 -0.028269546 0.05934081 -0.0049180607 0.03690619 -0.08517513
0.06873471 -0.099901944 -0.111154556 0.06322947 0.014200047 -0.10442525 -0.020899402 0.12517019
-0.092364356 0.05701886 -0.080910005 0.022875756 -0.04428219 -0.06821951 0.09366658 -0.121111475
-0.10892844 -0.052740917 0.08762976 0.046461366 0.10708586 0.113621786 -0.02405024 -0.12884285
-0.066431634 -0.014192934 -0.11219779 0.069832064 -0.009455538 -0.05815634 -0.14430912 0.088357404

bn_outlayer_in.weight f4 [64]
00000000: 8f40 733f f9ee 843f 1ced 823f b592 7e3f
00000010: 8022 773f e376 7f3f 7fef 813f 990d 703f
00000020: 4345 743f 1b1a 773f 67c4 923f 00d9 783f
00000030: 131f 733f c633 743f f49c 733f 29f2 793f
00000040: 441d 753f e550 7b3f bce6 7c3f 3ba0 893f
00000050: a575 803f 7c08 743f 828a 7c3f 2f1e 753f
00000060: f4f2 7a3f b776 7c3f 6c44 7d3f 6eee 773f
00000070: a2eb 763f 8c09 7c3f 3026 7f3f 3920 783f
00000080: 430c 793f db40 7a3f 3a92 823f f11c 7b3f
00000090: b844 893f 1332 7d3f fd76 7e3f 54c6 833f
000000a0: 3929 783f 97d4 703f 3a78 833f 19eb 793f
000000b0: 5ed6 973f 5286 7d3f d3b7 773f de92 743f
000000c0: a3f6 7f3f 40b8 743f 37ed 723f ac64 783f
000000d0: f48e 763f 9510 763f 0a05 8f3f 807b 7e3f
000000e0: 39a9 763f 86e4 763f e7ac 753f 414a 773f
000000f0: 9995 7b3f 74fb 833f 577b 793f 136a 813f
0.95020384 1.0385429 1.022861 0.9944261 0.9653702 0.9979078 1.0151213 0.9377075
0.95418185 0.9652421 1.1466187 0.97206116 0.9496929 0.953915 0.95161366 0.9763513
0.9574778 0.9817031 0.9878957 1.0752023 1.0035902 0.95325446 0.98648846 0.9574918
0.9802697 0.98618644 0.9893253 0.9684819 0.964533 0.9845207 0.99667645 0.9692417
0.97284335 0.9775521 1.0200875 0.98091036 1.0724096 0.9890453 0.9940031 1.02949
0.969379 0.94074386 1.0271065 0.97624356 1.1862295 0.9903308 0.9676487 0.955366
0.9998571 0.95593643 0.9489321 0.97028613 0.9631188 0.9611905 1.1173413 0.99407196
0.96351963 0.9644245 0.95966953 0.9659768 0.9827514 1.0311112 0.97453827 1.0110496

bn_outlayer_in.bias f4 [64]
00000000: ef5f c1bd bc64 773d eee0 383d 0e7a 323c
00000010: 93d2 a43d d6a7 073d 7505 823d e7b0 1cbd
00000020: 5984 0dbd 6aae f2bd 1114 b73d 1494 d63d
00000030: 1e09 9cbd c201 cabc 5055 d8bc 5bdd 21bc
00000040: 1631 703c 86b7 303d 2492 303d 4a80 583e
00000050: 440a 623c 43f7 913d ccc8 693d 9c9f c23c
00000060: 2c43 e3bd 3899 c83c f2e9 e63d 3b14 e9bc
00000070: e101 b6bc abb5 a13b 21f3 013d 6799 543d
00000080: 4195 f6bc cf46 9abc 1aa2 b7bc cffc 85bd
00000090: b828 173e b755 fa3b 484e 223c 2642 fe3c
000000a0: d048 97bc 431f aebd 0373 7c3d e22f 61bd
000000b0: 9d8b e33d 7b00 513d 67cd fdbd 5474 e1bc
000000c0: f812 043d 4753 fcbd d8d9 1ebd 52ab 5f3d
000000d0: 21bb f7ba 8c90 56bd 4c7a a13d 1fe3 843c
000000e0: 0d4d 40bd f44e e13c bcca 56bd 56fe 43bb
000000f0: fc23 753d 24e1 993d 6588 c6bc 1ad2 7f3b
-0.09442126 0.060398802 0.045136385 0.010893358 0.08047976 0.033119045 0.06348697 -0.038254645
-0.034550045 -0.11849673 0.08939374 0.104774624 -0.076189265 -0.024659041 -0.026407868 -0.009879435
0.0146601405 0.04314377 0.04310812 0.21142688 0.013796393 0.071272396 0.05707626 0.023757748
-0.110967964 0.024487123 0.1127509 -0.02845203 -0.022217693 0.0049349866 0.031726006 0.05190411
-0.030100467 -0.018832592 -0.022416163 -0.0654236 0.14761627 0.0076396125 0.009906359 0.031037401
-0.018467337 -0.085020564 0.06163312 -0.054977305 0.111106135 0.05102585 -0.12392693 -0.02752129
0.032244653 -0.123205714 -0.03878197 0.054606743 -0.0018900373 -0.052383944 0.078846544 0.016221581
-0.04694848 0.027503468 -0.052439436 -0.0029906235 0.05984877 0.07513645 -0.02423496 0.0039035142

bn_outlayer_in.running_mean f4 [64]
00000000: b813 613b 89b0 073b 6b40 423b 111b 683a
00000010: 1d67 93bc 543b 943a cb3a 653b c67e 43bc
00000020: b237 55ba 64cd 2f3b 6db6 bbbc 69ac 69bc
00000030: b8e9 0a3b 5603 f8ba c9d3 b1ba 6174 96b9
00000040: 7e32 fb3a e0bf 903b 8989 9abb b2bf 1bbd
00000050: 28d0 22bc 181f e63b 82a0 5ebc b8e8 9abc
00000060: 9ddf d43b 1797 2a3b 6272 cdbc 8ed5 adba
00000070: 4ac8 3c38 6b8e ebb9 4079 ae3a dc11 bbbb
00000080: 6aa2 4a3c 0fb5 53ba 3277 2cba 8e52 773a
00000090: b36a 18bd 6f4c 423a b3f3 e7bc 1ffa ff3a
000000a0: a2c2 34bb 9753 4f3a 3d0b 71bc d7c2 14bb
000000b0: 7e08 f4bc 84ad 8ebc 10e4 c13b b537 80bc
000000c0: 2c18 923a b3e8 c63b af0c b2ba 21a1 90bc
000000d0: 1ccb 44b9 1a23 1b3c a3ab 99bc f55d 66bb
000000e0: bb13 05bb f9f2 4b3a e87d 03bb 4f4e 053a
000000f0: 458d d6bc f7bb d43b 7bea e0ba a41b 0fb9
0.0034344029 0.0020704588 0.0029640447 0.0008854131 -0.017993504 0.0011309185 0.003497767 -0.011932081
-0.00081336044 0.0026825303 -0.022914136 -0.014262297 0.0021196436 -0.0018921893 -0.0013567145 -0.00028696939
0.0019164828 0.0044174045 -0.0047161025 -0.03802461 -0.009937324 0.0070227496 -0.013588073 -0.018909797
0.0064963833 0.0026029998 -0.025078956 -0.0013262497 4.5009227e-05 -0.00044928803 0.0013311282 -0.005708916
0.012367824 -0.0008075991 -0.0006579041 0.0009434604 -0.03721113 0.0007411902 -0.028314447 0.0019529498
-0.002758183 0.0007908879 -0.014712152 -0.0022699141 -0.029789206 -0.017416723 0.0059170797 -0.015651563
0.001114612 0.0060702204 -0.0013584102 -0.017654957 -0.00018767681 0.009468818 -0.0187586 -0.0035151218
-0.002030595 0.0007780041 -0.002006406 0.0005085216 -0.02619041 0.0064921337 -0.0017159724 -0.0001364784

bn_outlayer_in.running_var f4 [64]
00000000: 1278 673b c5f0 f03a 9144 003b 19c5 c63a
00000010: a9f6 ba3b f9e7 543b 3631 143b e221 ef3a
00000020: 79b2 933a a2ba ab3a 5d85 f239 318b b23b
00000030: bf35 a13a d260 c03b 3656 8e3b 6fd6 373a
00000040: 9d8d 833b e171 a33b ac8b c03a 1bf8 523c
00000050: b01b 473a 4976 753b 138c 2e3b ec75 9b3a
00000060: e2be 4d3b 372a 463b bea1 db3b 9dc2 e33a
00000070: 2a02 c63a 7077 653b 3fa8 063b 48b9 843b
00000080: c583 bb3a 8759 ac3b 658e af3a ba27 483b
00000090: 97c5 df3b 6d37 213b f42d c73a 4c6f 223b
000000a0: 3955 e83a 3285 423b 5886 633a ed36 b23a
000000b0: 4a3d 453a 94b2 693a f323 9e3a 4d1f be3b
000000c0: ed69 f33a 4b9c 003b 50af c23a 6016 c33a
000000d0: e7db 2a3b 0ac8 a23a e9ca cc39 b4d5 5a3b
000000e0: b909 5d3a dc98 6c3b ae80 a03a c19f dc3a
000000f0: a2fa bb3a 2e21 873b 1094 e73a 4144 ef3a
0.003531937 0.0018382302 0.0019572119 0.0015164941 0.0057056737 0.00324869 0.002261234 0.0018244351
0.0011268399 0.0013101886 0.000462572 0.005448722 0.0012299343 0.005870917 0.0043437732 0.0007012849
0.0040146844 0.0049879407 0.0014690063 0.012876536 0.00075953733 0.0037454537 0.0026633784 0.0011860705
0.0031394293 0.0030237564 0.006702631 0.0017376725 0.0015106846 0.0035013817 0.002054706 0.0040504076
0.0014306238 0.005259696 0.0013393877 0.0030541257 0.0068289745 0.0024599687 0.001519619 0.0024785576
0.0017725594 0.0029681441 0.00086793816 0.0013596691 0.00075240864 0.0008914855 0.0012065157 0.005802071
0.0018570997 0.0019624408 0.0014853273 0.0014883988 0.0026071013 0.0012419235 0.00039061092 0.0033391537
0.000843193 0.0036101853 0.0012245381 0.0016832278 0.0014341662 0.0041238284 0.0017668027 0.0018254594

gnn_layers.0.gnn.att_i f4 [1, 1, 64]
00000000: 7149 063c fed4 653e 2730 3b3e 0675 a7be
00000010: 0b8f d63e 19ac 933d 0ef9 98be dc49 4fbe
00000020: e593 7a3e e2b4 443d 699b d53d 79b7 e63d
00000030: bed3 efbd f732 23bc 1624 3cbe 24ff ce3e
00000040: 7a6f 65be 5f27 773e 8e8e 553d 9aeb c53d
00000050: 4baa abbe 2726 3bbc 3b88 633e 99d2 573c
00000060: e89c b83d 78d7 d13d 8e6e 1fbe e560 2e3c
00000070: bdee 2ebc fb73 8e3e 112c 293e d727 b7bd
00000080: 8eb2 4abc 6366 13be 9ce6 9dbd f773 1ebe
00000090: ee51 813e 5b68 e6bd 2fe7 f53d 98d9 033e
000000a0: 9368 f939 a933 343d 9c65 d23c 67d9 66be
000000b0: 1f6b 6dbd 2063 0b3d c0fc babe ac1e f03e
000000c0: 1b65 c9bc c088 5cbe f5dd babe 9cb5 b0be
000000d0: 7d63 4d3e 7a2d 16be 3e7c 50be 012a 73bc
000000e0: cda0 643e c8ee 49be d5cd 403e e5e3 1a3e
000000f0: 75db a4be 5064 b33e af32 5f3d 276d 8e3e
0.008196221 0.22444531 0.18280087 -0.3270647 0.41906008 0.072105594 -0.29877514 -0.20243019
0.2447048 0.048024066 0.10430033 0.112654634 -0.117103085 -0.009960881 -0.1837314 0.40429032
-0.22405806 0.24136113 0.052137904 0.09664078 -0.3352836 -0.01142267 0.22219937 0.013172769
0.090143025 0.102461755 -0.15569517 0.010643219 -0.010677037 0.2782286 0.16520716 -0.08943146
-0.012371672 -0.14394526 -0.07710001 -0.15473925 0.2525782 -0.11250373 0.120069854 0.12875974
0.00047570895 0.04399458 0.025683217 -0.2254387 -0.057963487 0.03403008 -0.36520958 0.468984
-0.024584344 -0.21536541 -0.36497465 -0.34513557 0.20057483 -0.14665785 -0.20359895 -0.0148415575
0.22326966 -0.19719994 0.18828519 0.15125997 -0.32198682 0.3503747 0.054491695 0.27817652

gnn_layers.0.gnn.att_j f4 [1, 1, 64]
00000000: e253 2b3e 489d 9bbe 99a6 363d 6b6f c43d
00000010: c5b2 bcbd f2f1 753e 914f 87be 7dc8 cfbd
00000020: c351 8e3e 84f5 983e 8766 0f3e b015 26be
00000030: 9459 8cbe 1723 6cbe ba81 8cbd 9f4a 263e
00000040: 4aa2 c43d 6aa3 d7bc d568 943e c204 863e
00000050: 6422 22be 37ad efbd d924 d43b 593e 5d3d
00000060: 3d7b 9c3c 168a 0d3e 85f0 653e c105 9cbd
00000070: 9a10 ec3d e4af 473d f7a3 d63d 8142 eb3d
00000080: 31df c1bd 1f55 05be 77ea f03d 290a 33be
00000090: 2ff0 2b3e 6578 4dbe 500c 4a3e 4515 e93d
000000a0: 2a19 6bbd aeb2 3f3e 6cfa 83bd 8d79 6a3d
000000b0: e417 a83d 18fd a73c 237a 983d 3131 e23a
000000c0: e1f5 87bd c7ad 383e 9f2d e23d 4825 cc3d
000000d0: 4a8e 383e f7d2 31be e170 a9bd 01ab fc3c
000000e0: f502 703e 426e 54be 3ca4 35be 9c6c a4bd
000000f0: 04e2 8abe e5d5 74be 265b 343e 71ab a33a
0.16731218 -0.30393434 0.044592474 0.09591564 -0.09213785 0.24018076 -0.26427892 -0.10145662
0.27796754 0.29874814 0.14003955 -0.1621921 -0.27412093 -0.2306026 -0.06860681 0.16239403
0.09601267 -0.02632304 0.2898623 0.26175505 -0.15833431 -0.1170296 0.006474119 0.054014537
0.019101733 0.13822207 0.22455032 -0.07618285 0.11526604 0.048751727 0.104804926 0.11487294
-0.094663985 -0.13020752 0.117634706 -0.17484345 0.16790842 -0.20065458 0.1973126 0.1138101
-0.057397045 0.18720505 -0.064442486 0.057244826 0.08207682 0.020506427 0.07445171 0.0017257092
-0.066386946 0.18035041 0.11043858 0.09968048 0.18023029 -0.17365633 -0.08273483 0.03084326
0.23438628 -0.20745185 -0.17738432 -0.08028528 -0.2712556 -0.2390972 0.17612895 0.0012487007

gnn_layers.0.gnn.att_em_i f4 [1, 1, 64]
00000000: 48fa 12be 8b52 72be 2e72 1a3e aeb1 343e
00000010: b227 e93d 7eac 5fbe c4aa d73d f765 9bbd
00000020: 0c88 a53d 9047 693d 290f f43c 0c82 263e
00000030: cab9 113e f9b9 e2bd 0cbf 4cbe 0fd2 e0bb
00000040: dfea c9bd 7dcd bbbc 17b5 243e 9d9f 013e
00000050: 36da c43d 6072 c4bd 1d02 ba3c f6fd b4bd
00000060: f519 29be 0369 4fbe 3c91 633d f212 0abc
00000070: 7b17 af3d f88c 17bd fba9 ee3d d4a1 f1bd
00000080: 7295 4a3e 3dfe 683c b1a5 cfbc d347 0a3d
00000090: f8ba 803e 611e 9ebc 00cd febd 01e6 a13c
000000a0: 126f a9bd 8d6a 893d 4277 12bd 09e6 a6bd
000000b0: 6e5f 0b3e 55b9 f1bd 9fb9 913d 6311 8d3d
000000c0: bd9a 40be 2c42 b5bb bd6e ce3c a595 1bbe
000000d0: 9792 a1bd e75c 6a3e b377 f73d 31ed f2bd
000000e0: e336 b0bd e60f 0bbe 052e 583d d2c6 f33c
000000f0: 616f 3e3b 84c8 98be e413 5abe fec2 13be
-0.14353287 -0.236643 0.15082619 0.17645904 0.113845244 -0.21843144 0.10530618 -0.075878076
0.080825895 0.056953013 0.029792385 0.16260546 0.14231029 -0.11070628 -0.19994754 -0.0068609784
-0.09859251 -0.022925133 0.16084705 0.12658544 0.09611933 -0.09592128 0.022706086 -0.08837502
-0.16513808 -0.20254903 0.05555843 -0.0084273685 0.085494004 -0.036999673 0.11653515 -0.117984444
0.19783571 0.014220771 -0.025347563 0.033759903 0.25142646 -0.019301595 -0.124414444 0.019762995
-0.08273138 0.06709776 -0.035758264 -0.081493445 0.13610622 -0.118029274 0.071154825 0.06888082
-0.18809028 -0.00553157 0.025199289 -0.15193804 -0.07889288 0.22887002 0.12083378 -0.11861647
-0.08604219 -0.13580284 0.052778263 0.02975789 0.0029058086 -0.2984048 -0.2129665 -0.14429852

gnn_layers.0.gnn.att_em_j f4 [1, 1, 64]
00000000: 8d84 aabd 04b9 0ebe 8421 1d3e ea14 23be
00000010: e878 9dbd 72aa be3d b1f8 19be 7e9a 8a3d
00000020: ba6d 983d c80f f3bc 7fa7 4a3d b89c d9bc
00000030: 530b afbd b462 943d ac75 0cbe a6ba f4bd
00000040: 5d08 283e 9aff f93d 1ab9 4f3d e321 0bbe
00000050: 9887 043e 4949 d53b ea88 febd 7ddc 3d3c
00000060: e23f 84bd 8ae2 06bc 3abd 98bc 2bd3 af3d
00000070: a97c 063d 46c1 823c d2ac 2cbc ba4f 0a3e
00000080: 3508 b4bc b120 b03c 6b7b b2bb 62d6 afbb
00000090: dd14 d5bd b0d6 c1bd 3f27 803c b831 1ebe
000000a0: a4d4 30be 46d3 bf3d c8b2 b23d 0c76 f2bd
000000b0: 107c 133e 0c2f e43d 7be7 073e 2ce8 263d
000000c0: f75b dcbd b649 f03b 6441 8a3d 44cc 9f3d
000000d0: 068c 14be 1cb3 ebbc 6b2a e23d 298e 903d
000000e0: b6b5 d33b 2f83 01be c0d3 b53d 8e70 69bd
000000f0: 0f27 d33d 1cf4 95bc c98a 2a3b 25c3 10be
-0.08326063 -0.13937765 0.15344816 -0.15925947 -0.07689077 0.093098536 -0.15036274 0.06767748
0.07442804 -0.029670611 0.049476143 -0.026563987 -0.08547082 0.072453886 -0.13716763 -0.11949663
0.1640944 0.12206955 0.050713636 -0.13587146 0.1294235 0.0065089804 -0.12428458 0.011588213
-0.06457497 -0.008232722 -0.018644918 0.08585199 0.03283373 0.0159613 -0.01053925 0.13506976
-0.02197657 0.021499963 -0.0054468415 -0.0053661326 -0.1040437 -0.094647765 0.015643714 -0.15448654
-0.17268616 0.09366469 0.08725506 -0.11838922 0.14402795 0.11141786 0.13271897 0.04074876
-0.107597284 0.007333006 0.067507535 0.078026325 -0.1450654 -0.02877193 0.11043247 0.07058365
0.0064608706 -0.12647699 0.08878279 -0.056992106 0.10310184 -0.018304877 0.0026022664 -0.14136942

gnn_layers.0.gnn.bias f4 [64]
00000000: f7e9 f639 6959 383a e181 0eba dc8b fbba
00000010: bdf9 853a 9f14 d2ba 6547 263a 8436 54bb
00000020: 9c4a b9ba b3d0 58b6 d5e5 93ba 584a 8dba
00000030: 3b67 493a 5b07 a8ba d023 e33a 039a 62bb
00000040: d97a 91ba 15f9 54bb 627e 8a39 bb62 6c3a
00000050: 0fcd 6ebb 9699 4a39 dc42 413a 9f7d 0cbb
00000060: ddac 9ab9 f964 20bb 253e 0239 23ff 6c3b
00000070: 91b9 5abb 2885 febb 3395 26bb 1780 93bb
00000080: b7d7 1b3a 2a4e c0bb 85b9 27bb 44e0 1ebb
00000090: 938d 1db9 4ccd 1d3a 62bb 8339 794c 2039
000000a0: d0ab 173a 98f9 883a 3f2b a5bb a82d d3ba
000000b0: 583c eb3a 137f 543a b392 a73a 86cf 6a3b
000000c0: 5083 a0ba d056 233a eb94 80b9 8246 9539
000000d0: 3f58 843a 8993 3fb9 5d5e 113a 31ac a6bb
000000e0: 7bae 66ba 6b94 fdbb 4693 12bb a832 1f3a
000000f0: 8c6c 89b9 186a 31bb 0a66 cb3b 60e8 beba
0.00047095094 0.0007032366 -0.00054362236 -0.0019191462 0.0010221523 -0.0016027874 0.0006343036 -0.0032381127
-0.0014136615 -3.2307987e-06 -0.0011283705 -0.0010779602 0.0007682924 -0.0012819575 0.0017329399 -0.0034576661
-0.0011099234 -0.0032497097 0.00026415574 0.00090173975 -0.0036438142 0.00019321436 0.00073723285 -0.002143718
-0.00029501962 -0.0024474247 0.00012420917 0.0036162816 -0.0033374766 -0.0077673383 -0.002541852 -0.0045013535
0.0005944925 -0.005868693 -0.0025592756 -0.002424256 -0.00015025427 0.00060196663 0.00025125878 0.00015287277
0.0005785795 0.0010450361 -0.0050405557 -0.0016111629 0.0017947061 0.0008106094 0.0012784809 0.003582926
-0.0012246165 0.00062308926 -0.00024525015 0.00028472027 0.00100971 -0.0001827014 0.0005545372 -0.005086445
-0.00087998033 -0.00773864 -0.0022365614 0.0006072917 -0.0002621155 -0.0027071293 0.0062072324 -0.0014565103

gnn_layers.0.gnn.lin.weight f4 [64, 15]
00000000: 5bc8 dd3d 7141 83bd e132 8f3e 96dc 1e3c
00000010: ac38 03be 52e6 b03d 93fe 1e3e facb ce3c
00000020: 1d2f 813e 5e4f 26be 4c85 f93d f9aa 233e
00000030: f271 153e 0571 2b3c 6026 993d 0cb1 6bbe
00000040: aa1c 64be 34ed 06bd 2523 20bd c7a5 4c3e
00000050: eae1 433e 5b13 393e 2b1c 02be 58d8 5fbe
00000060: c34e 88be 03a8 c33d 2e53 6ebe 671b 82be
00000070: 9c15 fdbd 5a7d 18be 69b4 1ebe dabf 51be
00000080: 091f 35be 5825 7a3e 1835 5cbd 3347 603e
00000090: d0f6 d2bc ae20 83bc 6868 99bd 281b 4cbe
000000a0: d70e 7fbe f172 353e 58a0 e9bd 1f37 b5be
000000b0: db8a c63e 3993 133d 46a3 29be 6c5f 48be
000000c0: 24d2 70be ebd7 76be 19d1 7e3e 4ab3 403e
000000d0: 1db0 d8b9 14a1 7dbe 8682 75bd 461f 7bbe
000000e0: 4700 5e3d f6dc fcbd 9cb1 c5bd 9693 6cbe
000000f0: e605 b33d d9c8 f43d 41cf 013d 62e6 2fbd
00000100: 04f4 04bd 0d70 e5ba 799f 4ebe 1814 973e
00000110: 3a31 bebd d17a 2c3e 9e44 14be db42 5b3d
00000120: 2e86 1f3e 7325 52be a9e4 8b3e 42ee 4bbe
00000130: 96b4 463d eb14 24bd 4151 313e b2eb 8f3e
00000140: 9b54 a03d 0936 b83b f4dd e4bd a25b ee3d
00000150: 4d88 f7bd afd7 ef3d 5272 dcbd da85 483e
00000160: f61b 5c3e ecea 5f3e 98ed 153c 68a9 0b3e
00000170: 63da 81be cbbb 593e f2ae a8bd 890d ab3d
00000180: 5d54 68bd 4b12 04be 2648 1dbe b726 343e
00000190: d70c 0ebe 1623 a7bd 99ff be3d 711e 8abb
000001a0: 2ee0 b7be fac6 87be 45e1 07be 7782 803e
000001b0: a0ba 4bbe b6e8 153e 2838 483e 1c72 e6bd
000001c0: 8a33 0fbe 47fb 52be e6fe 233d ddc7 21bd
000001d0: 1f6e 323b 8bda d73d f903 dd3d 4806 10be
000001e0: 4055 bbbc a38f b83c 1167 cebc 67a0 c13c
000001f0: 0756 0dbe 834f 5a3e 48a1 43bd 8bf8 ecbc
00000200: 3299 77be b83d 47be 6937 033c 66ef 05bd
00000210: 6150 00be b917 173e db61 7e3d a475 b03d
00000220: 5cfa 603e 5d6d 01be 5ab5 08be 2239 3abd
00000230: e7c4 0abc 4cc0 05be 5ea4 13bd 7235 5a3c
00000240: 6fe0 0d3e 033b 863e 5e8a 603e 8244 583d
00000250: a656 f63b e65c d53d 54db 733c d18b 3bbc
00000260: 2f7e e63d 7833 4bbe c555 50be 21e3 0b3d
00000270: 557f 7ebd 2da6 cdbd 6d3f 74be 941d 403e
00000280: 8778 10bc b4e0 01be 0d8c a5bd 0857 bc3d
00000290: 4868 e2bd 41ac f7bb f944 98bc 8947 9a3d
000002a0: 145b d23d e991 32be fc06 f63d 641a 5c3e
000002b0: 60f2 1d3d cf28 233e 8104 b7bd 5052 973d
000002c0: 76c8 f33d fe27 a8bd df9b 5a3e 6843 2ebe
000002d0: 468c ddbd f4fb 29be 9f2d 34be 5ad2 36be
000002e0: d558 8cbe 2d15 da3c 3b02 8bbd 334a 87be
000002f0: 44cd b6bc e2b2 6ebd 2ed7 d93d 3365 75be
00000300: 771e debd 3827 f43c f3a6 413d 2ac1 543c
00000310: ae18 953d 168c 853e c1fc d8bd db32 313e
00000320: 55bc 603e 48cd 82be 24ef 3a3d abe6 123e
00000330: d5eb 59bd b225 1a3e 56d2 7d3c 1b83 583e
00000340: 0866 163c 6c38 20be d45e 7d3e d69a f33d
00000350: 8e59 833e 7bd0 9b3d cb84 143e 3afa 243e
00000360: 9592 5d3d 0746 92bd e058 833d dcce 2ebe
00000370: cb48 1c3d 4888 a8bd 51b1 7a3c 8652 55be
00000380: ba89 d93d 9814 95be 1c84 a03d f481 0b3e
00000390: 264d 94be 9001 633e 69d1 5abe 160e 8fbd
000003a0: 2386 1f3e 601f a9bd 8c75 733e 8e01 09be
000003b0: 0745 21bd f01c 3abe 30ce 16be b318 a73e
000003c0: 344f 5e3e 6652 d13c 0ff9 bd3c 979b 75be
000003d0: aaaf 403e c241 75bd c0c1 06be 8421 79be
000003e0: aeaa 523e 247e f53d 7800 243e 93d4 b43c
000003f0: 2f17 4ebe 7a0a cf3d 301f 063b 917e 8d3d
0.108292304 -0.06408966 0.27968505 0.0096961465 -0.12814587 0.0863768 0.155268 0.025243748
0.25231257 -0.16241214 0.121836275 0.1598319 0.14594248 0.010463958 0.074780226 -0.23016757
-0.2227656 -0.03294106 -0.039096016 0.19985114 0.19129148 0.1807379 -0.12706058 -0.21859872
-0.2662259 0.0955353 -0.23273918 -0.2541153 -0.12357637 -0.14891568 -0.15498509 -0.20483342
-0.1768762 0.24428308 -0.05376157 0.2190216 -0.025752455 -0.016006794 -0.07490617 -0.19932234
-0.24908005 0.17719628 -0.11407536 -0.35393617 0.38777813 0.036029074 -0.1656619 -0.1956765
-0.23517662 -0.24105804 0.24884452 0.18818393 -0.00041329945 -0.24768478 -0.05993893 -0.24523649
0.054199483 -0.123468325 -0.09653017 -0.23103175 0.087413594 0.11952371 0.031691793 -0.04294432
-0.032459274 -0.0017504707 -0.20178021 0.29507518 -0.09286733 0.16843726 -0.144793 0.053530555
0.15578529 -0.20522098 0.2732289 -0.19915107 0.048512064 -0.04005901 0.17316152 0.2810951
0.07828637 0.005621676 -0.11175147 0.11638571 -0.12086544 0.1171106 -0.10763992 0.1958231
0.21495041 0.2186696 0.009150885 0.13638842 -0.25361928 0.21263044 -0.08236493 0.08352191
-0.05672108 -0.12897603 -0.15359554 0.17592894 -0.13872086 -0.08160989 0.09326095 -0.0042150547
-0.35913223 -0.26518995 -0.13269527 0.25099537 -0.1989541 0.14639553 0.19552672 -0.112522334
-0.13984504 -0.20603667 0.040038012 -0.039497245 0.0027226282 0.10539731 0.10791773 -0.14064896
-0.022867799 0.022529429 -0.02519563 0.023636056 -0.13802348 0.21319394 -0.04776123 -0.028927108
-0.24179533 -0.19457138 0.008008816 -0.03269901 -0.12530662 0.14755143 0.06210504 0.08616188
0.21970505 -0.12639375 -0.1335043 -0.045464642 -0.008469797 -0.13061637 -0.036045425 0.013318406
0.13855146 0.26216897 0.21927783 0.05279971 0.0075176535 0.104181096 0.014883835 -0.011446909
0.11254536 -0.19843853 -0.20345218 0.034152154 -0.062133152 -0.10041461 -0.2385232 0.18761283
-0.008817798 -0.12683374 -0.08083353 0.091962874 -0.11055046 -0.007558376 -0.018587576 0.075331755
0.10271278 -0.17438473 0.12013051 0.21494442 0.038561225 0.15933536 -0.08936406 0.07388747
0.11903469 -0.08210753 0.21348523 -0.17017901 -0.10817771 -0.16600019 -0.17595528 -0.1785368
-0.27411523 0.026621426 -0.06787535 -0.26423797 -0.022314675 -0.058276065 0.106367454 -0.23964386
-0.108456545 0.029803857 0.047278356 0.012985507 0.07280098 0.2608344 -0.10595084 0.17304556
0.21946843 -0.25547242 0.04563822 0.14345805 -0.053203423 0.15053442 0.0154920425 0.21143763
0.0091796 -0.15646523 0.24743205 0.11894767 0.25654262 0.07608124 0.14503781 0.16111079
0.05409487 -0.07142263 0.06413436 -0.17071098 0.03815536 -0.082291186 0.015301065 -0.20832261
0.106219724 -0.29117274 0.07837698 0.13623792 -0.2896511 0.22168565 -0.21368946 -0.069851086
0.15578513 -0.082579374 0.2377531 -0.133795 -0.03937247 -0.18175101 -0.14727092 0.32636032
0.21709901 0.025551986 0.02319005 -0.23985134 0.1881701 -0.059877165 -0.13159847 -0.24329191
0.20572922 0.1198695 0.16015804 0.02207402 -0.20126031 0.1010942 0.0020465367 0.06908906

gnn_layers.0.bn.weight f4 [64]
00000000: 2797 673f 6fed 583f e026 4e3f 3ec2 543f
00000010: 41f4 7c3f 04a4 4e3f e8d8 4a3f 906f 523f
00000020: c6e6 713f e7d2 3a3f a12e 363f 7bfc 593f
00000030: 3bdb 663f 4b44 583f 247c 603f 6cd0 483f
00000040: 5a66 4f3f cccd 4b3f bbf8 363f 1803 683f
00000050: 5ba1 243f b573 583f 20f3 493f 38cf 653f
00000060: 52e5 3a3f 33c9 493f c6ac 723f ed08 583f
00000070: da40 613f 9fe7 4e3f fea8 413f e42b 563f
00000080: be18 773f c528 5a3f 837d 4c3f d00d 5e3f
00000090: 192d 423f 8989 553f 973d 5f3f 36ef 563f
000000a0: a498 683f 70a2 533f 6d8f 253f 9abe 443f
000000b0: 2fdc 2a3f cf58 7c3f 62a4 3b3f 6182 6c3f
000000c0: 4969 303f 157e 393f f2dc 563f de04 793f
000000d0: 0ec3 583f 2415 763f cf7d 4e3f c7ae 473f
000000e0: de45 5f3f 5c73 4a3f d977 563f 445c 4f3f
000000f0: 047c 513f 1ce4 373f 3a91 393f 3052 4a3f
0.90465015 0.84737295 0.8052807 0.8310889 0.988102 0.8071902 0.7923722 0.8220148
0.9449276 0.7297806 0.711649 0.8515088 0.9017827 0.84479207 0.87689424 0.78443027
0.8101555 0.79610896 0.7147328 0.9062972 0.6430871 0.84551555 0.78886604 0.89769316
0.73006165 0.7882263 0.9479488 0.8438862 0.8798958 0.80822176 0.75648487 0.8366072
0.9652213 0.8521846 0.79879016 0.86739826 0.75850064 0.83412987 0.87203354 0.83958757
0.9085791 0.82669735 0.64671975 0.76853335 0.66742224 0.9857301 0.73297703 0.9238644
0.6891065 0.7245801 0.83930886 0.9727305 0.8467263 0.9612601 0.8066072 0.78001064
0.87215984 0.79082274 0.83776623 0.8100016 0.8182986 0.7183244 0.72487223 0.7903166

gnn_layers.0.bn.bias f4 [64]
00000000: cbfa 61bd 58c7 263e 7905 2c3e 7254 103e
00000010: 82e6 9d3c 2aff f33d 90ec 1b3e 9024 a3bd
00000020: 33b6 163d 577f efbd 6a87 923e e9c1 a2bd
00000030: 48ff 68bd f4bf b03d e97d a63d 9118 193e
00000040: 1413 cc3d 58c3 f53d a331 f6bd 860c b13d
00000050: 8301 5c3e 5624 ba3d 415a 00be 75c8 893d
00000060: aeee edbd 0b9a f43d 08b8 08bd 661d e73d
00000070: e010 b13d b488 e33d 1988 373e 35a7 d73d
00000080: 0f52 1fbd d38f ac3d 35b9 363e a5c9 873d
00000090: 8d29 373e dd9f 163e e9b2 a33d 31be 133e
000000a0: 7aef 5e3d c76c a0bd 5cf5 553e c3dd 1d3e
000000b0: 808d 943e 2706 8bbc 3430 08be 95a5 363d
000000c0: 3e16 5c3e eb58 02be ded9 d33d 2215 c2bc
000000d0: d34e c23d c880 57bc 551c 653e 34bb f63d
000000e0: 1af6 a63d 3053 003e da32 c23d 8be0 ec3d
000000f0: e419 b23d 5913 333e 0186 2f3e 6a62 123e
-0.055170815 0.16286981 0.16798963 0.14094713 0.019274954 0.11913903 0.1522696 -0.07965958
0.036794852 -0.1169421 0.28618938 -0.07947142 -0.05688408 0.08630362 0.08129484 0.14950778
0.09964576 0.120001495 -0.12021186 0.08644967 0.21484952 0.09088962 -0.12534429 0.06727687
-0.1161779 0.11943444 -0.03337863 0.11284904 0.08645797 0.111100584 0.17923011 0.10529939
-0.038896617 0.0842587 0.17844088 0.066302575 0.17886944 0.1470942 0.07993109 0.14428021
0.0544276 -0.07833248 0.20894378 0.15416627 0.29014206 -0.016970707 -0.13299638 0.044591505
0.2149286 -0.12729232 0.10344289 -0.023691718 0.09487691 -0.013153262 0.22374089 0.12047425
0.08152409 0.12531734 0.094823554 0.11566266 0.086963445 0.1748785 0.17140962 0.14295354

gnn_layers.0.bn.running_mean f4 [64]
00000000: 93f8 a63e 3ee0 c1be 234b 2fbe 5ef6 ccbe
00000010: fb2f 0f3e fc16 8b3e 2ae1 35be 47a0 e7bd
00000020: 1c22 f3bd 32b3 483e 60ba 58be 4cb0 303e
00000030: b217 d7be 1240 5a3e 2f7b 443e 209d a8bd
00000040: bd57 4b3d 758a ba3d 5142 813e cbb9 c03d
00000050: de8e 22bd e664 4e3e 9c4e b13e e7f0 56be
00000060: 003d 0d3e d20b 873e 5910 793e dff6 12be
00000070: f433 7fbd 8013 5b3d 9109 94bd 4096 903c
00000080: f234 1fbe 7ae8 1e3d 5d47 70bd 5026 763c
00000090: 81a1 b13e ef52 50be 82a1 63be f5ec 0dbe
000000a0: 9393 02bd 9ece 9e3e 0550 c0bc 246f b5be
000000b0: 529f edbd d3af fdbd d18c da3c c28a 023e
000000c0: b0c4 b7bd d56b 073e 29c8 4fbe f635 03bf
000000d0: 513c 4ebe c8e1 07bf 1039 93be eae9 523d
000000e0: d7db 86be f512 e13d 5853 9ebe 07c1 3cbe
000000f0: 685a d3be ede5 233d c4a1 febd 16fc 09be
0.32611522 -0.37866396 -0.17118506 -0.40031713 0.13983147 0.27165973 -0.17761675 -0.11309867
-0.1187174 0.19599608 -0.21164846 0.17254752 -0.42010266 0.21313503 0.19187616 -0.08233094
0.04964422 0.0910844 0.25245908 0.09410437 -0.03968703 0.20155677 0.34630287 -0.20990334
0.13792801 0.26376206 0.24322642 -0.14351986 -0.062305406 0.053485394 -0.07228387 0.01764977
-0.15547541 0.038795926 -0.058661807 0.015023783 0.3469353 -0.20344137 -0.22229579 -0.13859923
-0.03187902 0.3101701 -0.023475656 -0.35436356 -0.116026536 -0.123870514 0.026678475 0.12748244
-0.08973062 0.13224728 -0.20291199 -0.5125421 -0.20140196 -0.5307889 -0.28754473 0.05149261
-0.263396 0.10989944 -0.3092296 -0.18433009 -0.41279912 0.040014196 -0.12433198 -0.1347507

gnn_layers.0.bn.running_var f4 [64]
00000000: 8d4f 343f 6bfb 6b3f 2e9f 513e c766 863f
00000010: 4798 053e 30aa f63e 2679 4b3e 3ef0 b33d
00000020: fb82 b63d f509 7b3e b288 973e 6f92 4c3e
00000030: b27d a13f ac42 a73e 567a a43e 6bfb 543d
00000040: ae2d ad3c 8035 593d d5d3 c63e f2d8 863d
00000050: 39c2 973c 3aaf 943e dd84 4b3f 54a1 a73e
00000060: 3eaf ea3d af35 e93e ea25 cb3e 3172 243e
00000070: 6f70 b33c b714 c33c ac89 ec3c c8a4 763b
00000080: ef11 363e 3b61 893c 15e3 453d 9641 883b
00000090: 57ae 593f e678 843e 71ae ad3e 18a4 333e
000000a0: a0b4 363c 2918 253f 598d 713b 72a4 603f
000000b0: 063d ae3d bd9e f53d 4075 5e3c c040 e93d
000000c0: 8bb9 463d 84ac ea3d eacd 893e ff11 d63f
000000d0: b924 a13e 0dc9 f93f 8f22 0b3f bdae a93c
000000e0: a4f5 f33e 6ed1 c13d 48d6 2a3f dfc4 5e3e
000000f0: 7543 853f 9ec8 cf3c 397f d93d 0478 1f3e
0.70433885 0.9218051 0.20470878 1.0500115 0.1304637 0.48176718 0.19870433 0.08786057
0.08911701 0.24515517 0.29596478 0.19977735 1.2616484 0.32668054 0.32124585 0.051997583
0.021139946 0.053029537 0.3883349 0.06584348 0.01852523 0.29039937 0.7949961 0.3274027
0.11459206 0.4554877 0.39677364 0.16059186 0.021904198 0.023813589 0.02887424 0.0037634838
0.17780279 0.016769996 0.048312265 0.004158209 0.85031646 0.25873488 0.3392215 0.17543066
0.011151463 0.6448999 0.0036857931 0.87750924 0.08507733 0.119931675 0.013577759 0.11389303
0.04851679 0.11458686 0.26914912 1.6724242 0.3147333 1.9514481 0.5434961 0.020713205
0.47648346 0.09463774 0.6673322 0.21754788 1.0411211 0.025364216 0.10619969 0.15573126

out_layer.mlp.0.weight f4 [1, 64]
00000000: cec0 43bd 387d 62bd e92d dabc a6b4 1ebd
00000010: 26e4 90bd 9d6f 873d 1f6d 10bd 08ec 2f3d
00000020: a45f 2abd 0b23 1dbd ceac c03d 97be 88bd
00000030: e09b d63c 99a6 393d 42d4 4b3d 1024 5dbd
00000040: 02eb 1c3d 425d 873d b743 27bd 9f3e 90bd
00000050: 6aaf 833d deab 133d 903c dabd 8d2e a23d
00000060: 8a38 bdbc 2de9 083d 6bad a3bd ba89 7bbd
00000070: 809b 39bd 1f51 6f3d 7e12 74bd 3318 263d
00000080: e990 3fbc 7483 8e3c a911 48bd 802f b8bc
00000090: 89d2 08be 9ccf 6ebd bd3a df3d a4d1 e2bc
000000a0: 7654 9fbc 8bd8 47bd f08f 0b3d d70d ccbd
000000b0: c0a7 c43d d50e 923d d677 40bd 5602 1f3c
000000c0: 3ef4 2bbd 7bf0 6ebd 337f 84bd 1075 e73c
000000d0: 18d1 5abd 74d5 b73b 0b55 e63d c058 813d
000000e0: e7d6 62bd 4f8a 883d 7c9f a6bd 8cef 63bd
000000f0: aa64 7c3d e24e 143d 1727 35bd df9b 1dbd
-0.047791295 -0.0552952 -0.02663322 -0.0387465 -0.07074766 0.066130854 -0.035260316 0.042949706
-0.041595116 -0.038363498 0.0940796 -0.06676977 0.026197374 0.045324896 0.04976297 -0.05398947
0.03831006 0.066095844 -0.040836062 -0.07043194 0.06429942 0.036052577 -0.10656083 0.07919035
-0.023098249 0.0334255 -0.07992061 -0.061410643 -0.045314312 0.058426972 -0.059587948 0.040550422
-0.011692264 0.017396666 -0.048844967 -0.022483587 -0.13361563 -0.05830346 0.10899875 -0.027687855
-0.019449454 -0.048790496 0.034072816 -0.09963577 0.09602308 0.07131735 -0.046989284 0.009705147
-0.041980974 -0.05833481 -0.06469574 0.028254062 -0.053422064 0.0056101624 0.112466894 0.06315756
-0.055380728 0.06667005 -0.08135888 -0.05564837 0.06161944 0.03620804 -0.044226732 -0.03847873
