pretrained/best_01_24-01_56_26.pt (torch_old, 17588 bytes, 16 tensors)

embedding.weight f4 [27, 64]
-0.112188525 -0.071510665 0.06854982 0.040951405 0.0382622 -0.11652784 0.08653592 0.0076700994
0.041989215 0.050460625 -0.03767063 0.049907397 0.090441205 0.027462706 -0.005565209 0.04453938
-0.101265386 0.014783666 0.054322045 0.046365213 -0.046806935 -0.1805548 0.022119783 -0.015866362
0.11811428 -0.00022649654 0.045775194 0.0688275 -0.0627863 0.03346529 0.036297698 -0.008189431
0.08459787 -0.15436515 0.06817733 0.14396657 -0.06477121 -0.11891603 -0.11079635 -0.08041497
0.054782715 0.08254706 -0.07565886 -0.124454126 -0.05338805 -0.011364991 0.03855652 0.08081305
0.05867031 0.0031722875 0.028175754 -0.031656288 -0.06018713 0.014805492 -0.032078926 -0.083294325
0.046173654 -0.11557228 -0.04616652 0.076886974 -0.0469322 0.0228389 0.07599879 -0.03459719
0.028155077 0.15456009 -0.14077254 -0.14229907 -0.038048767 -0.035654116 0.068907976 0.07177489
-0.050139334 0.023236914 -0.07972487 -0.14075802 -0.109244615 -0.11057933 0.076216705 -0.12326149
-0.08371886 0.09495849 -0.120791316 0.015441542 -0.081278175 0.043466758 -0.05004255 -0.037246086
0.059889972 0.12879889 -0.13955696 0.07731868 0.02749432 -0.0012911323 -0.1335296 0.11623812
0.09123452 -0.11448686 -0.09106837 -0.13740897 -0.076801464 -0.004248382 -0.06411927 0.08723519
-0.057314772 -0.12867877 0.074223645 -0.026605714 -0.18126087 0.0643507 0.032290235 -0.13526498
0.14463757 0.07080097 -0.09100278 0.034743037 0.03781867 -0.13485882 -0.09631659 -0.10637065
0.07290613 0.04781847 0.060853478 -0.06776767 0.02221099 0.035749014 -0.029677046 0.024029626
0.0737411 0.08069287 -0.038306218 -0.08749551 -0.11098949 0.035886537 -0.09638637 0.045883138
-0.015474208 0.03910387 -0.055224422 -0.075928494 0.06955716 -0.15851885 0.02979748 -0.11572716
-0.003855456 -0.15252227 -0.087164 -0.08883908 -0.06427162 -0.0043787076 -0.10455657 -0.04150835
0.10677321 0.050571837 0.085563146 0.10955076 -0.02210157 -0.040337857 0.10620194 -0.0102272695
0.009498443 0.06921718 -0.08639332 0.09291874 0.021010188 -0.085713916 -0.11787688 0.16318381
0.1275989 0.03449599 -0.09729236 0.08131106 -0.07866586 -0.08547907 0.08836466 0.06492077
0.08181578 0.08912696 -0.10943918 -0.113928966 0.074098244 0.028702255 -0.05174225 -0.0036752985
0.07278436 -0.1749613 0.06749515 -0.03348499 -0.13066979 -0.07650499 -0.01760173 -0.07538803
-0.14585175 0.046259627 -0.02129744 0.04234713 0.116159104 -0.11333904 -0.09891717 -0.19103317
0.038010642 -0.05327999 -0.031043317 0.06206021 0.007597557 0.031452887 -0.10632475 -0.07666536
-0.1476998 -0.008896355 -0.054421045 0.025390256 -0.036538217 0.016284058 -0.06468929 -0.09778054
0.0746449 -0.14300723 0.0673902 -0.026728755 0.05859792 -0.0039768256 0.034311768 -0.087678656
0.067198165 -0.09910884 -0.11135044 0.061870843 0.013960231 -0.10424558 -0.017720252 0.12402799
-0.09349132 0.057403456 -0.08689383 0.022046026 -0.044918172 -0.06696948 0.09472387 -0.120186046
-0.11523557 -0.052527312 0.084422044 0.04745222 0.10491449 0.11569957 -0.024036357 -0.124140866
-0.06505792 -0.013937929 -0.112818256 0.067321666 -0.008773534 -0.063483335 -0.14289159 0.083259694
00000000: 19c3 e5bd 2f74 92bd d963 8c3d a9bc 273d
00000010: d3b8 1c3d 26a6 eebd bf39 b13d 7555 fb3b
00000020: e2fc 2b3d cdaf 4e3d 854c 1abd b36b 4c3d
00000030: 3d39 b93d 78f9 e03c 5b5c b6bb ed6e 363d
00000040: 3a64 cfbd 3037 723c cb80 5e3d 73e9 3d3d
00000050: a1b8 3fbd 5ce3 38be 8c34 b53c 2cfa 81bc
00000060: e6e5 f13d b47f 6db9 c57e 3b3d 6ff5 8c3d
00000070: 1b96 80bd e612 093d e5ac 143d f72c 06bc
00000080: a641 ad3d e611 1ebe 8ea0 8b3d f96b 133e
00000090: c5a6 84bd 3f8a f3bd 32e9 e2bd 9bb0 a4bd
000000a0: d763 603d 6f0e a93d 08f3 9abd cee1 febd
000000b0: 6ead 5abd 3a34 3abc 71ed 1d3d 5081 a53d
000000c0: 4750 703d 27e6 4f3b d7d0 e63c 06aa 01bd
000000d0: c886 76bd bc92 723c 3165 03bd 3796 aabd
000000e0: 9620 3d3d 29b1 ecbd 1b19 3dbd eb76 9d3d
000000f0: fb3b 40bd a518 bb3c 41a5 9b3d c8b5 0dbd
00000100: 7aa5 e63c 0045 1e3e ad26 10be d9b6 11be
00000110: 06d9 1bbd 0d0a 12bd a01f 8d3d b7fe 923d
00000120: e75e 4dbd 575b be3c cb46 a3bd df22 10be
00000130: a4bb dfbd 6a77 e2bd 8117 9c3d 8570 fcbd
00000140: cb74 abbd 9979 c23d 7061 f7bd 85fe 7c3c
00000150: 2c75 a6bd 330a 323d 6bf9 4cbd 5a8f 18bd
00000160: 304f 753d dbe3 033e 05e8 0ebe 4259 9e3d
00000170: c53b e13c 363b a9ba fcbb 08be 400e ee3d
00000180: 2ad9 ba3d 1678 eabd 0e82 babd f0b4 0cbe
00000190: 164a 9dbd 0336 8bbb f750 83bd 5da8 b23d
000001a0: e5c2 6abd 5ec4 03be 9102 983d 3af4 d9bc
000001b0: 739c 39be 4dca 833d c442 043d e782 0abe
000001c0: df1b 143e 1900 913d aa5f babd b74e 0e3d
000001d0: c0e7 1a3d 6e18 0abe a241 c5bd dbd8 d9bd
000001e0: cf4f 953d 4ddd 433d 7f41 793d c7c9 8abd
000001f0: d2f3 b53c 8f6d 123d 471d f3bc c7d9 c43c
00000200: 9305 973d 4e42 a53d fbe6 1cbd d930 b3bd
00000210: 754e e3bd c3fd 123d 3866 c5bd f5ef 3b3d
00000220: 8887 7dbc 612b 203d 0133 62bd 6680 9bbd
00000230: fc73 8e3d c452 22be d819 f43c 5c02 edbd
00000240: d1ab 7cbb cc2e 1cbe 0a83 b2bd 43f1 b5bd
00000250: d7a0 83bd 437b 8fbb c121 d6bd a904 2abd
00000260: eaab da3d 6a24 4f3d bb3b af3d 265c e03d
00000270: 5a0e b5bc 4f39 25bd 6780 d93d 4790 27bc
00000280: 5c9f 1b3c bdc1 8d3d fbee b0bd 2e4c be3d
00000290: 8f1d ac3c c78a afbd 6f69 f1bd a819 273e
000002a0: 49a9 023e ab4b 0d3d 3841 c7bd 6a86 a63d
000002b0: 911b a1bd a70f afbd 88f8 b43d 2ef5 843d
000002c0: 088f a73d 3288 b63d a621 e0bd 9753 e9bd
000002d0: d2c0 973d fe20 eb3c aeef 53bd 47dd 70bb
000002e0: f70f 953d 0e29 33be e63a 8a3d 8f27 09bd
000002f0: 4dce 05be a6ae 9cbd 8131 90bc 0a65 9abd
00000300: 295a 15be bc7a 3d3d f877 aebc 2f74 2d3d
00000310: d3e4 ed3d 4c1e e8bd 1695 cabd 339e 43be
00000320: 0cb1 1b3d 1e3c 5abd 8e4e febc d932 7e3d
00000330: edf4 f83b bed4 003d cac0 d9bd ba02 9dbd
00000340: 9e3e 17be 04c2 11bc 9ae8 5ebd 3aff cf3c
00000350: 19a9 15bd 2566 853c d27b 84bd 2a41 c8bd
00000360: 6ddf 983d 7d70 12be e003 8a3d 43f6 dabc
00000370: 5f04 703d 0850 82bb 7f8a 0c3d de90 b3bd
00000380: 319f 893d 93f9 cabd b30b e4bd 486c 7d3d
00000390: 74b9 643c b57e d5bd 102a 91bc 6302 fe3d
000003a0: 6178 bfbd e31f 6b3d 64f5 b1bd de99 b43c
000003b0: 1efc 37bd 4b27 89bd 97fe c13d 1a24 f6bd
000003c0: a000 ecbd e126 57bd 77e5 ac3d 425d 423d
000003d0: 68dd d63d e5f3 ec3d e5e7 c4bc 913d febd
000003e0: 163d 85bd e95b 64bc 420d e7bd f1df 893d
000003f0: debe 0fbc 8d03 82bd 2c52 12be 0f84 aa3d

bn_outlayer_in.weight f4 [64]
0.94832236 1.0367578 1.0258659 0.9939502 0.9640552 0.9982191 1.0161088 0.9374801
0.9534343 0.96434546 1.1512443 0.96947366 0.9490402 0.95390457 0.95099956 0.97694856
0.9564739 0.9810286 0.9880073 1.0784701 1.0030516 0.9543001 0.98530066 0.95711976
0.9795291 0.98629886 0.9883304 0.9694751 0.96239847 0.98583335 0.9959804 0.96907866
0.97463536 0.97786635 1.0188823 0.9794372 1.0699797 0.98743284 0.99252826 1.0296881
0.974912 0.9401363 1.0489564 0.9728563 1.1900594 0.9886544 0.96506774 0.9560217
0.9974898 0.9542468 0.94916606 0.9690751 0.96192163 0.9610755 1.1182835 0.9960008
0.96346563 0.96446514 0.95991313 0.9657259 0.982647 1.0316118 0.9759764 1.0111002
00000000: 41c5 723f 7bb4 843f 934f 833f 8573 7e3f
00000010: 52cc 763f 498b 7f3f da0f 823f b2fe 6f3f
00000020: 4514 743f 58df 763f f95b 933f 6d2f 783f
00000030: 4cf4 723f 1733 743f b574 733f 4d19 7a3f
00000040: 79db 743f b124 7b3f 0cee 7c3f 4f0b 8a3f
00000050: ff63 803f 034d 743f aa3c 7c3f cd05 753f
00000060: 6bc2 7a3f 157e 7c3f 3903 7d3f 852f 783f
00000070: bf5f 763f 935f 7c3f 92f8 7e3f 8a15 783f
00000080: b481 793f 7355 7a3f bc6a 823f 65bc 7a3f
00000090: 18f5 883f 66c8 7c3f 5516 7e3f d2cc 833f
000000a0: d593 793f c6ac 703f 3444 863f 1c0d 793f
000000b0: de53 983f 7418 7d3f ae0e 773f d7bd 743f
000000c0: 7e5b 7f3f 8549 743f 8cfc 723f 4e15 783f
000000d0: 7f40 763f 0b09 763f ea23 8f3f e9f9 7e3f
000000e0: afa5 763f 30e7 763f debc 753f d039 773f
000000f0: c18e 7b3f db0b 843f 97d9 793f bb6b 813f

bn_outlayer_in.bias f4 [64]
-0.09578177 0.058122605 0.05089053 0.010245386 0.084108636 0.030346444 0.06487484 -0.03796449
-0.03495473 -0.1202665 0.085796624 0.10738978 -0.0776384 -0.02903667 -0.027466621 -0.011363932
0.010139723 0.04152592 0.04647491 0.2159029 0.010181482 0.07076777 0.058221262 0.02271282
-0.110907935 0.019717148 0.11533985 -0.029592488 -0.022180729 0.0016995391 0.033008657 0.050907888
-0.028625125 -0.019490847 -0.021540094 -0.060125794 0.14724351 0.00594917 0.009665993 0.02870378
0.006987708 -0.085243575 0.07426978 -0.0572805 0.10797073 0.04917415 -0.12567765 -0.027527286
0.027898109 -0.1248164 -0.039958343 0.053912077 -0.0029261038 -0.05313099 0.080364324 0.011230267
-0.04783909 0.023434587 -0.051646337 -0.002575976 0.05984843 0.07693092 -0.025104007 0.001330171
00000000: 3c29 c4bd f811 6e3d 9772 503d 43dc 273c
00000010: 2641 ac3d 1b99 f83c 1add 843d a780 1bbd
00000020: b12c 0fbd 484e f6bd 24b6 af3d 2cef db3d
00000030: e200 9fbd 50de edbc ae01 e1bc c92f 3abc
00000040: 1521 263c 1517 2a3d 7a5c 3e3d a615 5d3e
00000050: 3bd0 263c b1ee 903d 6b79 6e3d 3c10 ba3c
00000060: b323 e3bd db85 a13c 4d37 ec3d f26b f2bc
00000070: 5cb4 b5bc 12c3 de3a 1634 073d ca84 503d
00000080: 3d7f eabc 45ab 9fbc da74 b0bc 7746 76bd
00000090: 01c7 163e 41f1 c23b 1d5e 1e3c 3124 eb3c
000000a0: 25f9 e43b 2f94 aebd c11a 983d f59e 6abd
000000b0: c21f dd3d d56a 493d a4b1 00be e780 e1bc
000000c0: 938a e43c be9f ffbd 5cab 23bd e9d2 5c3d
000000d0: e0c3 3fbb e29f 59bd 0d96 a43d 27ff 373c
000000e0: ecf2 43bd e4f9 bf3c 1c8b 53bd b5d1 28bb
000000f0: a123 753d f58d 9d3d eba6 cdbc 2259 ae3a

bn_outlayer_in.running_mean f4 [64]
0.0035790086 0.0011767941 0.0032208038 0.0013094201 -0.01967882 0.001749896 0.0040097693 -0.013110781
-0.0005544444 0.002535818 -0.022318844 -0.015623175 0.0022196418 -0.001007336 -0.0011971672 -0.0002623584
0.002600416 0.004829872 -0.0049719117 -0.040623605 -0.009692254 0.0075057237 -0.014679508 -0.018852983
0.0066084317 0.0034987505 -0.026146451 -0.0017925431 -0.00015182099 -0.00030722815 0.0015178712 -0.013121406
0.013218074 -0.0006656183 -0.0006662255 0.0008294805 -0.040049233 0.000573195 -0.02898728 0.0028873223
-0.00963899 0.00064530486 -0.022658689 -0.0027866098 -0.029693002 -0.017963484 0.0060380828 -0.015762793
0.001124927 0.006718012 -0.0016973468 -0.018317085 -8.0906786e-05 0.0094713075 -0.01842331 -0.002489888
-0.001762922 0.0014701744 -0.002525563 0.00058595743 -0.026338216 0.0066199815 -0.0018833574 -0.00047061138
00000000: cd8d 6a3b a83e 9a3a 1f14 533b d9a0 ab3a
00000010: 7a35 a1bc c45c e53a 6264 833b 9ace 56bc
00000020: 2258 11ba f72f 263b 02d6 b6bc 58f8 7fbc
00000030: 6977 113b 9608 84ba 44ea 9cba 268d 89b9
00000040: be6b 2a3b e743 9e3b 6beb a2bb f064 26bd
00000050: 42cc 1ebc 93f2 f53b 5282 70bc 9271 9abc
00000060: 8b8b d83b 4b4b 653b 1531 d6bc c4f3 eaba
00000070: 2332 1fb9 7713 a1b9 4ef3 c63a 2afb 56bc
00000080: 9f90 583c e37c 2eba a3a5 2eba 7e71 593a
00000090: aa0a 24bd 7742 163a bb76 edbc 3b39 3d3b
000000a0: dbec 1dbc ad29 293a b79e b9bc 8e9f 36bb
000000b0: bd3e f3bc 2828 93bc 1cdb c53b f920 81bc
000000c0: 4972 933a c522 dc3b 8279 deba b60d 96bc
000000d0: 80ac a9b8 8b2d 1b3c 7bec 96bc 642d 23bb
000000e0: d911 e7ba deb2 c03a ea83 25bb f09a 193a
000000f0: 3ec3 d7bc 6eec d83b fdda f6ba 64bc f6b9

bn_outlayer_in.running_var f4 [64]
0.0034242813 0.0019502935 0.0020852732 0.0016021327 0.0057227393 0.003061607 0.0023018226 0.0020778268
0.0011940758 0.0012837475 0.00043328997 0.00562398 0.0013093929 0.0057155862 0.004395222 0.00074720976
0.0038856664 0.0049292645 0.0013983102 0.013035014 0.0007798134 0.0033896603 0.0026658392 0.0011885171
0.0032349066 0.0029289564 0.0065701744 0.0018446066 0.0016500334 0.0035435723 0.0020951615 0.0037798246
0.0015245273 0.004961746 0.0014481866 0.0028440936 0.0071473746 0.0026340585 0.0016396096 0.0026238156
0.0024191644 0.0028722314 0.0009822046 0.0015007718 0.00074733305 0.0009507909 0.0012352413 0.005607463
0.0019285886 0.001855817 0.0015201662 0.0016263654 0.0027915935 0.0013812361 0.00039451462 0.0030757808
0.00087939046 0.0034856084 0.0013363927 0.0017656313 0.0014657546 0.004024534 0.0018718722 0.001904501
00000000: e869 603b fea0 ff3a 14a9 083b a7fe d13a
00000010: d185 bb3b 3ea5 483b 2dda 163b 262c 083b
00000020: 8982 9c3a 6b43 a83a 322b e339 5d49 b83b
00000030: ef9f ab3a d049 bb3b cb05 903b 66e0 433a
00000040: aaa6 7e3b ab85 a13b 8147 b73a d090 553c
00000050: 646c 4c3a 1025 5e3b 5cb5 2e3b 04c8 9b3a
00000060: ba00 543b bcf3 3f3b 9e4a d73b bac6 f13a
00000070: ef45 d83a 473b 683b fa4e 093b efb6 773b
00000080: a6d2 c73a 2496 a23b 14d1 bd3a f963 3a3b
00000090: 8634 ea3b 2ba0 2c3b 2be8 d63a 52f4 2b3b
000000a0: d88a 1e3b 0c3c 3c3b 51bd 803a 8cb5 c43a
000000b0: ace8 433a 7f3e 793a d2e7 a13a cfbe b73b
000000c0: b2c8 fc3a e33e f33a 5040 c73a c42b d53a
000000d0: 2bf3 363b 980a b53a dbd6 ce39 0a93 493b
000000e0: e586 663a ce6e 643b e629 af3a c16c e73a
000000f0: 901e c03a 3de0 833b 9c59 f53a 73a0 f93a

gnn_layers.0.gnn.att_i f4 [1, 1, 64]
0.00917756 0.22303115 0.187894 -0.32902202 0.4267713 0.072483875 -0.3032619 -0.20731154
0.24134175 0.050163735 0.10274639 0.109852664 -0.11797783 -0.010616413 -0.18178807 0.4118396
-0.2232284 0.24176474 0.05143885 0.09571677 -0.33708492 -0.013209583 0.22402094 0.012287855
0.093327634 0.102652654 -0.15507394 0.01385708 -0.013339334 0.27684444 0.16239126 -0.088896155
-0.016117321 -0.14280756 -0.079837285 -0.15435229 0.25541264 -0.11612114 0.11907103 0.12841366
-0.0020848208 0.045694653 0.020737175 -0.22574225 -0.05911077 0.03545638 -0.36636162 0.47009727
-0.022528378 -0.21873271 -0.3647725 -0.34646648 0.20112821 -0.14662485 -0.20456529 -0.012310223
0.22132052 -0.19989675 0.18701191 0.14933905 -0.32372782 0.35516483 0.055025958 0.27764347
00000000: 7a5d 163c 4762 643e 4967 403e 9375 a8be
00000010: c581 da3e 6d72 943d 2545 9bbe 7a49 54be
00000020: 4b22 773e 7d78 4d3d b36c d23d 6ffa e03d
00000030: 5c9e f1bd 77f0 2dbc a726 3abe a4dc d23e
00000040: fc95 64be 2d91 773e 8bb1 523d 2707 c43d
00000050: 6596 acbe 026d 58bc bf65 653e 0053 493c
00000060: 8f22 bf3d 8e3b d23d b4cb 1ebe ce08 633c
00000070: 398d 5abc 8ebe 8d3e e549 263e 300f b6bd
00000080: 7908 84bc 253c 12be bb81 a3bd 870e 1ebe
00000090: 72c5 823e ecd0 edbd 83db f33d df7e 033e
000000a0: 7da1 08bb 512a 3b3d 02e1 a93c fa28 67be
000000b0: 221e 72bd b63a 113d c093 bbbe 97b0 f03e
000000c0: 6f8d b8bc 78fb 5fbe 76c3 babe 0e64 b1be
000000d0: 8ef4 4d3e d324 16be 9079 51be d1b0 49bc
000000e0: d9a1 623e bcb1 4cbe 0d80 3f3e 56ec 183e
000000f0: a7bf a5be 2ad8 b53e e662 613d 4927 8e3e

gnn_layers.0.gnn.att_j f4 [1, 1, 64]
0.1683418 -0.30451864 0.04419798 0.09535523 -0.09026346 0.24104528 -0.26565215 -0.103610374
0.27801123 0.29920277 0.13884576 -0.16158578 -0.2754446 -0.22954744 -0.065889694 0.15984671
0.09635666 -0.026041796 0.2901611 0.26485008 -0.15641998 -0.11479018 0.007677023 0.052365925
0.019140994 0.13769369 0.22577259 -0.07786126 0.11574668 0.048768867 0.103940725 0.11411984
-0.09654489 -0.13070282 0.11697651 -0.17734264 0.16914062 -0.1989484 0.1966744 0.11248015
-0.05657537 0.18751217 -0.061329633 0.056025922 0.08046176 0.020063875 0.07384545 0.0060968613
-0.0652379 0.18056482 0.10876953 0.09899713 0.17928854 -0.17481786 -0.084367156 0.03444034
0.23360741 -0.20705992 -0.17801651 -0.08070062 -0.27182817 -0.23732503 0.1773357 0.0003081846
00000000: cb61 2c3e dee9 9bbe f108 353d 9a49 c33d
00000010: 0ddc b8bd 93d4 763e 8f03 88be ad31 d4bd
00000020: 7d57 8e3e 1b31 993e 952d 0e3e be76 25be
00000030: 1307 8dbe 7c0e 6bbe 2df1 86bd dbae 233e
00000040: a456 c53d 9b55 d5bc ff8f 943e 6e9a 873e
00000050: 8f2c 20be 1d17 ebbd 898f fb3b a77d 563d
00000060: 93cd 9c3c 93ff 0c3e ee30 673e b975 9fbd
00000070: 980c ed3d ddc1 473d e0de d43d aab7 e93d
00000080: 54b9 c5bd f6d6 05be 6191 ef3d 4f99 35be
00000090: 3333 2d3e 21b9 4bbe 0465 493e fe5b e63d
000000a0: 93bb 67bd 3103 403e c834 7bbd 707b 653d
000000b0: 23c9 a43d ff5c a43c 493c 973d 2ec8 c73b
000000c0: 739b 85bd fce5 383e 8fc2 de3d 02bf ca3d
000000d0: 6a97 373e 7403 33be b0c8 acbd 5011 0d3d
000000e0: c836 6f3e 8407 54be f649 36be 5e46 a5bd
000000f0: 102d 8bbe 5505 73be 7d97 353e d693 a139

gnn_layers.0.gnn.att_em_i f4 [1, 1, 64]
-0.14843331 -0.2442958 0.15490714 0.18315123 0.11775335 -0.22631761 0.111741774 -0.07958159
0.08443687 0.059894603 0.034074917 0.16290721 0.1479761 -0.11512253 -0.2046218 -0.003934387
-0.103095174 -0.021658095 0.16739091 0.13442741 0.10129959 -0.103257194 0.021608464 -0.094675094
-0.1746174 -0.21602228 0.057125952 -0.011163357 0.085254475 -0.04231289 0.12335988 -0.12922014
0.20626019 0.018469157 -0.025366481 0.041168347 0.25845405 -0.018012285 -0.1285446 0.028771752
-0.08597242 0.06510534 -0.038952425 -0.080322795 0.1401291 -0.12910563 0.07870965 0.06915017
-0.18877609 -0.0041101133 0.016730174 -0.16152994 -0.08445981 0.23609579 0.12967129 -0.11964604
-0.08657189 -0.14447148 0.05509792 0.029541012 0.0010236118 -0.30831492 -0.22364312 -0.15038902
00000000: e7fe 17be ae28 7abe fa9f 1e3e ff8b 3b3e
00000010: ab28 f13d cebf 67be dfd8 e43d acfb a2bd
00000020: 3ded ac3d 0b54 753d 2492 0b3d 26d1 263e
00000030: 0c87 173e 5cc5 ebbd 6188 51be 08ec 80bb
00000040: 9023 d3bd 516c b1bc 8668 2b3e 57a7 093e
00000050: 2976 cf3d 8278 d3bd 3c04 b13c 04e5 c1bd
00000060: e7ce 32be f234 5dbe e7fc 693d 83e6 36bc
00000070: e699 ae3d 4850 2dbd 1ba4 fc3d 4952 04be
00000080: df35 533e a14c 973c 5ecd cfbc 24a0 283d
00000090: 1754 843e 808e 93bc 32a1 03be bdb2 eb3c
000000a0: 4f12 b0bd f355 853d 948c 1fbd 4780 a4bd
000000b0: 017e 0f3e 4434 04be 8632 a13d 9b9e 8d3d
000000c0: 854e 41be 21ae 86bb b80d 893c 1b68 25be
000000d0: 44f9 acbd 18c3 713e 8dc8 043e fc08 f5bd
000000e0: 9a4c b1bd 55f0 13be 5bae 613d feff f13c
000000f0: b62a 863a 74db 9dbe b402 65be 94ff 19be

gnn_layers.0.gnn.att_em_j f4 [1, 1, 64]
-0.080391526 -0.14318933 0.16098587 -0.16685049 -0.07593586 0.09305802 -0.15555455 0.067453735
0.07304289 -0.029852439 0.051025987 -0.031291086 -0.094295494 0.06851437 -0.13658802 -0.13009256
0.16502886 0.11569276 0.05047814 -0.13873543 0.12714556 0.001480769 -0.13890989 0.008779407
-0.05283399 -0.0068203965 -0.021834204 0.08791115 0.03275961 0.018362772 -0.009582305 0.13814697
-0.025372887 0.0125218155 -0.01449116 -0.009482647 -0.10896784 -0.09700147 0.014274303 -0.16097458
-0.18099782 0.101707496 0.085428186 -0.121544406 0.1473386 0.11681097 0.13367754 0.03359191
-0.11087991 0.010025735 0.07488376 0.08381095 -0.14879334 -0.033937108 0.11516177 0.06570264
0.010020893 -0.1217968 0.08992963 -0.066441014 0.10434794 -0.021172842 -0.0005413219 -0.14733872
00000000: 50a4 a4bd 39a0 12be 7bd9 243e dbda 2abe
00000010: 4384 9bbd 3495 be3d b149 1fbe 2f25 8a3d
00000020: 8397 953d 1a8d f4bc a000 513d 152b 00bd
00000030: ff1d c1bd 4351 8c3d bbdd 0bbe fc36 05be
00000040: 53fd 283e 53f0 ec3d 2bc2 4e3d a910 0ebe
00000050: 7232 023e 5d16 c23a 653e 0ebe 80d7 0f3c
00000060: 7468 58bd a27d dfbb a5dd b2bc c30a b43d
00000070: f12e 063d 866d 963c 1aff 1cbc 6676 0d3e
00000080: cdda cfbc 4d28 4d3c 556c 6dbc 1b5d 1bbc
00000090: 882a dfbd b5a8 c6bd c4de 693c 85d6 24be
000000a0: 7e57 39be 054c d03d f9f4 ae3d 46ec f8bd
000000b0: eedf 163e 973a ef3d c4e2 083e ac97 093d
000000c0: 0215 e3bd fb42 243c a85c 993d 13a5 ab3d
000000d0: 485d 18be a301 0bbd efd9 eb3d 1b8f 863d
000000e0: ac2e 243c 9a70 f9bd 072d b83d 3a12 88bd
000000f0: 5fb4 d53d ab72 adbc 7fe7 0dba f6df 16be

gnn_layers.0.gnn.bias f4 [64]
-0.0005132593 0.00031473234 -0.00037061083 -0.0009089092 0.006143029 -0.0050830212 0.001043462 -0.0030997866
-0.0031358488 -1.8398483e-05 -0.00022978912 0.0006988001 -0.0012639859 -0.0021733828 -0.0034370627 -0.0019959353
-0.0030728583 -0.0020169485 0.000808932 -0.00013023985 0.0018014673 -0.0014359391 0.00066608883 -0.0021710198
0.0008868149 -0.0022944834 0.0008640857 0.0038209453 -0.0015784529 -0.0009124351 -0.011435959 -0.0052004573
0.00020802925 0.0010836697 -0.0023092695 -0.00062545075 -4.806053e-05 -0.0021714175 0.0012953664 -0.0002718427
-0.0012182116 0.00197717 -0.0045492337 0.0006952984 -0.0006356709 0.0012470307 0.0010676397 0.0016353905
0.0007033788 0.0024912995 -0.0012997994 0.0004887596 0.0009115076 0.00087288773 -0.0028064237 -0.0039576725
-0.0010745303 -0.010218203 -0.0040852516 -0.0002975401 0.00013975563 -0.0021640507 0.0071265795 -0.0004990167
00000000: 408c 06ba a902 a539 8b4e c2b9 dd43 6eba
00000010: 764b c93b 798f a6bb c6c4 883a ca25 4bbb
00000020: d082 4dbb 7156 9ab7 8cf3 70b9 ae2f 373a
00000030: 54ac a5ba 506f 0ebb 5840 61bb 3dce 02bb
00000040: 0262 49bb c82e 04bb 820e 543a fe90 08b9
00000050: 361f ec3a 1f36 bcba 779c 2e3a ab47 0ebb
00000060: 2479 683a 0b5f 16bb cf83 623a d368 7a3b
00000070: 17e4 ceba 7c30 6fba e35d 3bbc 9968 aabb
00000080: 6d22 5a39 ec09 8e3a 1d57 17bb 4af5 23ba
00000090: 9a94 49b8 574e 0ebb 49c9 a93a 1c86 8eb9
000000a0: 66ac 9fba 6893 013b bd11 95bb b044 363a
000000b0: 27a3 26ba 6873 a33a 0bf0 8b3a 995a d63a
000000c0: f462 383a 1245 233b 085e aaba 1a20 003a
000000d0: 3df2 6e3a 81d2 643a faeb 37bb 5daf 81bb
000000e0: 41d7 8cba 406a 27bc 93dd 85bb 28ff 9bb9
000000f0: 5e8b 1239 bfd2 0dbb 1586 e93b 72d0 02ba

gnn_layers.0.gnn.lin.weight f4 [64, 15]
0.110382766 -0.06263569 0.27987137 0.010214896 -0.12663974 0.08757461 0.1563641 0.027150936
0.25315723 -0.16287702 0.1223062 0.16051301 0.14713013 0.010794529 0.07621532 -0.23165031
-0.22405502 -0.033251014 -0.039286226 0.19879545 0.18983234 0.17937294 -0.12774411 -0.21841422
-0.26467636 0.09590972 -0.23274241 -0.25506815 -0.12538554 -0.14815594 -0.1516203 -0.20248154
-0.17596231 0.24771912 -0.048499227 0.2211073 -0.023938563 -0.009085991 -0.06978197 -0.19543563
-0.24748561 0.17919764 -0.1139102 -0.36088288 0.39582136 0.036608867 -0.16457896 -0.1955497
-0.23498575 -0.24113838 0.24980415 0.18939242 -0.0017230184 -0.24923068 -0.0615934 -0.24565393
0.053722765 -0.12325273 -0.094294 -0.23346128 0.08643646 0.11777603 0.031023487 -0.043272942
-0.03261857 -0.002915766 -0.20299394 0.296825 -0.0908516 0.17031604 -0.14415583 0.054249365
0.15583228 -0.20757374 0.2760716 -0.19749546 0.049241133 -0.040037844 0.17307732 0.2824372
0.07965588 0.0066803624 -0.11049769 0.11671048 -0.12159869 0.116941564 -0.10733521 0.19665317
0.21484493 0.2210643 0.006988165 0.13570353 -0.25381047 0.21263048 -0.08404347 0.08273718
-0.056940682 -0.1316786 -0.15520911 0.1763904 -0.13832575 -0.08192207 0.0926292 -0.0021088803
-0.36319423 -0.2677863 -0.13361332 0.25075316 -0.19926123 0.14561254 0.19590881 -0.11153847
-0.14014496 -0.20567186 0.040900372 -0.038342144 0.0037564794 0.10666369 0.11066142 -0.14073625
-0.020369103 0.02354654 -0.024188891 0.024765618 -0.13621901 0.21433923 -0.047036495 -0.026461305
-0.24027504 -0.19481139 0.008237554 -0.032418504 -0.12570874 0.14493114 0.06420766 0.08811132
0.22077835 -0.12632087 -0.13318606 -0.043873455 -0.007584364 -0.12986328 -0.034020077 0.01407819
0.13770112 0.2623064 0.21981354 0.05376503 0.007389536 0.10586351 0.020821849 -0.006552252
0.1148575 -0.19582003 -0.1988201 0.038305115 -0.060154855 -0.09845622 -0.23761219 0.18655959
-0.010579034 -0.12875144 -0.08432259 0.085532546 -0.11392367 -0.009938521 -0.020687101 0.07433953
0.10199193 -0.1757284 0.11801454 0.21373206 0.038518086 0.15977153 -0.08793155 0.07459757
0.119544335 -0.08181283 0.21326514 -0.16919339 -0.111061275 -0.16771846 -0.17677464 -0.17933798
-0.27610406 0.02519833 -0.06882243 -0.2661751 -0.023047306 -0.057434864 0.10654376 -0.23984079
-0.10893295 0.030796226 0.045410678 0.010830334 0.07110319 0.26014897 -0.10670768 0.17140141
0.21813874 -0.25673953 0.04404933 0.14289713 -0.05241726 0.15064514 0.0152995605 0.21075918
0.0091200415 -0.15721245 0.24544014 0.11808103 0.25601432 0.07513858 0.14368576 0.16088848
0.053923264 -0.073470436 0.062388785 -0.17185643 0.03729393 -0.08327532 0.014551298 -0.20722112
0.1036095 -0.29004985 0.07839863 0.13593544 -0.28910732 0.22231866 -0.21436949 -0.071660355
0.15532434 -0.08339186 0.23624314 -0.1358111 -0.041129075 -0.18465865 -0.15234314 0.32675853
0.21780391 0.025831139 0.023257101 -0.23985092 0.18897623 -0.05827939 -0.13020371 -0.24290822
0.20601408 0.11961657 0.16041373 0.02301749 -0.19992162 0.10303054 0.0024565211 0.06856901
00000000: 5c10 e23d 2447 80bd 4d4b 8f3e 615c 273c
00000010: d9ad 01be 515a b33d e91d 203e a46b de3c
00000020: d39d 813e 3cc9 26be ac7b fa3d 865d 243e
00000030: 48a9 163e 89db 303c c716 9c3d bd35 6dbe
00000040: ae6e 65be 3732 08bd 98ea 20bd 0991 4b3e
00000050: 6963 423e 8aad 373e 5acf 02be faa7 5fbe
00000060: a983 87be 516c c43d 0754 6ebe 4b98 82be
00000070: 1165 00be 31b6 17be 5a42 1bbe 5257 4fbe
00000080: 772f 34be 15aa 7d3e 20a7 46bd f469 623e
00000090: ce1a c4bc 69dd 14bc d9e9 8ebd 4720 48be
000000a0: de6c 7dbe 967f 373e c049 e9bd a4c5 b8be
000000b0: 19a9 ca3e 2ef3 153d 6387 28be 2e3e 48be
000000c0: 1ba0 70be fbec 76be a9cc 7f3e 16f0 413e
000000d0: e7d6 e1ba 5436 7fbe 5c49 7cbd b48c 7bbe
000000e0: 670c 5c3d ed6b fcbd 361d c1bd 7910 6fbe
000000f0: 9905 b13d 8f34 f13d f824 fe3c f83e 31bd
00000100: 0d9b 05bd 7016 3fbb a5dd 4fbe 72f9 973e
00000110: 6710 babd 5467 2e3e 969d 13be 9534 5e3d
00000120: 7f92 1f3e 368e 54be 4259 8d3e 403c 4abe
00000130: 12b1 493d b9fe 23bd 2e3b 313e 9c9b 903e
00000140: 9f22 a33d f1e6 da3b 9d4c e2bd e705 ef3d
00000150: bc08 f9bd 0f7f ef3d 90d2 dbbd 735f 493e
00000160: 4f00 5c3e ae5e 623e fafc e43b def5 0a3e
00000170: 72f3 81be cebb 593e fc1e acbd 1c72 a93d
00000180: a23a 69bd c1d6 06be 23ef 1ebe af9f 343e
00000190: 44a5 0dbe c2c6 a7bd 61b4 bd3d 2435 0abb
000001a0: 98f4 b9be 491b 89be eed1 08be b862 803e
000001b0: 230b 4cbe 741b 153e 529c 483e 486e e4bd
000001c0: 2982 0fbe a59b 52be 2687 273d a70c 1dbd
000001d0: 442f 763b 7e72 da3d 74a2 e23d 2a1d 10be
000001e0: 1bdd a6bc ace4 c03c c827 c6bc 44e1 ca3c
000001f0: ff7c 0bbe be7b 5b3e 57a9 40bd 61c5 d8bc
00000200: a90a 76be a37c 47be cef6 063c 44c9 04bd
00000210: cbb9 00be d468 143e 4e7f 833d b573 b43d
00000220: b813 623e 425a 01be ed61 08be a7b4 33bd
00000230: 4286 f8bb e1fa 04be a358 0bbd 35a8 663c
00000240: 8601 0d3e 064d 863e cd16 613e b838 5c3d
00000250: ec23 f23b f8ce d83d 9592 aa3c 46b4 d6bb
00000260: 693a eb3d 0c85 48be 7f97 4bbe d3e5 1c3d
00000270: f064 76bd 6aa3 c9bd 9c50 73be 7a09 3f3e
00000280: af53 2dbc 6bd7 03be 52b1 acbd b02b af3d
00000290: d050 e9bd 2ed5 22bc ff77 a9bc 533f 983d
000002a0: 25e1 d03d 25f2 33be 9bb1 f13d 94dc 5a3e
000002b0: 24c5 1d3d 269b 233e 7515 b4bd 9cc6 983d
000002c0: a9d3 f43d 7c8d a7bd 2d62 5a3e 0841 2dbe
000002d0: 1874 e3bd 63be 2bbe 6904 35be 60a4 37be
000002e0: 835d 8dbe ba6c ce3c c6f2 8cbd 1a48 88be
000002f0: b4cd bcbc d240 6bbd 9d33 da3d d398 75be
00000300: 3d18 dfbd 5e48 fc3c 8c00 3a3d b771 313c
00000310: 8d9e 913d 3f32 853e 8e89 dabd da83 2f3e
00000320: c35f 5f3e 5d73 83be 126d 343d a053 123e
00000330: 7bb3 56bd b842 1a3e 02ab 7a3c 41d1 573e
00000340: 3a6c 153c 4dfc 20be a954 7b3e 78d4 f13d
00000350: 4f14 833e 41e2 993d 5c22 133e f3bf 243e
00000360: a4de 5c3d ab77 96bd 628b 7f3d 22fb 2fbe
00000370: 85c1 183d 408c aabd 9168 6e3c c631 54be
00000380: 3831 d43d 6a81 94be 768f a03d a932 0b3e
00000390: e005 94be 81a7 633e ad83 5bbe aac2 92bd
000003a0: 580d 1f3e 5ac9 aabd b9e9 713e 1112 0bbe
000003b0: f676 28bd 2817 3dbe d7ff 1bbe e54c a73e
000003c0: fd07 5f3e d39b d33c ad85 be3c 7b9b 75be
000003d0: fc82 413e 5fb6 6ebd 1f54 05be efbc 78be
000003e0: 5bf5 523e 88f9 f43d 7f43 243e 2d8f bc3c
000003f0: 41b8 4cbe ad01 d33d 96fd 203b e96d 8c3d

gnn_layers.0.bn.weight f4 [64]
0.9021884 0.8310164 0.79927236 0.8325422 0.9869425 0.8051265 0.7744832 0.82744193
0.9484939 0.72481555 0.6978211 0.8574534 0.9007902 0.846774 0.87833494 0.775842
0.8104521 0.79322994 0.7020964 0.8856792 0.63349617 0.84305173 0.7915101 0.89321405
0.7353866 0.7880265 0.9447662 0.83791804 0.8789131 0.8137591 0.7542916 0.8386273
0.9658844 0.84597826 0.7939623 0.8567787 0.7598785 0.8298471 0.8757765 0.8424804
0.97445744 0.8322897 0.6343254 0.7670965 0.6631165 0.9772262 0.73420733 0.92167735
0.68945307 0.7195486 0.83125424 0.9677335 0.8420019 0.96114 0.797886 0.7766918
0.8669022 0.7895978 0.8388156 0.8012103 0.81070745 0.70891464 0.7220803 0.785789
00000000: d2f5 663f 7ebd 543f 1d9d 4c3f 7c21 553f
00000010: 44a8 7c3f c51c 4e3f 8844 463f 3cd3 533f
00000020: 7fd0 723f 838d 393f 67a4 323f 1182 5b3f
00000030: 309a 663f 2ec6 583f 8fda 603f 959d 463f
00000040: ca79 4f3f 1e11 4b3f 97bc 333f dfbb 623f
00000050: ce2c 223f 3dd2 573f 68a0 4a3f ada9 643f
00000060: 4c42 3c3f 1bbc 493f 33dc 713f cc81 563f
00000070: 7300 613f 8452 503f 4119 413f 47b0 563f
00000080: 3344 773f 0892 583f 1d41 4b3f d955 5b3f
00000090: 6687 423f dc70 543f e432 603f ccac 573f
000000a0: 0b76 793f f010 553f 2663 223f 7060 443f
000000b0: 01c2 293f 7f2b 7a3f 03f5 3b3f 0cf3 6b3f
000000c0: ff7f 303f 5634 383f 14cd 543f 62bd 773f
000000d0: 708d 573f 450d 763f 4242 4c3f 46d5 463f
000000e0: 4ded 5d3f 1523 4a3f 9fbc 563f 1e1c 4d3f
000000f0: 868a 4f3f 6e7b 353f 41da 383f 7829 493f

gnn_layers.0.bn.bias f4 [64]
-0.055896413 0.1733337 0.17084846 0.14017203 0.020451967 0.11981361 0.16033073 -0.07793432
0.03542059 -0.11831892 0.29765478 -0.07750447 -0.056799933 0.08567399 0.08081069 0.15324847
0.09952685 0.12108407 -0.12520035 0.09846696 0.22001512 0.091645904 -0.12392395 0.069323264
-0.113696806 0.1194818 -0.035256255 0.11581041 0.08681059 0.10906769 0.17989849 0.10173297
-0.03986759 0.08600321 0.18056299 0.06679883 0.1783611 0.14912973 0.07792621 0.14237045
0.015256285 -0.07657346 0.21960811 0.1546115 0.2943176 -0.022901867 -0.13206112 0.045169868
0.2156732 -0.12896748 0.10730202 -0.026053555 0.09704783 -0.013220813 0.22958802 0.122111924
0.08450957 0.12591231 0.09535976 0.11926144 0.090271056 0.1796598 0.17271905 0.1465913
00000000: a3f3 64bd 647e 313e e6f2 2e3e 4289 0f3e
00000010: e28a a73c d760 f53d bd2d 243e 079c 9fbd
00000020: 2e15 113d 3151 f2bd 3566 983e aaba 9ebd
00000030: 0ca7 68bd d875 af3d 1380 a53d 2bed 1c3e
00000040: bcd4 cb3d edfa f73d 8534 00be 0ca9 c93d
00000050: a54b 613e d9b0 bb3d d7cb fdbd 5bf9 8d3d
00000060: dfd9 e8bd e0b2 f43d dd68 10bd 022e ed3d
00000070: c0c9 b13d e25e df3d 4f37 383e 6059 d03d
00000080: 334c 23bd 7322 b03d 81e5 383e d3cd 883d
00000090: 4ba4 363e 77b5 183e c797 9f3d 8fc9 113e
000000a0: 7ff5 793c 8cd2 9cbd f3e0 603e 7a52 1e3e
000000b0: ccb0 963e b29c bbbc 083b 07be 0a04 393d
000000c0: 6fd9 5c3e 0d10 04be 29c1 db3d 446e d5bc
000000d0: 03c1 c63d 1c9c 58bc 1f19 6b3e d115 fa3d
000000e0: 5a13 ad3d 28ef 003e fa4b c33d 583f f43d
000000f0: 08e0 b83d bdf8 373e 43dd 303e 081c 163e

gnn_layers.0.bn.running_mean f4 [64]
0.32708913 -0.38136613 -0.16666435 -0.39957595 0.1443632 0.26982847 -0.17769997 -0.11028314
-0.119166836 0.1987319 -0.21087366 0.17335793 -0.42311376 0.2112711 0.18381405 -0.0846212
0.05246968 0.09344502 0.25456253 0.10330556 -0.034428768 0.19977233 0.34713417 -0.21049012
0.106963776 0.26668498 0.24457403 -0.14175145 -0.061496463 0.05550876 -0.0823436 0.0002763539
-0.1590882 0.048709143 -0.060388293 0.01182961 0.35072586 -0.20716201 -0.21949053 -0.13311125
0.0053679477 0.31262147 -0.044503618 -0.35406467 -0.120061636 -0.12676445 0.029475616 0.12650599
-0.091129676 0.1325465 -0.20480895 -0.5143216 -0.20085305 -0.53270715 -0.2866739 0.052239995
-0.26173994 0.107380494 -0.31487745 -0.18363088 -0.41542527 0.046637 -0.12356424 -0.1304179
00000000: 3a78 a73e 6c42 c3be 0faa 2abe 3895 ccbe
00000010: f2d3 133e f526 8a3e fbf6 35be 20dc e1bd
00000020: be0d f4bd 6080 4b3e 44ef 57be be84 313e
00000030: 5ea2 d8be 7457 583e c039 3c3e e14d adbd
00000040: 72ea 563d 1a60 bf3d 0556 823e de91 d33d
00000050: 2e05 0dbd 1e91 4c3e 92bb b13e b98a 57be
00000060: d30f db3d ef8a 883e 9d71 7a3e 4b27 11be
00000070: b7e3 7bbd 275d 633d c3a3 a8bd 98e3 9039
00000080: 04e8 22be 3d83 473d b759 77bd fbd0 413c
00000090: 5792 b33e 4722 54be 20c2 60be 514e 08be
000000a0: 9ce5 af3b ec0f a03e 6d49 36bd f747 b5be
000000b0: e0e2 f5bd 8ace 01be d976 f13c c98a 013e
000000c0: 32a2 babd 45ba 073e 70b9 51be 95aa 03bf
000000d0: 6cac 4dbe 7f5f 08bf ecc6 92be 9bf9 553d
000000e0: c702 86be 4eea db3d 9e37 a1be bc09 3cbe
000000f0: 9fb2 d4be 7006 3f3d 400f fdbd 458c 05be

gnn_layers.0.bn.running_var f4 [64]
0.63900745 0.8375699 0.17030205 0.9401834 0.11532364 0.44073713 0.18167712 0.07490477
0.07854355 0.22508462 0.2665148 0.17713197 1.1314434 0.2872901 0.28042632 0.050200947
0.021088397 0.050682854 0.35548303 0.0715522 0.022636235 0.25464052 0.7164165 0.29212436
0.0669332 0.4169245 0.35837466 0.14036335 0.021129696 0.021030266 0.030196395 0.0016837455
0.16434936 0.01621053 0.048010547 0.0026957025 0.7691134 0.23633094 0.29424018 0.14771067
0.012970616 0.58248365 0.0100827385 0.78592855 0.081022054 0.11130956 0.0144439535 0.104563184
0.049507055 0.100360125 0.24273053 1.519205 0.27730823 1.7563959 0.47685096 0.020085447
0.420717 0.084310316 0.6066994 0.19317459 0.9622723 0.027300943 0.09601079 0.13478854
00000000: fe95 233f fb6a 563f a963 2e3e dcaf 703f
00000010: cd2e ec3d 4ca8 e13e 9109 3a3e ac67 993d
00000020: 71db a03d 957c 663e a174 883e 1562 353e
00000030: 23d3 903f b017 933e 0a94 8f3e 829f 4d3d
00000040: 93c1 ac3c d398 4f3d df01 b63e f689 923d
00000050: a06f b93c 3e60 823e 1267 373f 5391 953e
00000060: 4614 893d 2177 d53e e27c b73e 69bb 0f3e
00000070: 2f18 ad3c aa47 ac3c 6e5e f73c 20b1 dc3a
00000080: 334b 283e f2cb 843c b5a6 443d 62aa 303b
00000090: 9ee4 443f bd00 723e a6a6 963e 7741 173e
000000a0: b582 543c a61d 153f 1232 253c 9d32 493f
000000b0: e4ee a53d 44f6 e33d 55a6 6c3c 3925 d63d
000000c0: e9c7 4a3d 9c89 cd3d 5a8e 783e 4f75 c23f
000000d0: 58fb 8d3e 95d1 e03f cf25 f43e 3c8a a43c
000000e0: 3868 d73e e3aa ac3d a750 1b3f 8fcf 453e
000000f0: 7a57 763f 3aa6 df3c 4ea1 c43d 0206 0a3e

out_layer.mlp.0.weight f4 [1, 64]
-0.044557095 -0.054066524 -0.02835505 -0.038167298 -0.06948181 0.06630441 -0.03621704 0.0423879
-0.041081358 -0.03733658 0.09630857 -0.06428682 0.024660131 0.045536682 0.048821855 -0.05456748
0.03630356 0.06500005 -0.04091248 -0.07248276 0.063771375 0.03777401 -0.10546134 0.0786308
-0.022080522 0.033358898 -0.079546034 -0.06290938 -0.04244327 0.059858117 -0.05888033 0.04015212
-0.014695989 0.01811622 -0.04772205 -0.019180097 -0.13195913 -0.056304388 0.10739529 -0.028091418
-0.027670959 -0.04765687 0.045932904 -0.09545417 0.09802531 0.06937394 -0.04385169 0.012120484
-0.04027224 -0.056301765 -0.06531188 0.025872177 -0.0520719 0.00469733 0.11318014 0.06504464
-0.055218942 0.066497646 -0.08149064 -0.055304118 0.06150571 0.036630508 -0.045565654 -0.0384325
00000000: 8081 36bd dc74 5dbd da48 e8bc 5055 1cbd
00000010: 7b4c 8ebd 9bca 873d 5258 14bd ef9e 2d3d
00000020: ed44 28bd 3eee 18bd 6d3d c53d cfa8 83bd
00000030: 0b04 ca3c ac84 3a3d 6df9 473d 2682 5fbd
00000040: 0bb3 143d bf1e 853d d893 27bd d771 94bd
00000050: 919a 823d ecb8 1a3d 1dfc d7bd 2f09 a13d
00000060: 36e2 b4bc 57a3 083d 08e9 a2bd a2d6 80bd
00000070: ffd8 2dbd c92d 753d 802c 71bd 8d76 243d
00000080: 72c7 70bc 7868 943c 3278 43bd 941f 9dbc
00000090: 4b20 07be 6e9f 66bd 10f2 db3d f91f e6bc
000000a0: 35ae e2bc da33 43bd 2424 3c3d 7a7d c3bd
000000b0: 7ec1 c83d ed13 8e3d d49d 33bd ff94 463c
000000c0: 81f4 24bd ae9c 66bd 3cc2 85bd e3f1 d33c
000000d0: 5849 55bd 0fec 993b fdca e73d 2036 853d
000000e0: 422d 62bd eb2f 883d 91e4 a6bd 9286 62bd
000000f0: 69ed 7b3d df09 163d 0da3 3abd 666b 1dbd
