pretrained/best_02_09-09_24_43.pt (torch_old, 30900 bytes, 16 tensors)

embedding.weight f4 [79, 64]
-0.22137986 -0.24970886 -0.22386017 -0.2593966 -0.22679867 -0.21226428 -0.2315865 -0.24132547
-0.22085431 -0.24949047 -0.25933713 -0.3576444 -0.26343292 -0.060573537 -0.22840081 -0.26564246
-0.22423045 -0.22031674 -0.21362521 -0.20278755 -0.2695072 -0.22646363 -0.23961014 -0.22336474
-0.2505422 -0.28152773 -0.26876286 -0.21963559 -0.26366168 -0.19627102 -0.22539885 -0.21878606
-0.15668629 -0.23052596 -0.22270148 -0.2529888 -0.3093811 -0.24302362 -0.23245879 -0.22003192
-0.2758244 -0.23136349 -0.2105946 -0.22338401 -0.21607828 -0.21812855 -0.23653504 -0.2364245
-0.22219676 -0.21653092 0.1563266 -0.21318194 -0.23885053 -0.24611022 -0.22436333 -0.24522795
-0.21451654 -0.23634695 -0.23389593 -0.22032069 -0.23477758 -0.26593608 -0.23410313 -0.2236933
-0.2210247 -0.25136164 -0.22418961 -0.25971395 -0.22611602 -0.21650247 -0.23012379 -0.24252096
-0.21976976 -0.24914135 -0.25813434 -0.3584941 -0.26543796 -0.060041137 -0.2301227 -0.26748067
-0.22580285 -0.22283524 -0.2142614 -0.20351878 -0.27285674 -0.22764523 -0.23986952 -0.22478564
-0.25119606 -0.28460446 -0.26965472 -0.22072805 -0.26558164 -0.19668815 -0.22224279 -0.21986172
-0.15075636 -0.23013802 -0.22132492 -0.25453693 -0.30821797 -0.24288017 -0.23357104 -0.22032376
-0.27660242 -0.23294425 -0.21497399 -0.22468477 -0.21729171 -0.2189846 -0.239279 -0.2383678
-0.2225891 -0.21963876 0.13494547 -0.21377987 -0.23909715 -0.24659233 -0.22637217 -0.24753907
-0.21430156 -0.23824441 -0.2349329 -0.22212553 -0.2371601 -0.26739082 -0.23582897 -0.225999
-0.22017092 -0.25070772 -0.22372764 -0.25932142 -0.22830358 -0.21467362 -0.23386256 -0.24256864
-0.2224174 -0.24903572 -0.2599589 -0.35883707 -0.2654817 -0.051013567 -0.22899108 -0.2674766
-0.22457387 -0.2226254 -0.21450423 -0.2041336 -0.27079296 -0.22731936 -0.2400143 -0.22408366
-0.25313392 -0.28448212 -0.26829913 -0.2195059 -0.26360932 -0.19605131 -0.22405082 -0.21950649
-0.14278823 -0.23380123 -0.22333422 -0.2527068 -0.30973467 -0.24436396 -0.23376812 -0.22002545
-0.27844098 -0.23179257 -0.21334946 -0.2239791 -0.21865207 -0.21804304 -0.23997995 -0.24043748
-0.223254 -0.21900204 0.1254339 -0.21554288 -0.23965193 -0.24662162 -0.22534569 -0.2481898
-0.21468085 -0.23782142 -0.23573072 -0.22322008 -0.23605546 -0.2666401 -0.23522967 -0.225319
-0.22178073 -0.25181296 -0.22551297 -0.26067546 -0.2290054 -0.21632272 -0.23240319 -0.24395728
-0.22395384 -0.24975112 -0.262903 -0.36042336 -0.2670506 0.016077176 -0.23147996 -0.2699861
-0.22649392 -0.22308823 -0.21519421 -0.20555022 -0.272679 -0.22904406 -0.2438929 -0.22575101
-0.25343877 -0.2865954 -0.27244422 -0.22362691 -0.26645255 -0.19874187 -0.22605486 -0.22101706
-0.08782388 -0.23419783 -0.22396167 -0.2568232 -0.31440827 -0.24572222 -0.23462917 -0.22340673
-0.277871 -0.23339462 -0.21522075 -0.22638322 -0.22006516 -0.21915759 -0.23955354 -0.24148378
-0.22476098 -0.22099753 -1.0781372 -0.2153933 -0.243054 -0.24913663 -0.22598596 -0.2518991
-0.2165671 -0.24031264 -0.23885627 -0.22285211 -0.23834753 -0.26911792 -0.23651841 -0.22728793
00000000: 67b1 62be aeb3 7fbe 9a3b 65be a2cf 84be
00000010: e93d 68be cf5b 59be 0325 6dbe 061e 77be
00000020: a227 62be 6e7a 7fbe d6c7 84be 2b1d b7be
00000030: aee0 86be f51b 78bd e7e1 69be 4a02 88be
00000040: ab9c 65be b69a 61be 91c0 5abe 8aa7 4fbe
00000050: d9fc 89be 15e6 67be 5c5c 75be bab9 64be
00000060: 1147 80be 6724 90be 499b 89be 27e8 60be
00000070: aafe 86be 45fb 48be f5ce 66be 7409 60be
00000080: 5f72 20be ff0e 6cbe db0b 64be bf87 81be
00000090: 3367 9ebe 2fdb 78be ad09 6ebe 0c50 61be
000000a0: db38 8dbe 8dea 6cbe 1ca6 57be c7be 64be
000000b0: a043 5dbe 175d 5fbe 3e36 72be 4419 72be
000000c0: 8c87 63be 48ba 5dbe 1514 203e 5e4c 5abe
000000d0: 3c95 74be 5104 7cbe 80bf 65be 091d 7bbe
000000e0: 39aa 5bbe ef04 72be 6a82 6fbe bf9b 61be
000000f0: 8969 70be c628 88be bbb8 6fbe db0f 65be
00000100: 4d54 62be 79b2 80be f691 65be 3af9 84be
00000110: f58a 67be d3b2 5dbe 92a5 6bbe 6a57 78be
00000120: 530b 61be e91e 7fbe 2f2a 84be 8a8c b7be
00000130: 7ce7 87be b2ed 75bd 49a5 6bbe 3af3 88be
00000140: dd38 67be ec2e 64be 5767 5bbe 3a67 50be
00000150: e1b3 8bbe d51b 69be 5ba0 75be 352e 66be
00000160: c59c 80be adb7 91be 2f10 8abe 8906 62be
00000170: 51fa 87be 9e68 49be 9d93 63be 6e23 61be
00000180: e05f 1abe 4da9 6bbe 00a3 62be aa52 82be
00000190: bfce 9dbe 94b5 78be 3f2d 6fbe 8d9c 61be
000001a0: d59e 8dbe f088 6ebe 2422 5cbe c413 66be
000001b0: b881 5ebe 803d 60be 8e05 75be b016 74be
000001c0: 66ee 63be fce8 60be 252f 0a3e 1ce9 5abe
000001d0: e2d5 74be b382 7cbe 1bce 67be e27a 7dbe
000001e0: de71 5bbe 58f6 73be 4092 70be e074 63be
000001f0: 19da 72be 73e7 88be 267d 71be 486c 67be
00000200: 7c74 61be c35c 80be dc18 65be c7c5 84be
00000210: 6ac8 69be 67d3 5bbe ab79 6fbe ea63 78be
00000220: 63c1 63be 3803 7fbe 5519 85be 7eb9 b7be
00000230: 38ed 87be 9af3 50bd a37c 6abe b1f2 88be
00000240: b1f6 65be eaf7 63be ffa6 5bbe 6608 51be
00000250: 60a5 8abe 68c6 68be 4fc6 75be 3076 65be
00000260: c59a 81be a4a7 91be 815e 89be 28c6 60be
00000270: cdf7 86be adc1 48be 946d 65be 4fc6 60be
00000280: 1437 12be 9769 6fbe bab1 64be c962 81be
00000290: 8b95 9ebe 8c3a 7abe e960 6fbe 5a4e 61be
000002a0: d18f 8ebe 085b 6dbe 4878 5abe c75a 65be
000002b0: 54e6 5fbe ad46 5fbe 4ebd 75be 3e35 76be
000002c0: b29c 64be 1242 60be bf71 003e 46b7 5cbe
000002d0: 5167 75be 618a 7cbe 05c1 66be 7825 7ebe
000002e0: 4cd5 5bbe 7587 73be 6563 71be ce93 64be
000002f0: 86b8 71be 0d85 88be 0ce0 70be 06ba 66be
00000300: 7d1a 63be a1ed 80be dfec 66be 4177 85be
00000310: 6480 6abe b483 5dbe 1afb 6dbe f0cf 79be
00000320: 2854 65be c2be 7fbe 399b 86be 6989 b8be
00000330: dbba 88be 48b4 833c 1509 6dbe 9e3b 8abe
00000340: 06ee 67be 3e71 64be df5b 5cbe c27b 52be
00000350: 959c 8bbe 878a 6abe 0fbf 79be 462b 67be
00000360: bac2 81be a2bc 92be cf7d 8bbe 74fe 64be
00000370: 786c 88be fd82 4bbe ed7a 67be 4c52 62be
00000380: 02dd b3bd 8ed1 6fbe 3556 65be 557e 83be
00000390: 1ffa a0be 9b9e 7bbe a142 70be bcc4 64be
000003a0: 1c45 8ebe 00ff 6ebe d462 5cbe 01d1 67be
000003b0: c358 61be d96a 60be 864d 75be 8647 77be
000003c0: be27 66be 2d4d 62be 6600 8abf 1090 5cbe
000003d0: 26e3 78be ac1d 7fbe dd68 67be ebf8 80be
000003e0: c4c3 5dbe 8414 76be bd96 74be 5833 64be
000003f0: 6011 74be d3c9 89be e231 72be 2bbe 68be

bn_outlayer_in.weight f4 [64]
37.651276 37.6393 37.73275 37.605164 37.679607 37.73468 37.66479 37.67601
37.727123 37.77274 37.69345 37.76151 37.68675 37.212143 37.749733 37.551178
37.68853 37.685574 37.712337 37.58683 37.667683 37.69269 37.63948 37.64607
37.69439 37.65057 37.777813 37.57702 37.791683 37.707294 37.648537 37.66586
36.789623 37.73252 37.70456 37.77431 37.74665 37.804447 37.60505 37.68022
37.718597 37.679127 37.629364 37.8416 37.715855 37.79898 37.701225 37.72249
37.718224 37.68805 36.620216 37.642353 37.68949 37.74437 37.698154 37.753654
37.70666 37.597218 37.63249 37.750267 37.63164 37.582573 37.674057 37.70826
00000000: e89a 1642 a58e 1642 56ee 1642 b06b 1642
00000010: ebb7 1642 50f0 1642 bfa8 1642 3cb4 1642
00000020: 93e8 1642 4917 1742 18c6 1642 c90b 1742
00000030: 3bbf 1642 3cd9 1442 baff 1642 6834 1642
00000040: 0ec1 1642 07be 1642 6fd9 1642 ea58 1642
00000050: b5ab 1642 51c5 1642 d48e 1642 9395 1642
00000060: 0ec7 1642 2f9a 1642 7b1c 1742 de4e 1642
00000070: af2a 1742 45d4 1642 1a98 1642 d7a9 1642
00000080: 9328 1342 1aee 1642 78d1 1642 e518 1742
00000090: 92fc 1642 c137 1742 926b 1642 8cb8 1642
000000a0: d8df 1642 6db7 1642 7884 1642 cc5d 1742
000000b0: 09dd 1642 2832 1742 0ece 1642 d4e3 1642
000000c0: 76df 1642 90c0 1642 1a7b 1242 c591 1642
000000d0: 0ac2 1642 3cfa 1642 e9ca 1642 be03 1742
000000e0: 9fd3 1642 8d63 1642 ab87 1642 4600 1742
000000f0: cd86 1642 8e54 1642 3cb2 1642 42d5 1642

bn_outlayer_in.bias f4 [64]
9.086116 8.985475 9.263876 8.897208 9.087802 9.154844 9.101208 9.033747
9.057083 8.963421 8.984583 9.233558 9.027125 35.13421 9.113406 8.973395
9.144548 9.079604 9.116959 9.144208 8.956394 9.169131 9.15815 9.06272
9.089158 9.095689 9.027332 9.050591 9.135888 9.028383 9.083713 9.071494
35.0476 9.062346 9.092995 9.03889 9.18412 9.137433 9.185508 9.092116
9.013657 9.1622715 9.087634 9.030081 9.190675 9.133854 9.008455 9.05285
9.079502 9.090861 35.52608 9.085526 9.177089 9.058581 9.292305 9.138975
9.1581335 9.149053 9.039286 9.128172 9.135414 9.035455 9.070339 9.137892
00000000: bb60 1141 81c4 0f41 d638 1441 f75a 0e41
00000010: a367 1141 3e7a 1241 8c9e 1141 3a8a 1041
00000020: d0e9 1041 2c6a 0f41 dac0 0f41 a7bc 1341
00000030: 1b6f 1041 6e89 0c42 83d0 1141 0793 0f41
00000040: 1250 1241 0f46 1141 10df 1141 ad4e 1241
00000050: 644d 0f41 c3b4 1241 c887 1241 e700 1141
00000060: 316d 1141 f187 1141 f46f 1041 39cf 1041
00000070: 992c 1241 4274 1041 e356 1141 d724 1141
00000080: be30 0c42 5fff 1041 e87c 1141 4b9f 1041
00000090: 28f2 1241 ed32 1241 d7f7 1241 4f79 1141
000000a0: f037 1041 aa98 1241 f366 1141 367b 1041
000000b0: 010d 1341 4424 1241 a222 1041 79d8 1041
000000c0: a445 1141 2b74 1141 b51a 0e42 515e 1141
000000d0: 5bd5 1241 f3ef 1041 48ad 1441 3e39 1241
000000e0: b787 1241 8562 1241 eaa0 1041 fe0c 1241
000000f0: a82a 1241 3991 1041 1c20 1141 ce34 1241

bn_outlayer_in.running_mean f4 [64]
-2.377265 -2.5835161 -2.6257458 -3.4759083 -2.630277 -2.2370548 -2.6192198 -2.6937776
-2.2854714 -2.6717947 -2.8710854 -4.451547 -3.023823 -0.8034005 -2.390953 -2.50975
-2.624504 -2.3371615 -2.4224246 -2.3911092 -3.0646026 -2.4091637 -2.7326806 -2.391424
-2.4629536 -3.0533266 -2.3279898 -2.4004014 -2.8048291 -2.185569 -2.2935975 -2.3823304
-1.3285282 -2.5790884 -2.5878174 -2.8801403 -3.5080879 -2.8458557 -2.506227 -2.4538789
-3.2401462 -2.5411868 -2.3150988 -2.4191673 -2.3161836 -2.1823342 -2.5790837 -2.7860734
-2.360324 -2.3911593 -2.4172053 -2.4021115 -2.5476441 -2.8899572 -2.517849 -2.784524
-2.2251492 -2.715521 -2.6178415 -2.4964488 -2.4897633 -2.7800195 -2.4793828 -2.5046983
00000000: 1c25 18c0 5458 25c0 380c 28c0 4875 5ec0
00000010: 7556 28c0 e82b 0fc0 4ca1 27c0 da66 2cc0
00000020: 2a45 12c0 affe 2ac0 ddbf 37c0 1373 8ec0
00000030: 5186 41c0 a8ab 4dbf 6005 19c0 be9f 20c0
00000040: e0f7 27c0 0e94 15c0 0109 1bc0 ef07 19c0
00000050: 7322 44c0 bd2f 1ac0 3de4 2ec0 170d 19c0
00000060: 08a1 1dc0 b469 43c0 c9fd 14c0 2da0 19c0
00000070: 5282 33c0 5de0 0bc0 4dca 12c0 1a78 18c0
00000080: 360d aabf c90f 25c0 cd9e 25c0 3854 38c0
00000090: 8384 60c0 8022 36c0 0666 20c0 5a0c 1dc0
000000a0: 8e5e 4fc0 cea2 22c0 942a 14c0 a3d3 1ac0
000000b0: 5a3c 14c0 5dab 0bc0 b50f 25c0 074f 32c0
000000c0: 8c0f 17c0 c108 19c0 7eb3 1ac0 32bc 19c0
000000d0: 9a0c 23c0 0ff5 38c0 7024 21c0 a435 32c0
000000e0: d868 0ec0 19cb 2dc0 b78a 27c0 d1c5 1fc0
000000f0: 4858 1fc0 d7eb 31c0 35ae 1ec0 fa4c 20c0

bn_outlayer_in.running_var f4 [64]
2.200088 2.347173 2.4278626 3.0182538 2.362513 2.2919393 2.3876216 2.3720586
2.2229116 2.5399199 2.4721355 3.4152443 2.5914464 3.1934135 2.340837 2.7632124
2.2707038 2.2142205 2.2276149 2.208951 2.603573 2.3919065 2.5202367 2.182366
2.5881774 2.5557642 2.3611896 2.3380795 2.583723 2.1188557 2.3588831 2.2147813
3.5453026 2.2630572 2.3133507 2.4413438 2.8707538 2.4822893 2.4137917 2.20422
2.631969 2.314045 2.263595 2.2075338 2.2234042 2.2024298 2.2745306 2.484045
2.2297454 2.1634321 69.580956 2.2192054 2.326845 2.5174935 2.3007233 2.561785
2.4119062 2.387092 2.229291 2.3914192 2.37712 2.6001015 2.3816192 2.339007
00000000: 3ece 0c40 1538 1640 1a62 1b40 122b 4140
00000010: 6a33 1740 22af 1240 cbce 1840 cfcf 1740
00000020: 2f44 0e40 0c8e 2240 7837 1e40 5d93 5a40
00000030: 42da 2540 e360 4c40 46d0 1540 79d8 3040
00000040: 3653 1140 cab5 0d40 3e91 0e40 745f 0d40
00000050: f1a0 2640 ff14 1940 8f4b 2140 e2ab 0b40
00000060: b3a4 2540 a491 2340 bb1d 1740 18a3 1540
00000070: b85b 2540 559b 0740 f1f7 1640 fabe 0d40
00000080: 3de6 6240 eed5 1040 f00d 1440 fa3e 1c40
00000090: 6eba 3740 d4dd 1e40 907b 1a40 f111 0d40
000000a0: 2e72 2840 5019 1440 bede 1040 3c48 0d40
000000b0: 414c 0e40 9cf4 0c40 e991 1140 98fa 1e40
000000c0: 26b4 0e40 ac75 0a40 7329 8b42 7607 0e40
000000d0: 07eb 1440 9d1e 2140 0d3f 1340 49f4 2340
000000e0: ac5c 1a40 1ec6 1840 b4ac 0e40 030d 1940
000000f0: bc22 1840 1068 2640 736c 1840 4ab2 1540

gnn_layers.0.gnn.att_i f4 [1, 1, 64]
0.10786183 -0.21088547 0.27781603 0.19450733 -0.067517646 0.11626716 0.102324 0.1051776
-0.112643674 0.16380727 0.12747951 0.43414256 -0.009241152 0.011612622 -0.21596737 -0.0383537
-0.1348787 0.008417638 -0.32543075 0.24655713 -0.16950664 0.15959194 0.14266828 -0.028076468
-0.25058076 0.018229794 -0.1902911 -0.30709457 0.15261137 -0.17272364 0.15908103 0.15070376
-0.40385127 0.022987407 0.25991467 0.48243424 0.23570211 -0.07524489 0.090378314 0.03399424
-0.23601148 0.10850715 -0.074526235 -0.10019924 0.32111233 0.22592877 0.05513144 0.111392446
-0.07062753 0.16217083 -0.25782236 0.19978343 0.0060912278 -0.060642526 -0.12168789 0.21649897
-0.08577427 0.14862965 -0.34249282 -0.03927507 0.26439142 0.26518273 0.011407548 -0.2284632
00000000: aae6 dc3d 5cf2 57be e73d 8e3e ee2c 473e
00000010: b146 8abd 7a1d ee3d 3f8f d13d 5b67 d73d
00000020: bab1 e6bd 18bd 273e fd89 023e ef47 de3e
00000030: 3368 17bc de42 3e3c 8d26 5dbe c518 1dbd
00000040: a41d 0abe 22ea 093c dc9e a6be 7979 7c3e
00000050: 2693 2dbe 126c 233e a217 123e 9f00 e6bc
00000060: 1f4c 80be a656 953c acdb 42be 803b 9dbe
00000070: 2846 1c3e 77de 30be 23e6 223e 1652 1a3e
00000080: 98c5 cebe 1650 bc3c 8913 853e 9f01 f73e
00000090: e55b 713e fe19 9abd 4418 b93d 8b3d 0b3d
000000a0: feac 71be ff38 de3d 36a1 98bd 4235 cdbd
000000b0: d668 a43e df59 673e 81d1 613d b921 e43d
000000c0: 2ba5 90bd 1c10 263e 4b01 84be 0794 4c3e
000000d0: ec98 c73b 4c64 78bd 8037 f9bd e8b1 5d3e
000000e0: 6caa afbd 5f32 183e 385b afbe e5de 20bd
000000f0: 505e 873e 08c6 873e b9e6 3a3c 42f2 69be

gnn_layers.0.gnn.att_j f4 [1, 1, 64]
0.21862751 0.13554484 0.1086788 0.19246067 0.14651345 -0.096268095 0.15549238 0.28036773
0.11713868 -0.17950638 0.35295287 -0.0770366 0.24838844 -0.49069774 0.0073287543 -0.25600833
-0.16518815 -0.21756318 0.0682097 -0.011291135 -0.033762798 -0.2282776 -0.13124889 0.10585602
-0.17877243 -0.19822946 -0.13966459 -0.13439506 -0.06308207 0.21578535 0.027330564 0.17232169
-0.5201505 0.03748561 -0.001271565 0.570038 0.1603214 0.18378736 -0.18854143 -0.23406911
0.26282772 -0.023834815 -0.32080626 -0.069747046 0.25259852 0.4507081 -0.041232005 -0.024280893
-0.18521406 0.14789324 0.021410795 -0.1650921 -0.06607239 0.32477126 -0.39772472 0.0027781513
-0.5291453 -0.05796835 -0.25362003 -0.23240438 -0.21715452 0.15334363 -0.11066517 -0.18612906
00000000: e4df 5f3e 44cc 0a3e fe92 de3d 6914 453e
00000010: 9f07 163e 3528 c5bd 6539 1f3e 5c8c 8f3e
00000020: 67e6 ef3d 85d0 37be 3db6 b43e 5dc5 9dbd
00000030: 8a59 7e3e bc3c fbbe 0c26 f03b 8613 83be
00000040: 1527 29be e2c8 5ebe 87b1 8b3d 74fe 38bc
00000050: dc4a 0abd 9ac1 69be 1c66 06be 0acb d83d
00000060: 1f10 37be aafc 4abe 3c04 0fbe dc9e 09be
00000070: 2c31 81bd d6f6 5c3e 59e4 df3c 1975 303e
00000080: 9528 05bf 838a 193d a4aa a6ba 03ee 113f
00000090: 4b2b 243e c132 3c3e 0111 41be d0af 6fbe
000000a0: 5b91 863e 3b41 c3bc b840 a4be 8ad7 8ebd
000000b0: 9854 813e 36c3 e63e e4e2 28bd b9e8 c6bc
000000c0: c1a8 3dbe 5371 173e b165 af3c e70d 29be
000000d0: f650 87bd 6b48 a63e 93a2 cbbe a511 363b
000000e0: 1176 07bf 3870 6dbd 7cda 81be 6afb 6dbe
000000f0: c15d 5ebe 1d06 1d3e 6ca4 e2bd 9e98 3ebe

gnn_layers.0.gnn.att_em_i f4 [1, 1, 64]
2.228377 2.370558 2.1134226 2.307881 2.235451 1.8286072 2.1189368 1.986817
1.9176884 1.898124 2.0930095 1.9477127 1.954754 -0.001504589 1.6396418 2.0878036
2.1627893 2.2307904 2.2459886 2.1262898 1.8620442 2.153022 2.1409063 2.0582218
2.1692622 2.26774 1.9549221 1.9921991 1.8124735 1.9464911 1.621233 2.0823026
-1.5124617 2.1164014 2.1444855 1.7802274 1.8927888 2.006633 1.9503399 2.0730972
1.9823143 2.212809 2.0427804 1.956635 2.0419645 1.8259068 1.9023839 2.0753706
2.088555 2.133767 -1.1445763 2.1049266 2.2340593 2.0780373 2.0586307 1.9801542
2.1051722 2.1490035 2.1677344 2.0158203 2.2670233 2.6007805 1.7602007 2.0881433
00000000: bb9d 0e40 39b7 1740 5142 0740 53b4 1340
00000010: a111 0f40 cd0f ea3f a99c 0740 0550 fe3f
00000020: d076 f53f baf5 f23f def3 0540 a64e f93f
00000030: 6135 fa3f a135 c5ba c8df d13f 939e 0540
00000040: 246b 0a40 45c5 0e40 47be 0f40 2215 0840
00000050: 7757 ee3f 1dcb 0940 9c04 0940 e8b9 0340
00000060: 31d5 0a40 a722 1140 e33a fa3f 6100 ff3f
00000070: 22ff e73f 9f26 f93f 9084 cf3f 7244 0540
00000080: 5898 c1bf 1f73 0740 403f 0940 7ede e33f
00000090: e746 f23f ad6c 0040 bda4 f93f a0ad 0440
000000a0: 7abc fd3f aa9e 0d40 eabc 0240 0473 fa3f
000000b0: 8caf 0240 50b7 e93f 5181 f33f dfd2 0440
000000c0: e3aa 0540 a38f 0840 7a81 92bf 1eb7 0640
000000d0: d4fa 0e40 90fe 0440 9bc0 0340 b175 fd3f
000000e0: 24bb 0640 4689 0940 29bc 0a40 3303 0140
000000f0: e916 1140 3073 2640 424e e13f 24a4 0540

gnn_layers.0.gnn.att_em_j f4 [1, 1, 64]
0.32738626 0.69787014 0.4292129 1.0705049 0.65290755 0.34317508 0.3869197 0.23711038
0.22832923 0.6427743 0.687305 0.84294075 0.48189965 1.4189289 0.53831834 0.88784975
0.52489954 0.41950384 0.6720262 0.50416 0.44231158 0.46833694 0.73119134 0.32233515
0.76978457 0.24010743 0.7121902 0.46554315 0.6593352 0.40574923 0.24180973 0.43309286
-0.565952 0.82549644 0.57590264 0.4227814 0.50642526 0.3892472 0.42708114 0.3815284
0.48047742 0.70633936 0.49616995 0.92146945 0.44451267 0.59203166 0.3480529 0.49247962
0.3583555 0.6462351 -3.608284 0.47279745 0.5326073 0.5504019 0.45016223 0.67572683
0.45774168 0.6273069 0.520971 0.5534925 0.674519 0.8729584 0.5424237 0.4632503
00000000: 2c9f a73e 9ea7 323f cbc1 db3e 4e06 893f
00000010: f324 273f a5b4 af3e 571a c63e 10cd 723e
00000020: 23cf 693e db8c 243f 38f3 2f3f f7ca 573f
00000030: 8dbb f63e 769f b53f 3bcf 093f 1f4a 633f
00000040: d15f 063f 35c9 d63e e909 2c3f a110 013f
00000050: aa76 e23e dcc9 ef3e 5b2f 3b3f 1d09 a53e
00000060: 9a10 453f b9de 753e 1952 363f ac5b ee3e
00000070: 31ca 283f 5dbe cf3e f89c 773e 59be dd3e
00000080: 3be2 10bf bc53 533f 5b6e 133f ce76 d83e
00000090: 16a5 013f 694b c73e 61aa da3e b157 c33e
000000a0: 2301 f63e a8d2 343f fd09 fe3e 6ce5 6b3f
000000b0: 2a97 e33e 638f 173f fd33 b23e 4a26 fc3e
000000c0: 5f7a b73e aa6f 253f 20ee 66c0 8212 f23e
000000d0: f458 083f 24e7 0c3f aa7b e63e 6ffc 2c3f
000000e0: 1e5d ea3e 2f97 203f 5b5e 053f afb1 0d3f
000000f0: 47ad 2c3f 347a 5f3f 48dc 0a3f 252f ed3e

gnn_layers.0.gnn.bias f4 [64]
-0.2054731 0.14246234 0.12230659 0.28912714 -0.08355729 0.01243038 -0.035145815 0.028026026
-0.08963401 -0.05619896 0.16264531 -0.014725669 -0.14875768 0.17558855 -0.14370479 -0.26264644
-0.019373031 -0.032597933 -0.17100579 0.06202384 -0.02677046 0.04505656 0.015246783 0.11132153
0.01421745 0.10812129 0.12116649 -0.024503307 -0.082650624 -0.16645811 -0.31072894 0.10839745
0.26653665 0.06140209 -0.0554106 0.30779698 -0.064418845 -0.0034999442 -0.057890907 0.115010306
-0.15183865 0.0016188234 -0.15708351 0.14392409 0.15637203 -0.12538947 -0.17046821 0.16514024
0.06311695 -0.023259114 -0.07656371 0.087210044 -0.041156165 0.10484081 0.18093748 -0.14363877
-0.018128673 -0.10463118 0.13215147 -0.121073075 -0.10573645 -0.096020095 0.04655302 -0.15148084
00000000: 8a67 52be a6e1 113e e17b fa3d 7908 943e
00000010: 1620 abbd cba8 4b3c 0ff5 0fbd d696 e53c
00000020: 0992 b7bd e130 66bd 7e8c 263e ef43 71bc
00000030: ef53 18be 7ccd 333e 5927 13be 9879 86be
00000040: 31b4 9ebc 6985 05bd 241c 2fbe b60c 7e3d
00000050: b94d dbbc 3a8d 383d a5cd 793c 8bfc e33d
00000060: 4ff0 683c b26e dd3d 2326 f83d 29bb c8bc
00000070: bb44 a9bd ff73 2abe dd17 9fbe 7bff dd3d
00000080: 7e77 883e c280 7b3d 3af6 62bd 9197 9d3e
00000090: 07ee 83bd 525f 65bb 041f 6dbd 868a eb3d
000000a0: 977b 1bbe b32e d43a 80da 20be d660 133e
000000b0: fd1f 203e 1966 00be 388f 2ebe 861a 293e
000000c0: 7643 813d e689 bebc 6fcd 9cbd 2e9b b23d
000000d0: 5e93 28bd c7b6 d63d ad47 393e 0b16 13be
000000e0: 9582 94bc df48 d6bd b752 073e 29f5 f7bd
000000f0: 5a8c d8bd 2fa6 c4bd 61ae 3e3d cb1d 1bbe

gnn_layers.0.gnn.lin.weight f4 [64, 15]
0.15691428 0.018055892 0.2971762 0.6072347 0.33238372 0.24305923 0.35384548 -0.06736652
0.19495516 -0.029155528 0.18127048 -0.037573725 -0.04127316 -0.026107414 0.07527749 -0.0043948577
0.033491924 0.42169562 0.42166063 0.5324916 0.33596778 0.2033544 0.098728985 0.028243875
-0.069730796 -0.4504766 -0.13281123 -0.4076377 -0.101452485 -0.03811488 -0.087907314 0.18796021
0.20566212 0.10971975 -0.1609729 0.031233653 0.11150545 -0.098435 0.009659077 -0.39506334
-0.6375114 -0.46163535 -0.30475113 -0.040278688 -0.28844938 -0.23798977 0.14415765 0.078752704
0.2584394 -0.16245942 -0.019821187 0.05563822 -0.20870344 -0.014830867 -0.07536631 -0.03676335
-0.29875064 -0.49835598 -0.24545765 -0.05608187 -0.16732754 -0.01389183 -0.17225036 0.18937191
0.21777737 0.26185465 0.039784323 -0.33311287 -0.31544745 -0.4931249 -0.22474043 -0.3925885
-0.10991158 0.0017567533 -0.098800875 0.0788265 0.0060545993 0.07511074 -0.18182418 -0.019482285
0.19765118 0.20467702 0.03815659 0.54677284 0.31786 0.630881 0.3435465 0.25919294
0.06592684 -0.11404165 0.104311995 0.14116676 -0.27845845 0.053010736 0.20002349 -0.0024341056
0.08324336 0.13084915 -0.3990581 -0.059640497 -0.46053076 -0.104608566 -0.3906165 -0.17289829
0.047212932 -0.16142572 0.025260288 -0.040280014 0.19875112 0.11790588 -0.09749981 0.008688962
-0.006847031 -0.01962977 -0.4421645 -0.46702406 -0.24249768 -0.35271832 -0.19433282 -0.3357876
-0.08002733 -0.21820791 0.086549185 0.3567767 0.29930165 0.022316426 0.45310637 -0.06614077
0.020660384 0.2871105 0.27310422 0.25427255 0.0771469 -0.0387719 -0.20652542 -0.13122392
-0.4036694 -0.36074445 -0.083853245 -0.32693937 -0.22013931 -0.47064483 -0.09697417 0.21420057
0.053245053 0.11706553 -0.079924256 -0.111577556 0.24330485 -0.15933524 0.027425293 -0.21171209
0.049893238 -0.18565917 0.19349894 0.13344035 -0.13059354 -0.18448755 -0.30130634 -0.43999282
-0.3916563 -0.33250034 -0.34956262 0.0006519717 -0.25131604 0.33808398 -0.061703056 0.1819206
-0.18596068 -0.21906461 -0.08484593 -0.13299502 0.060146976 0.12634978 0.25368115 0.14800979
0.6221724 0.32762408 -0.16324653 0.08448281 -0.14212592 -0.27465075 0.051080853 -0.07824252
0.24292319 -0.01185881 -0.2510937 0.051108085 -0.22530547 -0.30226383 -0.40233526 -0.64022267
-0.12142327 -0.079180956 -0.20604299 0.16855115 -0.1707457 -0.058503397 0.04813543 -0.09353566
-0.08355825 0.04140468 -0.08853746 0.05286972 0.2595568 0.8237247 1.0676073 0.8520011
0.4042268 0.08927414 -0.16290413 -0.18265724 0.16474412 -0.1342611 -0.058498763 0.19550073
-0.15392561 0.08358443 0.07987401 0.16748093 -0.08102568 0.2024892 -0.26931924 -0.4151676
0.049195323 -0.3148557 0.17146286 0.02360153 -0.039739516 -0.16557665 -0.07973333 -0.02306256
-0.05314872 0.44199058 0.5678834 0.38959223 0.47311383 0.21699569 0.035674814 -0.11299553
0.05631273 -0.07023931 0.08851756 0.25217488 0.34694546 -0.18059509 -0.11310943 0.40230045
0.15575008 0.37231398 0.53209335 0.5581172 0.18820342 0.06489491 -0.03140297 0.12577125
00000000: 23ae 203e f3e9 933c 7b27 983e bc73 1b3f
00000010: 332e aa3e 85e4 783e 3c2b b53e 75f7 89bd
00000020: 53a2 473e 93d7 eebc f89e 393e e8e6 19bd
00000030: 0c0e 29bd 37df d5bc 162b 9a3d bd02 90bb
00000040: d42e 093d 7de8 d73e e7e3 d73e 5f51 083f
00000050: f803 ac3e 233c 503e 6c32 ca3d b35f e73c
00000060: 05cf 8ebd dea4 e6be abff 07be e3b5 d0be
00000070: 52c6 cfbd 591e 1cbd c008 b4bd a478 403e
00000080: 1799 523e c0b4 e03d 14d6 24be b8dd ff3c
00000090: f85c e43d 4a98 c9bd 1b41 1e3c be45 cabe
000000a0: f233 23bf 785b ecbe 5708 9cbe 44fb 24bd
000000b0: a3af 93be 97b3 73be 109e 133e 1949 a13d
000000c0: 2b52 843e c35b 26be 0b60 a2bc e7e4 633d
000000d0: 5bb6 55be 2afd 72bc a759 9abd 2b95 16bd
000000e0: d8f5 98be 8428 ffbe 4059 7bbe 1ab6 65bd
000000f0: e957 2bbe 8f9a 63bc 6662 30be b6ea 413e
00000100: 0801 5f3e d011 863e e3f4 223d c58d aabe
00000110: 5482 a1be de7a fcbe 5b22 66be 5c01 c9be
00000120: 5319 e1bd dc42 e63a 1d58 cabd ca6f a13d
00000130: a965 c63b a9d3 993d 1e30 3abe 5099 9fbc
00000140: 1265 4a3e da96 513e 164a 1c3d 4ef9 0b3f
00000150: 8cbe a23e 6b81 213f 54e5 af3e f0b4 843e
00000160: a704 873d ab8e e9bd 87a1 d53d 058e 103e
00000170: 1b92 8ebe c921 593d f5d2 4c3e 8485 1fbb
00000180: 7f7b aa3d 52fd 053e 5851 ccbe 9849 74bd
00000190: b0ca ebbe 043d d6bd e3fe c7be 400c 31be
000001a0: 5962 413d c94c 25be aaee ce3c a8fc 24bd
000001b0: 6a85 4b3e a378 f13d fbad c7bd 265c 0e3c
000001c0: 0f5d e0bb 9dce a0bc 6363 e2be c71d efbe
000001d0: 5051 78be 7f97 b4be 2fff 46be 5aec abbe
000001e0: 5ee5 a3bd e571 5fbe b340 b13d 70ab b63e
000001f0: 113e 993e f0d0 b63c 8ffd e73e d074 87bd
00000200: f73f a93c 2600 933e 51d4 8b3e 0330 823e
00000210: 32ff 9d3d 49cf 1ebd 667b 53be 905f 06be
00000220: c1ad cebe 7fb3 b8be 40bb abbd 9964 a7be
00000230: 336c 61be 5cf8 f0be 659a c6bd 6557 5b3e
00000240: 7c17 5a3d 0dc0 ef3d 54af a3bd c682 e4bd
00000250: e824 793e c728 23be 02ab e03c 0ecb 58be
00000260: da5c 4c3d 701d 3ebe 9624 463e 96a4 083e
00000270: 50ba 05be 4eea 3cbe d344 9abe bd46 e1be
00000280: 2d87 c8be 7c3d aabe dff9 b2be 15e9 2a3a
00000290: 7fac 80be 5819 ad3e 58bc 7cbd 6549 3a3e
000002a0: 7a6c 3ebe 7952 60be b4c3 adbd d92f 08be
000002b0: ad5c 763d d661 013e 7fe2 813e e18f 173e
000002c0: b146 1f3f 58be a73e 192a 27be 5305 ad3d
000002d0: 7589 11be 069f 8cbe 283a 513d 9d3d a0bd
000002e0: dbc0 783e 744b 42bc 5a8f 80be b656 513d
000002f0: 7ab6 66be 53c2 9abe e3fe cdbe a2e5 23bf
00000300: c3ac f8bd a029 a2bd effc 52be ac98 2c3e
00000310: f6d7 2ebe 42a1 6fbd a829 453d a08f bfbd
00000320: 9620 abbd f497 293d 2153 b5bd eb8d 583d
00000330: a1e4 843e 9fdf 523f 5ba7 883f be1c 5a3f
00000340: d1f6 ce3e 5cd5 b63d 57d0 26be 800a 3bbe
00000350: afb2 283e be7b 09be 669c 6fbd 5831 483e
00000360: ad9e 1dbe 502e ab3d fc94 a33d 1f80 2b3e
00000370: cbf0 a5bd 5459 4f3e 36e4 89be d990 d4be
00000380: 0981 493d c434 a1be f693 2f3e ff57 c13c
00000390: e7c5 22bd ed8c 29be 3a4b a3bd b2ed bcbc
000003a0: 79b2 59bd 974c e23e ce60 113f a278 c73e
000003b0: fa3b f23e 1e34 5e3e c11f 123d 336a e7bd
000003c0: 2da8 663d a1d9 8fbd b248 b53d 111d 813e
000003d0: d6a2 b13e ebed 38be eba5 e7bd 53fa cd3e
000003e0: f37c 1f3e f09f be3e 4537 083f c5e0 0e3f
000003f0: 66b8 403e 9fe7 843d 67a0 00bd 2eca 003e

gnn_layers.0.bn.weight f4 [64]
0.006813682 0.0029372354 -0.018950911 -0.021855434 -0.013318753 0.009322718 -0.002421824 -0.022343282
0.003237604 0.012784523 -0.01911267 0.031606033 -0.013391837 0.6752769 0.010899996 0.0070221196
0.001130693 -0.0007201685 -0.009799885 -0.0054637743 0.013370522 -0.012282466 0.008631571 -0.021221504
0.0070938556 -0.005450055 -0.019948764 0.025217291 0.002944103 -0.0011708381 -0.013073983 0.010397854
0.6644161 0.006983228 -0.00053496 -0.025232017 -0.050435692 0.00010852089 0.012803926 0.0018477003
0.0048483387 -0.009852211 0.015346267 0.026288506 -0.007618643 -0.0073854695 0.021685448 0.013620623
0.009478002 0.005180533 1.3585495 0.016854428 0.023192657 -0.014089489 0.008411237 -0.024395362
0.018196799 0.011975775 0.023520334 0.030624997 -0.005215209 -0.021085436 0.0027264867 0.0074612014
00000000: 4f45 df3b a27e 403b f13e 9bbc 2b0a b3bc
00000010: e636 5abc 50be 183c 77b7 1ebb 4209 b7bc
00000020: fb2d 543b 2d76 513c 2d92 9cbc 5475 013d
00000030: 6f69 5bbc f2de 2c3f e695 323c cf19 e63b
00000040: c333 943a b1c9 3cba b28f 20bc 7609 b3bb
00000050: 0910 5b3c 653c 49bc 6f6b 0d3c b8d8 adbc
00000060: 9373 e83b 6096 b2bb 976b a3bc 7e94 ce3c
00000070: daf1 403b cf76 99ba 4234 56bc c35b 2a3c
00000080: 2c17 2a3f 90d3 e43b 8f3c 0cba 60b3 cebc
00000090: a895 4ebd b695 e338 8fc7 513c 892e f23a
000000a0: d0de 9e3b 2b6b 21bc e96e 7b3c fe5a d73c
000000b0: cfa5 f9bb cf01 f2bb aea5 b13c 0929 5f3c
000000c0: 9f49 1b3c 76c1 a93b f3e4 ad3f 4c12 8a3c
000000d0: 87fe bd3c 9ad7 66bc 49cf 093c c8d8 c7bc
000000e0: 7411 953c 0a36 443c b7ad c03c 46e1 fa3c
000000f0: 58e4 aabb 5dbb acbc dbae 323b 187d f43b

gnn_layers.0.bn.bias f4 [64]
11.992571 11.35748 12.935996 14.57805 12.812932 11.663797 12.507267 12.295336
11.523488 11.872426 12.142708 13.364516 12.453764 4.8191757 11.652944 10.457902
12.838941 11.731712 12.569642 12.998931 12.350023 11.752272 12.515439 11.88572
10.939926 11.774501 9.654758 12.135424 11.692796 12.389288 11.501764 12.051998
5.0738664 12.316781 12.857109 12.415307 12.283858 12.850813 11.955741 12.300498
12.729304 12.117112 12.119026 11.92769 11.861936 11.223763 11.883274 12.884641
11.80244 12.129135 11.144554 12.460198 11.77563 12.852237 12.419443 12.388518
11.633112 12.5315 12.236781 12.473945 11.690953 11.52497 11.724166 12.318575
00000000: 92e1 3f41 3db8 3541 d7f9 4e41 b13f 6941
00000010: c501 4d41 ea9e 3a41 c41d 4841 b2b9 4441
00000020: 3560 3841 75f5 3d41 8848 4241 0fd5 5541
00000030: 9e42 4741 b036 9a40 7572 3a41 9153 2741
00000040: 4d6c 4d41 18b5 3b41 411d 4941 9ffb 4f41
00000050: b299 4541 4e09 3c41 3d3f 4841 e92b 3e41
00000060: f009 2f41 5b64 3c41 e479 1a41 b22a 4241
00000070: b115 3b41 863a 4641 3a07 3841 fcd4 4041
00000080: 1d5d a240 8911 4541 b8b6 4d41 19a5 4641
00000090: af8a 4441 ee9c 4d41 b74a 3f41 d7ce 4441
000000a0: 3bab 4b41 b1df 4141 88e7 4141 d1d7 3e41
000000b0: 7dca 3d41 8994 3341 e421 3e41 7d27 4e41
000000c0: cbd6 3c41 f010 4241 1850 3241 f95c 4741
000000d0: fb68 3c41 c3a2 4d41 0ab6 4641 5f37 4641
000000e0: 3a21 3a41 0681 4841 dbc9 4341 4795 4741
000000f0: 250e 3b41 4766 3841 2f96 3b41 e218 4541

gnn_layers.0.bn.running_mean f4 [64]
8.983297 28.75721 35.394684 20.43965 23.268639 -29.216154 22.761467 29.03874
-10.243416 -16.10462 28.72734 -16.841713 23.517447 -53.40122 -0.5050382 -32.543118
-25.34723 -32.953804 -1.1333969 1.5884948 -39.010597 -17.143604 -14.972424 29.912191
-28.661587 -21.453194 5.593959 -23.867367 -6.429832 18.635368 22.927292 5.163795
-64.51629 -0.88994676 -1.1716778 34.3785 39.785168 33.846333 -29.77462 -27.051003
16.660767 -9.536714 -30.64977 -25.257877 36.768528 32.496513 -22.523031 -14.602175
-21.319933 10.563635 -29.803743 -21.423477 -31.767622 38.15636 -40.974968 23.200264
-32.418335 -27.270885 -25.778444 -30.608053 -8.105289 30.864733 -11.7825165 -27.94483
00000000: 96bb 0f41 c40e e641 2894 0d42 6784 a341
00000010: 2c26 ba41 afba e9c1 7c17 b641 574f e841
00000020: 08e5 23c1 43d6 80c1 98d1 e541 d4bb 86c1
00000030: bb23 bc41 d99a 55c2 2f4a 01bf 272c 02c2
00000040: 21c7 cac1 b2d0 03c2 2613 91bf cc53 cb3f
00000050: da0a 1cc2 1a26 89c1 0c8f 6fc1 2b4c ef41
00000060: ee4a e5c1 24a0 abc1 b601 b340 5ef0 bec1
00000070: 2fc1 cdc0 3c15 9541 186b b741 cf3d a540
00000080: 5708 81c2 8dd3 63bf 8af9 95bf 9683 0942
00000090: 0324 1f42 a562 0742 6c32 eec1 7468 d8c1
000000a0: 4049 8541 6196 18c1 bb32 f5c1 2210 cac1
000000b0: f912 1342 6efc 0142 2b2f b4c1 82a2 69c1
000000c0: 398f aac1 a604 2941 116e eec1 4863 abc1
000000d0: 1724 fec1 1da0 1842 5ee6 23c2 249a b941
000000e0: 60ac 01c2 c62a dac1 413a cec1 4bdd f4c1
000000f0: 44af 01c1 f9ea f641 3085 3cc1 038f dfc1

gnn_layers.0.bn.running_var f4 [64]
214079.52 190773.83 15976.19 5231.1377 9696.06 29722.254 6498.7847 11930.175
34936.246 203920.8 23020.52 7219.1885 32181.904 31260.35 6624.9536 13483.42
46481.684 33092.758 150802.23 2653.7817 19158.121 12075.036 14711.547 10774.389
10062.736 176407.36 130722.97 56119.67 81477.08 257267.45 7570.9194 117924.86
44637.95 62371.773 11137.402 13359.876 20342.559 58181.715 10731.657 16368.296
69167.336 17118.393 25938.283 7426.712 250118.25 21911.37 6517.9106 12555.769
47432.094 96009.945 12428.798 107753.83 11275.062 29605.508 22641.857 5983.28
12339.615 10480.516 11465.519 13599.176 81204.72 16571.586 93144.19 21049.768
00000000: e10f 5148 754d 3a48 c3a0 7946 1a79 a345
00000010: 3d80 1746 8234 e846 4716 cb45 b368 3a46
00000020: 3f78 0847 3324 4748 0ad9 b346 8299 e145
00000030: cf6b fb46 b338 f446 a107 cf45 aead 5246
00000040: af91 3547 c244 0147 8f44 1348 82dc 2545
00000050: 3eac 9546 25ac 3c46 30de 6546 8e59 2846
00000060: f23a 1d46 d745 2c48 7c51 ff47 ac37 5b47
00000070: 8a22 9f47 dd3c 7b48 5b97 ec45 6e52 e647
00000080: f35d 2e47 c6a3 7347 9c05 2e46 81bf 5046
00000090: 1eed 9e46 b745 6347 a1ae 2746 2fc1 7f46
000000a0: ab17 8747 c9bc 8546 91a4 ca46 b215 e845
000000b0: 9041 7448 bd2e ab46 49af cb45 132f 4446
000000c0: 1848 3947 f984 bb47 3133 4246 ea74 d247
000000d0: 3f2c 3046 044b e746 b7e3 b046 3dfa ba45
000000e0: 76ce 4046 10c2 2346 1326 3346 b47c 5446
000000f0: 5c9a 9e47 2c77 8146 18ec b547 8973 a446

out_layer.mlp.0.weight f4 [1, 64]
35.98304 35.974945 35.851437 35.677948 35.96092 35.819874 35.907913 36.076347
36.133743 36.134697 36.11853 36.04408 36.151 -35.553844 36.034996 36.060947
36.059017 35.92768 35.97761 36.012566 36.20716 35.882347 35.98439 35.94459
36.060894 36.038776 36.320038 35.971855 36.00277 35.931503 36.01395 35.93341
-35.151688 36.07383 36.00848 36.252743 35.999123 36.12754 35.926632 35.978348
36.19392 35.91923 35.94666 36.16919 35.895706 36.051086 36.244923 35.882248
35.886826 35.984905 -35.39704 35.963913 35.87022 36.06051 35.920876 36.022728
35.86952 35.976334 35.958553 36.039696 35.93388 35.989353 36.13736 35.885235
00000000: a2ee 0f42 58e6 0f42 df67 0f42 38b6 0e42
00000010: fbd7 0f42 8d47 0f42 b4a1 0f42 2e4e 1042
00000020: f488 1042 ee89 1042 6079 1042 232d 1042
00000030: a09a 1042 2337 0ec2 d623 1042 693e 1042
00000040: 6f3c 1042 f2b5 0f42 13e9 0f42 de0c 1042
00000050: 22d4 1042 8687 0f42 04f0 0f42 43c7 0f42
00000060: 5b3e 1042 b527 1042 b847 1142 2ee3 0f42
00000070: d602 1042 dcb9 0f42 490e 1042 d0bb 0f42
00000080: 549b 0cc2 9a4b 1042 af08 1042 cf02 1142
00000090: 1aff 0f42 9a82 1042 dfb4 0f42 d4e9 0f42
000000a0: 93c6 1042 4bad 0f42 61c9 0f42 40ad 1042
000000b0: 3495 0f42 5034 1042 cdfa 1042 6c87 0f42
000000c0: 1c8c 0f42 8bf0 0f42 9296 0dc2 0cdb 0f42
000000d0: 1b7b 0f42 f63d 1042 faae 0f42 4617 1042
000000e0: 637a 0f42 c4e7 0f42 8fd5 0f42 a628 1042
000000f0: 4bbc 0f42 19f5 0f42 a88c 1042 7b8a 0f42
