pretrained/best_02_16-11_20_28.pt (torch_old, 30900 bytes, 16 tensors)

embedding.weight f4 [79, 64]
0	0x3dac5102	0.084138885
1	0x3de94f20	0.11392045
2	0x3e043ec1	0.12914564
3	0x3ddeef1e	0.10885452
4	0x3e7c44d8	0.24635637
5	0x3e810bb0	0.2520423
6	0x3dc7450e	0.09729968
7	0x3d7c27e4	0.06156148
8	0x3d5fd101	0.05464268
9	0xbe2c790e	-0.16843054
10	0xbdbce1ca	-0.09222753
11	0x3e21d4b4	0.15803796
12	0x3d5bad1e	0.053631894
13	0x3d1eafcd	0.038741875
14	0xbe5f887e	-0.21829411
15	0xbc23ddf1	-0.010001645
16	0x3de700b9	0.11279435
17	0x3dd3f1b3	0.10348835
18	0xbd2ebbb4	-0.042659476
19	0xbd6d6348	-0.05795601
20	0xbe552c2a	-0.20817629
21	0x3d8728a4	0.065995485
22	0xbdab697c	-0.08369729
23	0x3dcd3d20	0.10021424
24	0x3d4e8dc4	0.050428167
25	0x3cf48e18	0.029852912
26	0x3dc0571d	0.093916155
27	0xbd9cd552	-0.07657875
28	0x3dc63350	0.09677756
29	0x3db37a9b	0.087636195
30	0x3da437d4	0.08018461
31	0x3e8a86c1	0.27055934
32	0x3c3253d9	0.010884249
33	0x3dc968aa	0.09834416
34	0x3bb9b574	0.005667383
35	0xbb2494e6	-0.0025113164
36	0x3c8553f6	0.016275387
37	0xbe25fd59	-0.16209926
38	0x3dc951d4	0.098300606
39	0x3df7dfb9	0.121032186
40	0xbd6fed0c	-0.058575675
41	0xbe189a2f	-0.14902566
42	0x3e5e41f6	0.2170485
43	0x3dcd7ace	0.10033189
44	0x3dfe7f84	0.124266654
45	0x3d96f000	0.07369995
46	0x3e0451aa	0.12921777
47	0x3dad5f12	0.08465399
48	0x3e15063e	0.14553162
49	0xbc81ea2f	-0.015858738
50	0xbe1322e8	-0.14368784
51	0x3e167e76	0.14696679
52	0xbe04d285	-0.12970932
53	0xbddf8ac0	-0.10915136
54	0x3e12502a	0.14288393
55	0x3d9ae114	0.075624615
56	0x3d94524f	0.072422616
57	0x3e6604aa	0.22462717
58	0xbd22930e	-0.039691024
59	0x3d01d45b	0.03169666
60	0x3e036178	0.1283015
61	0x3d532db4	0.051557258
62	0xbe0f6aca	-0.1400558
63	0x3e37350c	0.1789133
64	0xbd93ca82	-0.0721636
65	0xbcc4e0e6	-0.024033021
66	0xbba02593	-0.0048872917
67	0xbdd18b61	-0.102316625
68	0xbddf0af8	-0.10890764
69	0x39623730	0.00021573598
70	0xbc34fe83	-0.011047008
71	0x3d199747	0.037497785
72	0x3d47f8c6	0.048821233
73	0xbc7a9147	-0.015293426
74	0x3c80fe2e	0.015746202
75	0xbef1dc6b	-0.47238478
76	0x3a525f9c	0.0008025111
77	0x3cac8fcb	0.02106466
78	0xbec8eb9c	-0.39242256
79	0xbdb21eb2	-0.08697261
80	0xbe0479a7	-0.12937032
81	0x3d9f65de	0.077831015
82	0x3e3fa68a	0.18715873
83	0x3bcbbaa5	0.006217318
84	0x3c94c13c	0.018158548
85	0x3e82ba9e	0.25533003
86	0xbcd563cc	-0.026048563
87	0xbd377eee	-0.044798784
88	0x3bed98c6	0.007250878
89	0x3cf0784e	0.02935424
90	0xbe80386b	-0.25043043
91	0xbe3f01e6	-0.18653068
92	0xbe362531	-0.17787625
93	0xbce2222f	-0.02760419
94	0x3ca0cab6	0.01962791
95	0xbda4fd4a	-0.080561236
96	0x3cdfaf9e	0.02730542
97	0x3ced53f6	0.0289707
98	0x3d8004fc	0.06250951
99	0xbe861d82	-0.26194388
100	0xbe0f5e4d	-0.14000817
101	0x3d13f1e1	0.036119346
102	0xbe4b251b	-0.19838373
103	0xbe1bfd68	-0.15233386
104	0xbe3266f6	-0.17422089
105	0xbcf381b5	-0.029724935
106	0xbd557201	-0.052110676
107	0x3b10edf6	0.0022114492
108	0xbde5a13c	-0.11212394
109	0xbe2a4bf0	-0.1663053
110	0x3d2dea54	0.0424598
111	0xbdd1a1c1	-0.1023593
112	0xbc53b667	-0.012921906
113	0x3c6e50e6	0.014545655
114	0xbcc8b847	-0.024501933
115	0xbdc40814	-0.09571853
116	0x3d559396	0.052142702
117	0xbe33e297	-0.17566906
118	0xbcf517fe	-0.029918667
119	0xbf19d5e7	-0.60092014
120	0x3cf3233e	0.02967989
121	0xbca96416	-0.020677608
122	0x3cb64559	0.022249864
123	0xbe4e8c86	-0.20170793
124	0xbdbf0c1c	-0.093284816
125	0x3c50be51	0.0127406875
126	0x3cf27496	0.029596608
127	0xbc53ce3a	-0.012927586
128	0xbe143981	-0.14475061
129	0x3c5cac24	0.013468776
130	0xbca2efa0	-0.019889653
131	0xbb8adcb1	-0.0042377342
132	0xbd4c2b36	-0.049845897
133	0xb80fa6ac	-3.4249082e-05
134	0xbb4a9de4	-0.0030916864
135	0x3d183eba	0.037169196
136	0x3d493180	0.049119473
137	0xbcdb6787	-0.026782764
138	0x3b39f76e	0.002837624
139	0xbe4f2108	-0.20227444
140	0xbe84703a	-0.25866872
141	0x3c892bea	0.016744573
142	0xbf22962f	-0.6351041
143	0xbcd4a613	-0.025958097
144	0x3bfc08e4	0.0076914895
145	0x3e12d9c4	0.14340883
146	0x3de153f6	0.110023424
147	0x3be6b15c	0.007040186
148	0x3cc6acbf	0.024252294
149	0x3e261114	0.16217452
150	0xbcee9cde	-0.029127534
151	0xbda5ae8d	-0.080899335
152	0x3c3f65f7	0.011682025
153	0x3cf7ed69	0.030264573
154	0xbe1684f5	-0.14699157
155	0xbd04c257	-0.0324119
156	0xbd817b65	-0.06322364
157	0xbd5d1837	-0.05397817
158	0x3b72036f	0.0036928316
159	0xbbc0b393	-0.005880782
160	0x3ca038a8	0.019558266
161	0x3ce45329	0.027871685
162	0x3d4e7910	0.050408423
163	0xbea93bf3	-0.3305355
164	0xbd0b12c5	-0.033953447
165	0xb8386f52	-4.3972694e-05
166	0xbc81161e	-0.015757617
167	0x3b9ce928	0.0047885366
168	0xbafc5c1a	-0.0019253523
169	0x3ca7f4fc	0.02050256
170	0xbc88aa4c	-0.016682766
171	0x3b85d3d2	0.004084089
172	0xbd3510e2	-0.044205554
173	0xbd5fe3d2	-0.054660626
174	0x3d208dcb	0.039197724
175	0x3c174588	0.009232886
176	0xbc51e6e6	-0.012811398
177	0x3c610553	0.01373418
178	0xbd04ae28	-0.03239265
179	0x3aecbf78	0.0018062433
180	0xbcec45e9	-0.02884193
181	0xbe31c1c6	-0.17359075
182	0xbd386721	-0.045020226
183	0xbe99eaec	-0.30062044
184	0x3ca51314	0.020150699
185	0xbc6dba28	-0.014509715
186	0x3b368bd9	0.0027854352
187	0xbd2a07ab	-0.04151122
188	0xbde703b1	-0.11280001
189	0x3ca1fd33	0.019774055
190	0x3d10792a	0.0352718
191	0xbbb05948	-0.005381737
192	0x3e2539a6	0.16135272
193	0x3c0a6139	0.008446031
194	0x3da8d16b	0.08243068
195	0xbe6fa629	-0.23403229
196	0xbe30a353	-0.17249803
197	0x3cc4670f	0.023974923
198	0xbd1b2ccb	-0.037884515
199	0x3e18c9c0	0.14920712
200	0xbe59f423	-0.21284537
201	0xbcb3c6d2	-0.02194539
202	0x3c6bf6a7	0.014402068
203	0x3e3e6860	0.18594503
204	0x3a292b5f	0.0006453301
205	0x3e21ac88	0.15788472
206	0xbec5fead	-0.38670865
207	0xba338978	-0.00068487925
208	0x3df2ccde	0.118554816
209	0x3db6216e	0.08893095
210	0x3e8b8687	0.27251074
211	0x3d9e3157	0.077242546
212	0xbe1e94dd	-0.15486474
213	0x3e2855f8	0.16439044
214	0xbde2b548	-0.11069733
215	0x3d3818a1	0.044945363
216	0x3dff61fa	0.124698594
217	0x3da341b7	0.079715185
218	0xbe7c7565	-0.24654157
219	0x3d931a40	0.07182741
220	0x3e09bb33	0.13450317
221	0x3d8f1f75	0.06988422
222	0x3e24b9ea	0.16086546
223	0xbe799711	-0.24374034
224	0x3e34b241	0.17646123
225	0x3e14c9d7	0.14530121
226	0x3e60c1f2	0.21948984
227	0x3d13e1be	0.036103956
228	0x3e3bbc06	0.18333444
229	0x3bd80175	0.0065919706
230	0x3d8e929b	0.069615565
231	0x3db0fd68	0.086420834
232	0xbe92b431	-0.286531
233	0x3d8ea60f	0.06965267
234	0xbdc4b9ae	-0.09605728
235	0x3e38485b	0.17996351
236	0x3da1404b	0.07873591
237	0x3e76441a	0.24049416
238	0xbc034843	-0.008012834
239	0x3d9d0aef	0.07668101
240	0x3d84da97	0.06487005
241	0x3e1dc6d3	0.15407877
242	0xbe8025c7	-0.25028822
243	0xbd985dda	-0.07439776
244	0xbe21120e	-0.15729544
245	0x3e428fa7	0.19000112
246	0x3d906bfc	0.070518464
247	0xbe5ae810	-0.21377587
248	0x3b4f21be	0.0031605805
249	0xbbae2f46	-0.005315694
250	0x3e072703	0.13198476
251	0xbdbfe8a3	-0.09370544
252	0x3de91444	0.113808185
253	0x3e2eda9a	0.17075577
254	0xbe215d48	-0.1575824
255	0x3ca9f357	0.020745916

bn_outlayer_in.weight f4 [64]
0	0x3f7e5182	0.9934312
1	0x3f7c218b	0.9848868
2	0x3f6c398f	0.9227533
3	0x3f78f1ef	0.9724416
4	0x3f5e3d8e	0.86812675
5	0x3f844266	1.0332763
6	0x3f64f8da	0.8944222
7	0x3f7220af	0.9458112
8	0x3f509d13	0.81489676
9	0x3f64398d	0.89150316
10	0x3f66b3e5	0.9011825
11	0x3f864446	1.0489585
12	0x3f818393	1.0118278
13	0x3f6858f9	0.9076076
14	0x3f885173	1.0649856
15	0x3f64ab41	0.8932381
16	0x3f7acf23	0.97972316
17	0x3f3fffcc	0.7499969
18	0x3f5c3f38	0.86033964
19	0x3f6b9bc1	0.92034537
20	0x3f7aece5	0.9801772
21	0x3f4af646	0.79282033
22	0x3f8808ad	1.0627648
23	0x3f771167	0.9651093
24	0x3f72f182	0.9489976
25	0x3f6b4e16	0.91916025
26	0x3f70e16d	0.9409397
27	0x3f5c9fa0	0.8618107
28	0x3f88061a	1.0626862
29	0x3f82a8f9	1.0207816
30	0x3f6f3a25	0.93448097
31	0x3f66e6f2	0.90196145
32	0x3f66ce54	0.9015858
33	0x3f7b230f	0.9810037
34	0x3f566b47	0.8375744
35	0x3f78cba7	0.9718575
36	0x3f87742b	1.0582327
37	0x3f660075	0.8984445
38	0x3f6c209d	0.92237264
39	0x3f7bda17	0.98379654
40	0x3f759baa	0.9594065
41	0x3f804244	1.0020223
42	0x3f63f24a	0.8904158
43	0x3f80596c	1.0027289
44	0x3f892f2c	1.0717521
45	0x3f831a22	1.024235
46	0x3f5f4cb9	0.87226444
47	0x3f87ba69	1.0603763
48	0x3f6f3711	0.934434
49	0x3f747f71	0.9550696
50	0x3f820c6c	1.0160041
51	0x3f744d1b	0.95430154
52	0x3f2bc0a6	0.67090833
53	0x3f6d477c	0.926872
54	0x3f84f984	1.0388646
55	0x3f854519	1.0411712
56	0x3f777e65	0.9667724
57	0x3f59758a	0.84944975
58	0x3f5c95f0	0.86166286
59	0x3fafd599	1.373706
60	0x3f74fe7b	0.95700806
61	0x3f7a148e	0.97687614
62	0x3f7b0c41	0.9806557
63	0x3f7c7402	0.98614514

bn_outlayer_in.bias f4 [64]
0	0xbe082aec	-0.13297623
1	0xbeea676a	-0.45782024
2	0x3d2175c4	0.03941895
3	0xbe226cd7	-0.15861832
4	0xbe95f67d	-0.29289618
5	0xbe403c7d	-0.18773074
6	0xbdad1576	-0.08451359
7	0xbe2ce974	-0.1688593
8	0xbe2e1cf6	-0.17003235
9	0xbd6aa1d9	-0.057283256
10	0xbe40e4ee	-0.1883733
11	0xbe232fec	-0.1593625
12	0xbc19aa8a	-0.009379039
13	0xbe58c47e	-0.21168706
14	0x3d0e36df	0.034720298
15	0xbe901e3e	-0.28148073
16	0xbd554966	-0.05207195
17	0x3dd17f64	0.10229376
18	0xbea6e5dd	-0.32597247
19	0xbdd6eef8	-0.104947984
20	0xbe032f1d	-0.12810941
21	0x3e21608b	0.15759484
22	0xbdfc7f40	-0.123289585
23	0xbd987d19	-0.074457355
24	0xbe7a2e68	-0.24431765
25	0xbe481ac1	-0.19541456
26	0xbdf7efe7	-0.121063046
27	0xbd85a148	-0.065249026
28	0xbde89aa2	-0.11357619
29	0xbde1a25f	-0.11017298
30	0xbe0117b0	-0.12606692
31	0xbea2992c	-0.31757486
32	0xbe5b0c60	-0.2139144
33	0xbcf69d13	-0.030104196
34	0x3d3028a0	0.043007493
35	0xbe33795c	-0.17526764
36	0xbe00a3df	-0.12562512
37	0xbdd4a399	-0.10382766
38	0xbe3683ba	-0.17823687
39	0xbe3e9f81	-0.18615533
40	0x3d22582e	0.039634876
41	0xbdbfcf97	-0.093657665
42	0xbe769344	-0.24079615
43	0x3cee3c35	0.029081443
44	0xbde47ecd	-0.11156998
45	0xbd5448ce	-0.051827244
46	0xbec949b9	-0.39314058
47	0xbe5969d8	-0.21231782
48	0xbc303c9e	-0.01075664
49	0xbc0d83f7	-0.00863742
50	0xbe31d937	-0.17368017
51	0xbe32af99	-0.17449798
52	0x3e18fbc0	0.14939785
53	0xbe8c7ea2	-0.27440363
54	0xbdee169e	-0.11625408
55	0xbeb56c73	-0.35434303
56	0xbed3219a	-0.41236573
57	0xbe19d9e5	-0.15024526
58	0xbddee9f2	-0.10884465
59	0xbf078739	-0.5294071
60	0xbd946afb	-0.072469674
61	0xbe06f367	-0.13178788
62	0xbd85fcaf	-0.06542336
63	0xbe0b1f59	-0.13586177

bn_outlayer_in.running_mean f4 [64]
0	0xbc07d61b	-0.008290793
1	0xbc5863f1	-0.013207422
2	0x3b5520e7	0.0032520832
3	0xbcf9d225	-0.030495713
4	0xbd1c1161	-0.03810251
5	0xbc491cd3	-0.012274939
6	0x3c0b33df	0.008496254
7	0x3cb135e8	0.02163215
8	0x3b744e9c	0.00372783
9	0x3c017ff0	0.007904038
10	0x3c4092be	0.011753736
11	0xbc4da751	-0.012552098
12	0xbc27185e	-0.010198681
13	0x3c85b913	0.016323602
14	0xbd826fec	-0.06369004
15	0xbca34c77	-0.019933922
16	0x3b17f49e	0.0023186575
17	0x3b97485b	0.0046167797
18	0x3cb7798d	0.022396827
19	0xbad26a8b	-0.0016053481
20	0xbd84e85f	-0.06489634
21	0x3c867aeb	0.016416034
22	0xbd323226	-0.043504857
23	0xbbdf5f2f	-0.0068167667
24	0x3c1579cc	0.009123277
25	0x3c62afe1	0.013835878
26	0xbccd092e	-0.025028791
27	0xbb3720b4	-0.0027943077
28	0x3c848800	0.016178131
29	0xbc08c4dd	-0.008347717
30	0x3c5aa0d7	0.013344011
31	0xbca767bd	-0.020435208
32	0x3c7d4aad	0.015459699
33	0x3cde453a	0.02713262
34	0x3d1b04c8	0.037846357
35	0xbd2a6234	-0.04159756
36	0xbb283ee7	-0.0025672258
37	0x3c8d057b	0.017214527
38	0xbc60780d	-0.013700497
39	0xbbd6aa1c	-0.0065510403
40	0xbc1ae232	-0.009453343
41	0xbb1333f7	-0.0022461393
42	0xbc4263af	-0.011864587
43	0x3c47cd99	0.012195014
44	0xbc1f7353	-0.009732085
45	0xba5d8597	-0.00084503874
46	0xbb745847	-0.0037284063
47	0xbc19b3bc	-0.009381231
48	0x39a66172	0.0003173459
49	0x3b54b23e	0.0032454873
50	0xbd673ce4	-0.056454554
51	0xbc3fa3ca	-0.011696765
52	0x3c95b2ae	0.018273678
53	0xbcc0ae69	-0.023520665
54	0xbc466d89	-0.012111076
55	0xbc2ab9f8	-0.010420315
56	0x3b8876be	0.004164546
57	0xbb88ad8d	-0.0041710795
58	0x3c8aa8be	0.016926166
59	0xbb9964f8	-0.004681226
60	0x3bb18932	0.0054179663
61	0x3c6a99a8	0.014318861
62	0xbd339671	-0.043844644
63	0xbbcdc1c8	-0.006279204

bn_outlayer_in.running_var f4 [64]
0	0x3d9f0ee9	0.07766516
1	0x3b32c281	0.0027276578
2	0x3ab6179b	0.0013892533
3	0x3d124470	0.0357098
4	0x3c606039	0.013694816
5	0x3ba599a1	0.0050537144
6	0x3b0eb7d3	0.0021777048
7	0x3ba379f5	0.0049889036
8	0x3c5eff95	0.01361074
9	0x3c586a72	0.013208972
10	0x3b30a386	0.0026952936
11	0x3d8c3e80	0.068478584
12	0x3b254a3f	0.0025221256
13	0x3bebc53b	0.0071951426
14	0x3d006c71	0.031353418
15	0x3c63f673	0.013913739
16	0x3c41657f	0.011803984
17	0x3afe783f	0.0019414498
18	0x3b0289a9	0.0019918478
19	0x3b67c6fe	0.0035366411
20	0x3c817eed	0.015807593
21	0x3b203e18	0.0024451073
22	0x3b849a1c	0.0040466916
23	0x3bc07a63	0.0058739646
24	0x3a91bb39	0.0011118419
25	0x3b53cbab	0.003231744
26	0x3cad8fd8	0.021186754
27	0x3afba754	0.0019199648
28	0x3c72ad2d	0.014811796
29	0x3bd27eea	0.0064238207
30	0x3b9e529c	0.004831625
31	0x3b6621ca	0.0035115355
32	0x3bda14ce	0.006655312
33	0x3bfce216	0.007717381
34	0x3bfb26d7	0.007664542
35	0x3d7b7f06	0.061400436
36	0x3d757c92	0.059933253
37	0x3d024227	0.03180137
38	0x3b9928ea	0.004674067
39	0x3bd0866a	0.0063636797
40	0x3a4e908d	0.0007879816
41	0x3a5f05f0	0.00085076597
42	0x3b030a22	0.0019995053
43	0x3b823029	0.0039730263
44	0x3c5aadc9	0.013347098
45	0x3d26c6af	0.040716823
46	0x39ed6ab3	0.0004528366
47	0x3c360b64	0.011111114
48	0x3af63014	0.0018782639
49	0x3b08fa67	0.0020901205
50	0x3bd1f094	0.006406853
51	0x3c0f0dbe	0.008731304
52	0x3d3ec499	0.04657421
53	0x3c8f2d0a	0.017477531
54	0x3c317687	0.010831482
55	0x3cb38a63	0.021916574
56	0x39a78d4b	0.00031957994
57	0x3a35e7ac	0.0006939124
58	0x3b187405	0.0023262512
59	0x3b8152ee	0.0039466536
60	0x3c1a55d4	0.009419877
61	0x3baf3de8	0.005347956
62	0x3c2309e5	0.0099510895
63	0x3b0c00f8	0.0021362882

gnn_layers.0.gnn.att_i f4 [1, 1, 64]
0	0xbe4afaeb	-0.1982228
1	0xbed3ed86	-0.41392154
2	0x3f175d6d	0.5912693
3	0x3e238906	0.15970239
4	0xbe5619f4	-0.20908338
5	0x3e21e171	0.15808655
6	0xbdbf30ea	-0.093355015
7	0x3ea7d11d	0.32776728
8	0x3e95d7e5	0.29266277
9	0x3eef4d73	0.46738777
10	0x3e6eb772	0.23312166
11	0x3e8cf62b	0.2753156
12	0x3e907d04	0.2822038
13	0x3ed3dba6	0.41378516
14	0xbd50b92f	-0.050957855
15	0x3f01150e	0.5042275
16	0xbe3e9b63	-0.18613963
17	0x3e496142	0.19666007
18	0xbed65803	-0.41864023
19	0x3f73937b	0.9514691
20	0xbd9da21e	-0.07696937
21	0x3e31029b	0.1728615
22	0xbe9e135c	-0.30874145
23	0x3db31d1b	0.08745786
24	0xbec2e4ad	-0.3806509
25	0xbf07915e	-0.5295619
26	0xbe588a45	-0.21146496
27	0xbed5f5ea	-0.4178918
28	0x3e5437a9	0.20724358
29	0xbea1f33e	-0.31630892
30	0x3eb8f632	0.36125332
31	0x3f7c5ec0	0.9858208
32	0x3e7de4e0	0.2479434
33	0xbed03c3f	-0.40670964
34	0x3e7d71e0	0.24750471
35	0x3f15a96a	0.5846163
36	0xbdda4a78	-0.10658735
37	0xbe52139f	-0.20515297
38	0xbe0e9ba1	-0.13926555
39	0xbd2fdba8	-0.04293409
40	0xbec5ee0a	-0.38658172
41	0x3e25a1a8	0.16174948
42	0xbdd33b87	-0.10314088
43	0x3dea549c	0.11441919
44	0xbc9d2cee	-0.019186463
45	0x3e367712	0.17818859
46	0x3ed8887a	0.42291623
47	0xbe6f7f6b	-0.2338845
48	0xbdd2db5b	-0.10295745
49	0x3d812634	0.06306115
50	0x3cec81e7	0.028870536
51	0x3edfe602	0.4373017
52	0x3ed5942f	0.41714618
53	0xbf693fbd	-0.9111288
54	0xbe1e5834	-0.15463334
55	0x3ea18c07	0.31552145
56	0x3e7066a7	0.23476659
57	0x3e652649	0.22377886
58	0xbeb0837e	-0.3447532
59	0x3e8cf502	0.27530676
60	0x3f299445	0.66241866
61	0x3e5b235c	0.21400207
62	0xbf29f9aa	-0.6639658
63	0xbee73dfc	-0.45164478

gnn_layers.0.gnn.att_j f4 [1, 1, 64]
0	0x3e55396d	0.20822687
1	0x3db6a5c2	0.089183345
2	0x3d9f6b68	0.07784158
3	0x3e204a12	0.15653256
4	0x3e0c72e4	0.13715702
5	0xbc92974c	-0.01789441
6	0x3e18ee20	0.14934587
7	0x3e65e976	0.2245234
8	0x3d80c703	0.062879585
9	0xbe00632a	-0.12537828
10	0x3e67064a	0.22560993
11	0xbdf9fe91	-0.12206758
12	0x3e9002f7	0.28127262
13	0xbdd069d3	-0.10176434
14	0x3c663188	0.014049895
15	0xbca3b15b	-0.01998203
16	0xbe417c49	-0.18895067
17	0xbda6b8e3	-0.08140733
18	0x3e2035ca	0.15645519
19	0x3d9ab1b9	0.07553429
20	0x3c110c5a	0.0088530425
21	0xbe889890	-0.26678896
22	0xbe14de5d	-0.1453795
23	0x3d948658	0.072521865
24	0xbdab0d89	-0.08352191
25	0xbe43b8c3	-0.1911345
26	0xbcff7bf2	-0.031187031
27	0xbde24f0f	-0.110502355
28	0xbdf024b6	-0.11725752
29	0x3daabc23	0.083366655
30	0x3cfa6b65	0.030568788
31	0x3e4283b6	0.18995556
32	0xbe46a47c	-0.19398683
33	0xbddc1e1e	-0.10747932
34	0x3c0b84f3	0.008515584
35	0x3e5edda8	0.21764243
36	0xbdfa3a2f	-0.12218129
37	0x3e160bf3	0.14652996
38	0xbe10619b	-0.14099734
39	0xbe1ab2ab	-0.15107219
40	0x3e225e81	0.15856363
41	0xbbd87cf1	-0.006606691
42	0xbe616118	-0.22009695
43	0x3dad9128	0.08474952
44	0x3e3de61a	0.18544808
45	0x3dfe5b6c	0.12419781
46	0xbb7c6199	-0.0038510321
47	0xbd573498	-0.05254039
48	0xbe174593	-0.14772634
49	0x3df2e401	0.118598945
50	0xbc5e2581	-0.013558746
51	0xbe323ce1	-0.17406036
52	0xbb370ef2	-0.0027932492
53	0x3d65a4af	0.056065258
54	0xbc1c2395	-0.009529968
55	0x3b831c3c	0.0040011685
56	0xbe778e52	-0.24175385
57	0xbcf2b7de	-0.02962869
58	0xbdd189b0	-0.1023134
59	0x3c7b8e3f	0.015353738
60	0xbd920a4a	-0.07130869
61	0x3dda1380	0.106482506
62	0xbdcae925	-0.0990775
63	0xbde49355	-0.11160914

gnn_layers.0.gnn.att_em_i f4 [1, 1, 64]
0	0xbea134c6	-0.31485575
1	0x3e8d6f54	0.27624
2	0xbc003f94	-0.007827658
3	0x3e6d09ba	0.23148242
4	0x3f7d1a2b	0.98868054
5	0xbec4c8ed	-0.38434544
6	0x3e357c0e	0.17723104
7	0xbf70adbb	-0.9401509
8	0x3ef65778	0.48113608
9	0x3c83e054	0.016098179
10	0xbe38958b	-0.18025796
11	0x3e85de1a	0.26146013
12	0x3f2a9687	0.66635936
13	0xbf2c60af	-0.6733503
14	0x3f6e2d13	0.9303753
15	0x3edbb0b2	0.42908245
16	0xbf48e44c	-0.78473353
17	0x3e2f6b37	0.17130743
18	0xbeb514ea	-0.3536752
19	0xbf26d526	-0.6516899
20	0x3f86363d	1.0485302
21	0x3eafd0f5	0.3433911
22	0x3effe117	0.49976417
23	0xbeb8d470	-0.36099577
24	0xbf498630	-0.7872038
25	0xbeb62328	-0.35573697
26	0x3e45b322	0.19306615
27	0x3df329ce	0.11873208
28	0xbdaa52ee	-0.08316599
29	0xbdb5a708	-0.08869749
30	0xbea05401	-0.3131409
31	0x3f5dca52	0.8663684
32	0xbf598a3e	-0.84976566
33	0xbf57f4f5	-0.8435815
34	0xbddec1b7	-0.10876792
35	0x3ee4296b	0.4456285
36	0xbddc52c8	-0.10757977
37	0xbe03e1a2	-0.12879041
38	0x3e8ad40d	0.27114907
39	0x3cb3bcc1	0.02194059
40	0x3f6e8570	0.9317236
41	0xbf11cd88	-0.5695424
42	0x3f1d00a3	0.61329097
43	0xbf5b343d	-0.85626584
44	0xbeab9a26	-0.33516043
45	0xbe0776b2	-0.13228872
46	0x3f2289fe	0.6349181
47	0xbc168a22	-0.009188207
48	0x3e277058	0.1635145
49	0xbf384b4b	-0.7198989
50	0x3f1f3647	0.62192196
51	0x3d779170	0.060441434
52	0x3e01a636	0.1266106
53	0x3f76ae7d	0.9636
54	0xbe068794	-0.13137656
55	0x3ea6b102	0.3255692
56	0xbf1b45d8	-0.6065345
57	0x3eac6366	0.33669585
58	0x3d461983	0.048364174
59	0x3d53e44a	0.051731385
60	0x3dbbc23b	0.09167906
61	0xbf668e6b	-0.9006106
62	0x3f521940	0.8206978
63	0x3e1edc1b	0.15513651

gnn_layers.0.gnn.att_em_j f4 [1, 1, 64]
0	0x3f986e6a	1.1908696
1	0x3f2a2c79	0.6647411
2	0xbead173b	-0.33806786
3	0x3f45f365	0.77324516
4	0xbef07de9	-0.46971062
5	0x3f40db60	0.7533474
6	0xbeb86d3b	-0.36020836
7	0xbec02a3a	-0.37532216
8	0xbf0dc5f9	-0.5538021
9	0xbf627475	-0.8845895
10	0xbebdb824	-0.3705455
11	0x3f475f1a	0.7787949
12	0x3f404eb7	0.7512011
13	0xbea78b7b	-0.32723603
14	0x3f4991eb	0.7873828
15	0x3f073585	0.5281604
16	0x3f209519	0.62727505
17	0xbf390bd3	-0.7228367
18	0xbf3016db	-0.68784875
19	0x3ea55e43	0.32298478
20	0xbe1811c6	-0.1485053
21	0xbf414c37	-0.7550692
22	0x3f0d33ce	0.5515717
23	0x3ef9a155	0.487559
24	0x3da4c7a2	0.080458894
25	0xbebc9375	-0.3683125
26	0x3f46dada	0.7767769
27	0xbeb0b9c2	-0.34516722
28	0x3f1f6463	0.6226255
29	0x3f0f5db1	0.56002337
30	0xbee8a81d	-0.4544076
31	0xbeb03547	-0.34415647
32	0xbe8da0b5	-0.27661672
33	0xbd9ec9d3	-0.07753339
34	0xbf2ce6aa	-0.67539465
35	0x3f94b444	1.1617513
36	0x3f8006c1	1.0002061
37	0xbf2c38cd	-0.6727417
38	0x3ebdda9d	0.3708085
39	0x3f3498f3	0.7054588
40	0xbdfe5cce	-0.12420045
41	0x3f0b5de7	0.5444016
42	0xbda58e5b	-0.08083793
43	0x3eb5f43a	0.35537893
44	0x3f24a275	0.6431039
45	0x3f349ffe	0.7055663
46	0xbe8da43e	-0.2766437
47	0x3f1cdcdb	0.612745
48	0xbea8898e	-0.32917446
49	0xbedd5b50	-0.43233728
50	0x3f3a40c3	0.7275507
51	0x3f2e917a	0.6819073
52	0xbf4f8eb9	-0.8107715
53	0xbeefe562	-0.46854693
54	0x3f3ae4e9	0.7300554
55	0x3f6e61cb	0.9311797
56	0x3e4c2779	0.19936933
57	0xbd090036	-0.033447467
58	0xbec0f096	-0.37683553
59	0x3f822478	1.0167379
60	0x3ed3f807	0.41400167
61	0x3f143d55	0.57906085
62	0x3e90b250	0.28261042
63	0x3ef7d8e6	0.48407668

gnn_layers.0.gnn.bias f4 [64]
0	0x3b7a6abb	0.003821059
1	0x3a8ecf02	0.0010895433
2	0xbc064478	-0.008195035
3	0xbc1d7d25	-0.009612356
4	0xbb27dcbc	-0.0025613746
5	0xbc1fe318	-0.009758733
6	0xbbf1ea9e	-0.007382705
7	0xbae536e2	-0.001748767
8	0x3946dd8c	0.00018965284
9	0xb8c81f75	-9.5426025e-05
10	0xbacf0cc7	-0.0015796655
11	0xbad330d7	-0.0016112578
12	0xbc12e569	-0.008965828
13	0x3b3a0fdf	0.0028390808
14	0x3b8142d8	0.003944736
15	0xbbba7737	-0.005690481
16	0xbd7c4de4	-0.06159772
17	0xbc09eeaf	-0.008418723
18	0x3a26f70f	0.0006369212
19	0xbcfeaa7b	-0.03108715
20	0x3b0868a7	0.002081433
21	0xb89b4cdc	-7.405292e-05
22	0x3ddf6710	0.109083295
23	0xbb49d175	-0.0030795012
24	0x3c9bd6f3	0.019023394
25	0x3aff04ea	0.001945642
26	0xbc31405b	-0.010818566
27	0xbc363d4c	-0.011123013
28	0x3b61046e	0.0034334916
29	0x3d2c0784	0.041999355
30	0x3b92ada5	0.0044762664
31	0xbc9bc837	-0.019016368
32	0x3b548301	0.0032426717
33	0xbc35f499	-0.01110568
34	0x39fc7544	0.00048152555
35	0x3a86ba34	0.0010278882
36	0x3a571a38	0.0008205506
37	0xbae8009c	-0.0017700377
38	0xbcd4bda1	-0.025969328
39	0x3bd89f9d	0.0066108243
40	0xbc9ad242	-0.018899087
41	0xbc02b784	-0.007978324
42	0xbb024b27	-0.001988122
43	0x3a3995d9	0.0007079519
44	0xbc372779	-0.011178845
45	0x3c9e7300	0.019341946
46	0x3bf33be1	0.0074229096
47	0x3c12b90d	0.008955252
48	0xbc177619	-0.009244465
49	0x3c13e0b8	0.009025745
50	0xbbd4efad	-0.006498298
51	0x3d127916	0.035760008
52	0x3a8e3a33	0.0010851085
53	0xba9929db	-0.0011685448
54	0xbcc41415	-0.023935357
55	0x3a89fdc0	0.0010527894
56	0x3a841ac4	0.0010078778
57	0xbb4c49d7	-0.0031171942
58	0xb9f143c1	-0.00046017583
59	0x3bce040d	0.006287104
60	0x3c66e74f	0.014093234
61	0xbc820e57	-0.015875978
62	0x3b61935d	0.003442011
63	0xbb12aa5a	-0.002237937

gnn_layers.0.gnn.lin.weight f4 [64, 15]
0	0xbe14d6e4	-0.145351
1	0xbeac555f	-0.33658883
2	0xbdcd53b4	-0.10025731
3	0x3e0eadc0	0.13933468
4	0xbe1ab065	-0.15106352
5	0xbe839c46	-0.25705165
6	0xbd994f21	-0.07485796
7	0xbe85a0c1	-0.26099208
8	0x3e41ae3c	0.18914121
9	0xbcaffda7	-0.021483256
10	0x3e451599	0.1924652
11	0x3cbebd11	0.023283513
12	0xbbec61ba	-0.0072137984
13	0xbd559912	-0.052147932
14	0x3e0e9a5f	0.13926075
15	0xbd64996c	-0.055810377
16	0xbe06dad5	-0.13169415
17	0x3e79a508	0.2437936
18	0x3e1e43ab	0.15455501
19	0x3e9085d1	0.28227094
20	0x3d91bd23	0.07116153
21	0x3d6f2af2	0.058390565
22	0x3e00c8c6	0.12576589
23	0x3e3f10f6	0.18658814
24	0x3e1e8845	0.1548167
25	0xbdc3202a	-0.09527619
26	0x3e20c26e	0.15699169
27	0xbdf6d36a	-0.12052043
28	0x3db0504b	0.08609065
29	0x3eda9a12	0.4269567
30	0xbe18a1ac	-0.14905423
31	0x3e42131e	0.18952605
32	0x3e6a2c50	0.22868466
33	0x3d2e6142	0.04257322
34	0xbe650300	-0.22364426
35	0x3c8ff232	0.017571542
36	0x3e545138	0.20734107
37	0x3d302455	0.0430034
38	0x3e6bd466	0.23030242
39	0xbcb7a967	-0.022419645
40	0xbe0f5f02	-0.14001086
41	0x3e5b09d6	0.21390471
42	0x3e228c21	0.15873767
43	0x3e6c0d8b	0.23052041
44	0xbec92daf	-0.39292666
45	0x3cb6c733	0.022311782
46	0x3e907316	0.28212804
47	0x3e0a6035	0.13513263
48	0x3e79529b	0.24347918
49	0xbe23363f	-0.15938662
50	0xbd4b1e42	-0.049589403
51	0xbccd7bf8	-0.025083527
52	0xbe4a6453	-0.19764833
53	0x3d8bba03	0.06822588
54	0x3ddfff14	0.10937324
55	0x3e3ae3b8	0.1825093
56	0x3d505e71	0.050871316
57	0xbe32e1bb	-0.17468922
58	0xbe27f9e6	-0.16403922
59	0xbeb9fcf5	-0.36325803
60	0xbd5bbb3b	-0.053645354
61	0x3dbe0c00	0.092796326
62	0xbda47996	-0.08031003
63	0x3e5849a3	0.2112184
64	0x3e59a766	0.21255264
65	0x3e832a1b	0.2561806
66	0x3d8d9796	0.06913678
67	0xbe27197c	-0.16318315
68	0xbc101c4b	-0.008795808
69	0xbdf865d3	-0.121287964
70	0x3e4237ff	0.18966673
71	0x3c45169f	0.012029319
72	0x3e0c18ad	0.13681288
73	0x3e0a8d5d	0.13530488
74	0x3ddaa8c5	0.106767215
75	0xbe51b2b5	-0.20478328
76	0xbd5222c0	-0.05130267
77	0x3df0b7d1	0.1175381
78	0xbe01ff4c	-0.12695044
79	0xbc2870af	-0.010280772
80	0x3df8c31b	0.121465884
81	0x3d93f19c	0.07223818
82	0xbe1bec0c	-0.15226763
83	0x3e01ca0a	0.12674728
84	0xbdf7865a	-0.120861724
85	0x3e14b894	0.14523536
86	0xbd861fc0	-0.065490246
87	0x3e30970a	0.17245117
88	0x3e987b29	0.29781464
89	0x3e692883	0.2276936
90	0x3e649579	0.22322644
91	0x3e6268f1	0.22110344
92	0xbe53ec77	-0.20695673
93	0x3d6e2ada	0.058146335
94	0x3e444066	0.19165191
95	0x3ba70b40	0.0050977767
96	0x3e2df574	0.16988164
97	0x3e724083	0.23657422
98	0xbe2bbbfe	-0.16770932
99	0x3dea3d9d	0.11437533
100	0xbe5a0db4	-0.2129429
101	0x3e3a5d52	0.18199661
102	0xbe1127c7	-0.1417533
103	0xbdaa98ee	-0.0832995
104	0x3da30b6c	0.07961163
105	0xbe4ebc04	-0.2018891
106	0xbcec0cdd	-0.028814727
107	0xbdf1ebf1	-0.118125804
108	0x3d62cd96	0.055371843
109	0xbd37aea8	-0.0448443
110	0xbe7ed15b	-0.2488455
111	0xbd8dafb2	-0.06918277
112	0x3d42e50c	0.047581717
113	0x3e37f8da	0.17966023
114	0xbe5195d2	-0.20467308
115	0xbe4a2e1f	-0.19744156
116	0x3da3d185	0.07998947
117	0xbe4b5fec	-0.1986081
118	0xbe36b54f	-0.17842601
119	0xbeef89ba	-0.46784765
120	0x3cbe92fd	0.023263449
121	0xbe3066c9	-0.1722671
122	0x3dcb8caa	0.09938939
123	0x3e877cba	0.26462346
124	0x3e2a624b	0.16639058
125	0xbe260083	-0.16211133
126	0x3e9e93d8	0.3097217
127	0xbe309340	-0.17243671
128	0xbd085659	-0.033285473
129	0x3e2ff62e	0.17183754
130	0x3e264da6	0.16240558
131	0x3e43d827	0.19125424
132	0xba18a213	-0.0005822491
133	0xbe2abdeb	-0.1667401
134	0xbee86519	-0.4538963
135	0x3bfd3a3c	0.0077278893
136	0xbe610eb4	-0.21978265
137	0xbe1ee9a7	-0.15518819
138	0x3e3b37c0	0.18282986
139	0xbd4b5019	-0.049636934
140	0x3d98bc65	0.074578084
141	0xbe5a1ef6	-0.21300873
142	0x3d0fa2d3	0.03506739
143	0x3e624a2d	0.22098608
144	0x3d83044f	0.06397306
145	0x3c9ed268	0.019387439
146	0xbe113620	-0.14180803
147	0xbe2304b5	-0.15919764
148	0x3e683787	0.22677432
149	0xbea0370d	-0.31292
150	0x3c4beb55	0.012446244
151	0xbe7af14d	-0.24506111
152	0xbb2a0741	-0.0025944265
153	0xbe98640e	-0.29763836
154	0x3d7bed49	0.06150559
155	0xbb1c701d	-0.0023870536
156	0xbe4bada3	-0.19890456
157	0xbdf1db77	-0.11809438
158	0xbdbbdae1	-0.09172607
159	0xbe316f15	-0.1732753
160	0xbdb17116	-0.086641476
161	0x3c886687	0.016650451
162	0xbe3e240b	-0.18568437
163	0x3c83578e	0.01603296
164	0xbeb63d41	-0.35593608
165	0x3e8d1852	0.27557617
166	0xbded9f6b	-0.11602672
167	0x3e0f5721	0.13998081
168	0xbe489e94	-0.19591743
169	0xbe51c476	-0.204851
170	0xbd9034b3	-0.070413016
171	0xbe1f6eef	-0.15569662
172	0xbd98d026	-0.07461576
173	0xbe25f998	-0.16208494
174	0xbd755fbd	-0.059905756
175	0xbe8149d8	-0.2525165
176	0x3e8872dd	0.26650134
177	0x3e23d8a0	0.16000605
178	0xbdfc9a50	-0.1233412
179	0x3b00910b	0.0019617702
180	0xbd9471f5	-0.07248298
181	0xbe768104	-0.24072653
182	0x3d986010	0.074401975
183	0xbdd5d58a	-0.1044112
184	0x3e5025d6	0.20326933
185	0xbd1d8f1f	-0.03846657
186	0xbe3f23be	-0.18665978
187	0x3e8d5f78	0.276119
188	0x3e07e699	0.1327156
189	0x3d9b91f7	0.075962
190	0xbc8dc715	-0.017306844
191	0xbe7720d4	-0.24133617
192	0x3d73c1a9	0.05951086
193	0xbd52285b	-0.051308017
194	0xbe96e238	-0.29469466
195	0x3e84b846	0.2592184
196	0xbe0f76c8	-0.14010155
197	0xbdd47ab1	-0.10374964
198	0xbd44bd97	-0.04803237
199	0xbe5a8e9e	-0.21343467
200	0xbe65dc9b	-0.22447436
201	0xbcb140ca	-0.02163734
202	0xbb438bde	-0.0029838006
203	0x3e3362fc	0.17518228
204	0x3e1b6aa6	0.15177402
205	0x3e58136e	0.21101162
206	0x3db3b90c	0.08775529
207	0x3d183fe8	0.03717032
208	0xbd96328c	-0.0733386
209	0xbebd5603	-0.36979684
210	0x3e357251	0.1771939
211	0xbd833538	-0.06406635
212	0x3e074e05	0.13213356
213	0xbe0d180b	-0.13778703
214	0xbdb3ad56	-0.087732956
215	0x3e37bdda	0.17943516
216	0xbd7e66e8	-0.062109858
217	0x3e38fb1b	0.18064539
218	0x3dd11c80	0.10210514
219	0x3cdb24f5	0.02675102
220	0xbe1123ce	-0.14173815
221	0x3d62f423	0.05540861
222	0xbe6a481a	-0.22879067
223	0xbed068a9	-0.4070485
224	0xbe7089ac	-0.23490018
225	0xbd92ded4	-0.07171407
226	0x3e496c5f	0.19670247
227	0x3ccea58d	0.025225425
228	0x3d1b39b6	0.037896834
229	0xbd3d2b55	-0.046183903
230	0xbbfc8ad9	-0.0077069816
231	0x3cabe8c4	0.020985015
232	0xbe058e1d	-0.13042493
233	0x3e039995	0.12851556
234	0x3e07f357	0.1327642
235	0x3d0580ff	0.032593723
236	0x3e0e2e1f	0.13884781
237	0x3dbe7f3c	0.09301612
238	0xbd6dabab	-0.058025043
239	0xbf05632b	-0.52104443
240	0xbdf1ae56	-0.1180083
241	0xbe41e113	-0.18933515
242	0xbcfaf883	-0.030636078
243	0x3e2cd4b0	0.16878009
244	0x3e8d69c7	0.27619764
245	0xbe87828e	-0.26466793
246	0xbe7eb08d	-0.24872036
247	0x3e382dde	0.17986247
248	0xbe35039c	-0.17677158
249	0xbd14e8c5	-0.0363548
250	0x3e06cc99	0.13163985
251	0x3e7a52d5	0.2444566
252	0x3e0dbc45	0.1384135
253	0x3e2ddc03	0.16978459
254	0x3e5e820e	0.217293
255	0xbd9bc90e	-0.076067075

gnn_layers.0.bn.weight f4 [64]
0	0x3f738ae0	0.9513378
1	0x3f139d2b	0.57661694
2	0x3f148c1b	0.58026284
3	0x3f0d19eb	0.5511767
4	0x3f6c9faa	0.9243113
5	0x3f435aa7	0.763102
6	0x3e9e45c5	0.30912605
7	0x3f06384a	0.5242964
8	0x3f531ad2	0.824628
9	0x3f338109	0.7011877
10	0x3f36db63	0.7142851
11	0x3f3f6b20	0.74772835
12	0x3edfe53d	0.43729582
13	0x3f5fd119	0.8742843
14	0x3f2fa1e8	0.68606424
15	0x3f1526b3	0.58262175
16	0x3ec6a50e	0.38797802
17	0x3eccd9f6	0.4001004
18	0x3f17a872	0.592414
19	0x3e982f8b	0.29723772
20	0x3f7072e2	0.939253
21	0x3f0cc2ff	0.5498504
22	0x3ed87789	0.42278698
23	0x3ec3c5ef	0.3823695
24	0x3f1f4652	0.62216675
25	0x3f4c20b7	0.7973742
26	0x3f2c8b1a	0.6739975
27	0x3eaba201	0.33522037
28	0x3f151a27	0.5824303
29	0x3ed6531a	0.41860276
30	0x3f0ea870	0.55725765
31	0x3f2736fd	0.6531828
32	0x3f58f094	0.84742093
33	0x3f4a13a8	0.78936243
34	0x3e426933	0.18985443
35	0x3f3c27f7	0.7349848
36	0x3f63f7ef	0.8905019
37	0x3f24d16f	0.6438207
38	0x3ec88879	0.3916662
39	0x3ebb6072	0.3659702
40	0x3eedcc14	0.46444762
41	0x3f09688f	0.5367517
42	0x3f179e07	0.59225506
43	0x3f5ceb03	0.862961
44	0x3ed60993	0.4180418
45	0x3f7030e4	0.938246
46	0x3ed59928	0.4171841
47	0x3ec8caf8	0.39217353
48	0x3f1349ee	0.5753468
49	0x3f0f2e22	0.5592977
50	0x3ea8f1bf	0.32996938
51	0x3ecd5f45	0.40111747
52	0x3f402ce9	0.7506853
53	0x3f1d6d93	0.6149532
54	0x3ee89a31	0.4543014
55	0x3f198ad4	0.5997746
56	0x3ef6c5c8	0.4819777
57	0x3f3a38c2	0.72742856
58	0x3e859d94	0.26096785
59	0x3ecc098c	0.39851034
60	0x3f28cbb9	0.65935856
61	0x3f4d4c86	0.8019489
62	0x3f59bc33	0.85052794
63	0x3f5ad16a	0.8547579

gnn_layers.0.bn.bias f4 [64]
0	0xbd36f717	-0.044669237
1	0xbe20d02a	-0.15704408
2	0x3ea0805f	0.3134794
3	0x3ea3a7af	0.3196387
4	0x3e38e908	0.18057644
5	0x3e641fcf	0.22277759
6	0x3ed7a72e	0.42119735
7	0x3eaf9ca1	0.34299186
8	0x3da7dc19	0.08196277
9	0x3e1dc4ad	0.15407057
10	0xbe5a2d62	-0.21306375
11	0x3e535302	0.20637134
12	0xbeadfda6	-0.3398258
13	0x3cc9d2a6	0.024636578
14	0xbde5ed5c	-0.11226913
15	0x3e6d88d2	0.23196724
16	0x3eebd439	0.4606035
17	0xbeadf378	-0.33974814
18	0xbe8747bf	-0.26421925
19	0x3ec3cb01	0.38240817
20	0xbd86b42a	-0.06577332
21	0xbea289a5	-0.3174564
22	0x3ecc34f0	0.39884138
23	0x3ee64d51	0.44980863
24	0xbe871f7c	-0.26391208
25	0x3dd89165	0.10574607
26	0x3e740aab	0.23832195
27	0x3ec898b5	0.39179006
28	0x3eb386b9	0.35063723
29	0x3edcf76c	0.43157518
30	0x3e99b83b	0.3002337
31	0x3e39cf8d	0.1814558
32	0x3d5eff1f	0.05444252
33	0x3e231e24	0.15929466
34	0x3e9e61a1	0.3093386
35	0x3d46a65a	0.04849849
36	0x3d3fb120	0.04679978
37	0x3e766845	0.24063213
38	0x3edee751	0.43535855
39	0x3edfa0e3	0.43677434
40	0xbead0099	-0.33789518
41	0xbe8896ed	-0.26677647
42	0x3e55291f	0.20816468
43	0xbdc0fb09	-0.09422881
44	0x3f0231be	0.5085715
45	0xbd64dba0	-0.055873513
46	0xbe8bdc33	-0.27316436
47	0x3f04ed16	0.51924264
48	0x3eb83998	0.3598144
49	0xbeab333b	-0.33437523
50	0x3e8f0bbb	0.27938637
51	0x3ee7d020	0.45275974
52	0xbe034ead	-0.12822981
53	0x3e7c5deb	0.24645202
54	0x3ee44661	0.44584945
55	0xbea6ffaf	-0.32616946
56	0xbecb1db3	-0.39671096
57	0x3df753c7	0.12076526
58	0x3eda1b2d	0.42598858
59	0xbebeeb7a	-0.3728903
60	0x3e63c411	0.22242762
61	0xbe103c8d	-0.14085598
62	0xbdb784d1	-0.089608796
63	0x3e4b0b00	0.19828415

gnn_layers.0.bn.running_mean f4 [64]
0	0x3e969565	0.29410854
1	0xbf23ea90	-0.6402979
2	0xbe859936	-0.26093453
3	0x3d22bc8e	0.0397306
4	0xbed7b616	-0.42131108
5	0xbe89b4d8	-0.26895785
6	0xbe89dd75	-0.2692677
7	0x3f2f9e6b	0.686011
8	0xbd92cd36	-0.07168047
9	0x3e3ce472	0.1844652
10	0x3f315466	0.69269407
11	0x3e618009	0.22021498
12	0x3e416ced	0.18889208
13	0x3e08bb08	0.13352597
14	0x3e80e6a0	0.25175953
15	0x3d1f20c4	0.038849607
16	0xbe920ecf	-0.28526923
17	0xbc4037ad	-0.011732024
18	0xbef6e2b4	-0.48219836
19	0xbea85bd9	-0.32882574
20	0x3e98a0bc	0.2981013
21	0xbe87e1d9	-0.26539496
22	0xbd9c4ae5	-0.076314725
23	0xbe2cd583	-0.16878323
24	0x3e0fa72e	0.14028618
25	0x3caf7f17	0.021422906
26	0x3b2332b4	0.0024902048
27	0xbf402792	-0.7506038
28	0x3e96f631	0.29484704
29	0xbe062134	-0.13098603
30	0x3e94dabc	0.2907313
31	0xbe8db868	-0.27679753
32	0x3e3ceedb	0.18450491
33	0x3df0d34c	0.11759052
34	0xbe4cc722	-0.19997838
35	0x3ef85f55	0.48510233
36	0x3e8fb2cf	0.28066108
37	0x3f10123e	0.56277835
38	0xbe7a3fb2	-0.2443836
39	0xbe165a57	-0.146829
40	0x3e05f47a	0.13081542
41	0xbea75e82	-0.3268929
42	0xbf17129a	-0.5901276
43	0x3e48ed13	0.19621687
44	0xbe789585	-0.24275787
45	0x3e25d6e5	0.16195257
46	0x3ea164c0	0.3152218
47	0xbee3951b	-0.44449696
48	0xbe1a26ce	-0.15053865
49	0x3eaf0d70	0.3418994
50	0xbe229f06	-0.15880975
51	0xbe3d5d51	-0.18492629
52	0x3d889781	0.06669522
53	0x3e7c5d4e	0.24644968
54	0xbe421602	-0.18953708
55	0x3f442af4	0.7662804
56	0x3ec5b9be	0.38618273
57	0xbeb2181b	-0.34784016
58	0xbe7b490e	-0.24539587
59	0x3efd8a62	0.4951964
60	0x3db12d11	0.08651174
61	0x3dd4c370	0.10388839
62	0x3e5b6575	0.21425422
63	0xbf118e50	-0.56857777

gnn_layers.0.bn.running_var f4 [64]
0	0x3dd1de0f	0.102474324
1	0x3ee24ffb	0.44201645
2	0x3d9a78d6	0.07542579
3	0x3bebe070	0.007198386
4	0x3e3cf0e6	0.1845127
5	0x3d89170c	0.06693849
6	0x3da90b98	0.082541645
7	0x3ef9134e	0.4864754
8	0x3c68f14b	0.014217685
9	0x3d0efd97	0.03490981
10	0x3f03fb5c	0.5155542
11	0x3d814e61	0.06313778
12	0x3d216fdc	0.039413318
13	0x3ca5eabf	0.020253537
14	0x3d775bf6	0.060390435
15	0x3b9f1a14	0.0048554037
16	0x3d4bf2a5	0.04979195
17	0x3b99d7d8	0.00469492
18	0x3e7ec626	0.24880275
19	0x3de055f4	0.10953894
20	0x3daeaf09	0.08529479
21	0x3d9595d4	0.07303968
22	0x3d09e1a6	0.03366246
23	0x3cf2a09c	0.0296176
24	0x3c859353	0.016305601
25	0x3b8ecb8c	0.004357761
26	0x3ba404d8	0.00500546
27	0x3f1474b7	0.5799059
28	0x3dc3da0f	0.09563076
29	0x3d00af49	0.031417165
30	0x3da434ec	0.080179065
31	0x3d8c992e	0.06865154
32	0x3d0a62bd	0.03378557
33	0x3cc720c1	0.02430761
34	0x3d28aac4	0.04117848
35	0x3e76122a	0.24030367
36	0x3dc3b0d5	0.095552124
37	0x3eaa147a	0.33218747
38	0x3d4811e8	0.0488452
39	0x3cbfb6c3	0.023402577
40	0x3cd5d564	0.02610273
41	0x3dcef125	0.101045884
42	0x3ebd5a22	0.36982828
43	0x3d20f7cd	0.03929882
44	0x3d77fdd0	0.06054479
45	0x3cb2032a	0.021730024
46	0x3dc886ef	0.097913615
47	0x3e608ce6	0.21928748
48	0x3ca95e03	0.020674711
49	0x3df3c256	0.11902301
50	0x3cbf53c0	0.023355365
51	0x3d466676	0.048437558
52	0x3c032e22	0.008006604
53	0x3d8f6c0d	0.07003031
54	0x3ce655a8	0.028117016
55	0x3f209d85	0.62740356
56	0x3e27dca7	0.16392766
57	0x3df50039	0.11962933
58	0x3d7de0ba	0.061981894
59	0x3e702754	0.23452502
60	0x3bfb51b1	0.0076696505
61	0x3c76eb4f	0.01507075
62	0x3d43d68f	0.04781204
63	0x3eab7286	0.33485812

out_layer.mlp.0.weight f4 [1, 64]
0	0xbd920ed2	-0.07131733
1	0xbe71061b	-0.23537485
2	0x3d15619b	0.036470037
3	0xbd906f89	-0.07052524
4	0x3d840aae	0.064473495
5	0x3dcc9e1c	0.099910945
6	0x3d1d376d	0.038382936
7	0xbd3f61b3	-0.046724033
8	0xba601ba2	-0.00085490395
9	0xbceb56ab	-0.02872785
10	0xbd0898bc	-0.033348784
11	0xbd8f6cd0	-0.07003176
12	0x3de860c8	0.113465846
13	0xbd595888	-0.053062946
14	0x3da1c81a	0.078994945
15	0xbd9315dc	-0.07181904
16	0x3d924174	0.071413904
17	0xbca9dd18	-0.020735309
18	0xbcf984c8	-0.030458823
19	0x3d8bb452	0.06821503
20	0x3def63f6	0.11688988
21	0xbc846bda	-0.016164709
22	0xbe121626	-0.14266261
23	0x3d88dfe8	0.06683332
24	0xbd5f925d	-0.054582942
25	0xbcf7e5bb	-0.030260911
26	0xbd7299a4	-0.059228554
27	0x3d1e6c92	0.03867776
28	0xbd6eb265	-0.0582756
29	0x3d8efb37	0.06981509
30	0xbd312916	-0.043252073
31	0x3da596bf	0.08085393
32	0xbd706c56	-0.058697067
33	0xbd42a2e3	-0.047518622
34	0x3c8b16ca	0.01697864
35	0xbd7da590	-0.06192547
36	0xbda44792	-0.080214635
37	0xbd05bd61	-0.03265131
38	0x3d8e3a76	0.06944744
39	0x3da56ff7	0.08077996
40	0x3d92008e	0.07129012
41	0xbdba5a0e	-0.09099208
42	0x3d6695ff	0.05629539
43	0xbd3e5b6e	-0.046473913
44	0x3d85fd7b	0.06542488
45	0xbd8d82e6	-0.069097325
46	0x3d7a75ed	0.06114762
47	0x3d9a6b80	0.07540035
48	0x3d4b75c8	0.04967287
49	0xbd3ebf12	-0.046568938
50	0xbde4ee60	-0.11178279
51	0x3da2976d	0.079390384
52	0xbcbc9467	-0.023019983
53	0xbd4c5bbe	-0.04989218
54	0x3dac9755	0.08427302
55	0xbe0588ce	-0.13040468
56	0xbd91a42a	-0.0711139
57	0x3d3548b7	0.0442588
58	0x3d172891	0.03690392
59	0x3e93f86a	0.28900462
60	0xbd3bfd8b	-0.045896094
61	0xbd72f699	-0.059317205
62	0x3dc66c33	0.09688606
63	0x3d80a3bb	0.06281229
