pretrained/best_02_10-15_55_34.pt (torch_old, 30900 bytes, 16 tensors)

embedding.weight f4 [79, 64]
0	0x3e224e7e	0.15850255
1	0x3da10295	0.078618206
2	0x3ddca9c9	0.107745714
3	0x3cf5d53c	0.030008905
4	0xbce3665f	-0.027758775
5	0x3ca8c9d0	0.020604044
6	0x3df31fde	0.118713126
7	0x3d4c272e	0.049842052
8	0x3b95ae3c	0.0045678895
9	0xbe6848c6	-0.22684011
10	0x3b26c861	0.0025449025
11	0x3e468dd1	0.19390036
12	0xbd91c194	-0.07117
13	0xbe0c0cdd	-0.13676782
14	0xbdea72fe	-0.11447714
15	0xbd954147	-0.07287841
16	0xbd2e0864	-0.04248847
17	0x3dd5b6d2	0.10435261
18	0xbd88a33e	-0.06671761
19	0xbd8df09d	-0.06930659
20	0xbdcfb82a	-0.101425484
21	0x3c435277	0.011921517
22	0xbd81a9ce	-0.06331216
23	0x3e0d3576	0.13789925
24	0xbda3acc7	-0.07991939
25	0x3da64505	0.08118633
26	0x3e0d75d2	0.13814476
27	0xbd838648	-0.064220965
28	0x3e29f5ab	0.16597621
29	0x3e1b7ef7	0.15185152
30	0x3d739a55	0.059473354
31	0x3e3db348	0.18525422
32	0x3d86deb1	0.06585444
33	0xbdc05d46	-0.093927905
34	0x3ddd0332	0.10791625
35	0xbe8d26ed	-0.2756876
36	0x3e5654fb	0.20930855
37	0xbdfcd261	-0.12344814
38	0x3e01b375	0.12666114
39	0x3de887f8	0.11354059
40	0xbe963dfd	-0.29344168
41	0xbe10ac94	-0.14128333
42	0x3e76d2b5	0.24103816
43	0x3c910e1f	0.017706929
44	0x3d8fb9ad	0.07017837
45	0x3c950455	0.018190542
46	0x3c338b8d	0.0109585645
47	0x3dcca01e	0.099914774
48	0x3e1a6f6f	0.15081571
49	0x3d2cbfdd	0.042175163
50	0xbd065fa6	-0.03280606
51	0x3e0a2a87	0.13492785
52	0xbe08568c	-0.13314265
53	0xbd5b5259	-0.05354533
54	0x3e1834d0	0.14863896
55	0xbd34a554	-0.04410298
56	0xbd8691dc	-0.06570789
57	0x3e74f3cc	0.23921126
58	0xbd439eb1	-0.04775876
59	0x3e025970	0.1272943
60	0x3d90cbca	0.0707012
61	0xbcd4fe52	-0.026000176
62	0xbe279d74	-0.16368657
63	0x3e4373b2	0.19087103
64	0x3c747963	0.014921519
65	0x3ae60412	0.001754882
66	0xbbf12818	-0.007359516
67	0x3c054018	0.008132957
68	0xbe41d236	-0.18927845
69	0x3cb22208	0.021744743
70	0x3d275a7b	0.040857773
71	0x3d002566	0.031285666
72	0x3c3eaecf	0.011638357
73	0xbdbb1328	-0.09134513
74	0x3d0abb35	0.03386994
75	0x3ce9ec79	0.028555142
76	0xbc26131f	-0.010136395
77	0xbd50abe7	-0.05094519
78	0x3bc40fa9	0.005983312
79	0xbc5eb443	-0.013592782
80	0xbd00bdeb	-0.03143112
81	0xbd33bca4	-0.043881074
82	0x3ec0e2f2	0.37673146
83	0x3c625d1b	0.013816143
84	0xbbe67d22	-0.00703396
85	0x3e00af2d	0.12566824
86	0xbd992936	-0.074785635
87	0x3b34611f	0.002752371
88	0xbcce3db7	-0.025175912
89	0xbcb1fa68	-0.021725848
90	0xbd236977	-0.0398955
91	0xbe061319	-0.13093223
92	0x3ce2ae69	0.027671056
93	0x3ab98b41	0.0014155881
94	0xbd966097	-0.07342642
95	0xba4fe58b	-0.0007930628
96	0xbc6b2164	-0.014351223
97	0x3cdb655a	0.026781727
98	0xbda54c9e	-0.08071254
99	0xbbc00f5e	-0.005861207
100	0x3d284095	0.041077215
101	0xbda0d88f	-0.07853805
102	0x3bee2925	0.0072680884
103	0xbd19a07e	-0.037506573
104	0xbe03aeb3	-0.12859611
105	0xbe097fc5	-0.13427646
106	0xbc527f4b	-0.012847732
107	0x3c064159	0.008194291
108	0x3c9ebbd7	0.019376678
109	0x3c8072ff	0.015679834
110	0x3c945854	0.018108524
111	0x3b20ccc9	0.0024536124
112	0xba43573f	-0.00074516603
113	0xbd065fe9	-0.03280631
114	0x3db1426e	0.086552486
115	0x3ada9d38	0.0016678935
116	0xbdabc527	-0.08387213
117	0xbcd585d2	-0.026064787
118	0x3b663f4d	0.0035132945
119	0xbe82c7fd	-0.25543204
120	0x3cddb1cf	0.027062325
121	0xbc8fca15	-0.017552415
122	0x3c760012	0.015014665
123	0x3a5fc58b	0.0008536211
124	0x3be5b6b1	0.007010304
125	0x3d1eb608	0.038747817
126	0xbbd0823a	-0.0063631805
127	0xba303487	-0.00067216944
128	0xbecd65e5	-0.40116802
129	0x3cd18411	0.02557567
130	0xbc06acb2	-0.008219885
131	0xbdc0b6f7	-0.09409898
132	0x3e4c7b99	0.19969024
133	0xbde93571	-0.11387146
134	0x3cc08717	0.023501916
135	0xbbeb1ea3	-0.007175283
136	0x3dd2b7cc	0.10288963
137	0x3e85150b	0.25992617
138	0x3d298b00	0.041392326
139	0xbec66afc	-0.38753498
140	0xbe4b1a00	-0.19834137
141	0x3d1319c6	0.03591325
142	0x3e963b2c	0.2934202
143	0xbd2bff05	-0.041991252
144	0xbd28003e	-0.041015856
145	0xbc3bf940	-0.011473
146	0x3ecf16ad	0.40446988
147	0x3b82d4c0	0.003992647
148	0xbcf5dd11	-0.03001264
149	0x3e8934ee	0.26798195
150	0xbd2b2d86	-0.04179146
151	0xbdeb0ea6	-0.11477403
152	0xbdab4c0a	-0.08364113
153	0x3d81efc4	0.0634456
154	0xbe0d04f5	-0.13771422
155	0x3c715ecd	0.014732075
156	0xbe76d0ff	-0.24103163
157	0xbd8b5329	-0.06802971
158	0xbc7f34f9	-0.0155765945
159	0xbb849e21	-0.0040471707
160	0x3c90d4d3	0.017679607
161	0xbe0489ef	-0.12943242
162	0x3f49c7ac	0.788203
163	0xbea0fe8a	-0.31444198
164	0xbd63b24f	-0.05558997
165	0x3eb921a9	0.36158493
166	0x3ca5b19f	0.020226298
167	0xbaefe65e	-0.0018302908
168	0x3d9897f3	0.07450857
169	0x3cf617dd	0.030040676
170	0xbbcd7c18	-0.0062708966
171	0xbe1a1faf	-0.15051149
172	0xbe0c3013	-0.13690214
173	0xbe447344	-0.19184595
174	0x3dfefc69	0.12450487
175	0x3b072650	0.0020622201
176	0xbd4381b7	-0.047731128
177	0x3d85a1a9	0.06524975
178	0xbe7f52d2	-0.24933937
179	0xbc8ed7cf	-0.01743689
180	0x3cd14eb6	0.025550228
181	0xbe0e4cba	-0.13896456
182	0xbd7ecc17	-0.062206354
183	0x3eee1f2c	0.46508157
184	0xbe2835e2	-0.16426805
185	0xbbef52a6	-0.0073035536
186	0x3b98ec04	0.004666807
187	0xbeb6f4c9	-0.3573363
188	0xbdae0aa3	-0.084981225
189	0xbe04fd4e	-0.12987253
190	0x3d54eb98	0.051982492
191	0xbb759d10	-0.003747765
192	0x3e028c35	0.12748797
193	0x3c40129f	0.01172319
194	0x3d2bbec2	0.041929968
195	0xbe2a28e7	-0.16617166
196	0xbd0e23b1	-0.034702007
197	0x3d5e22ff	0.054232594
198	0x3e24adce	0.16081926
199	0x3dc00315	0.09375588
200	0xbea3f004	-0.32019055
201	0xbe0237dd	-0.12716623
202	0x3ce666a7	0.02812512
203	0xbd7c11d7	-0.06154045
204	0xbd431ca9	-0.047634754
205	0x3ddb3aeb	0.10704597
206	0xbe263afc	-0.16233438
207	0xbc985f82	-0.01860023
208	0x3dc00e34	0.09377709
209	0xbd9d03c2	-0.07666732
210	0x3e5cfd90	0.21581101
211	0x3e04d3fe	0.12971494
212	0xbd526e33	-0.051374625
213	0x3ddbcdc6	0.107326075
214	0xbe635765	-0.22201307
215	0x3d8a11b8	0.06741661
216	0x3de45fde	0.11151098
217	0x3d106770	0.035254896
218	0xbe1a0ae1	-0.15043212
219	0x3dbc93c8	0.092078745
220	0x3ded5e0e	0.11590205
221	0xbc545a00	-0.012960911
222	0x3db3cd72	0.0877942
223	0xbcf91e99	-0.030410098
224	0x3dcaa5e5	0.09894923
225	0x3dfdde8d	0.12395964
226	0x3e131918	0.14365041
227	0xbd4badb6	-0.04972621
228	0x3de60fb4	0.11233464
229	0x3e2216f9	0.15829076
230	0x3d5bc025	0.05365004
231	0x3d46e1f4	0.04855533
232	0xbd19a6f7	-0.037512746
233	0x3cde4033	0.027130222
234	0xbde241db	-0.11047717
235	0x3df71ffc	0.120666474
236	0x3d8f1682	0.06986715
237	0x3e0e88ac	0.13919324
238	0xbc835f4f	-0.016036658
239	0x3d32c384	0.04364349
240	0x3d10e38e	0.035373263
241	0x3e0eece8	0.1395756
242	0xbde2ef07	-0.11080747
243	0x3d485722	0.04891122
244	0xbdf1fdb9	-0.11815972
245	0x3e09e4df	0.13466214
246	0x3d171269	0.03688279
247	0x3e08bed6	0.13354048
248	0x3dd5171b	0.10404798
249	0xbc1611be	-0.0091595035
250	0x3e215d41	0.1575823
251	0xbd1c88d6	-0.038216434
252	0x3c78a0e8	0.015175082
253	0x3e0dbe1d	0.13842054
254	0xbd1f210e	-0.038849883
255	0xbcc51063	-0.024055665

bn_outlayer_in.weight f4 [64]
0	0x3f78d2c5	0.9719661
1	0x3f75aa35	0.9596284
2	0x3f83f78e	1.0309923
3	0x3f703381	0.9382859
4	0x3f680083	0.9062578
5	0x3f7dcd3c	0.9914129
6	0x3f6b0286	0.91800725
7	0x3f6e44d6	0.93073785
8	0x3f6b8390	0.91997623
9	0x3f73db78	0.9525676
10	0x3f4d18d9	0.8011604
11	0x3f8371d9	1.0269119
12	0x3f7e06ff	0.99229425
13	0x3f6d69e5	0.9273971
14	0x3f87c726	1.060765
15	0x3f678bde	0.90447795
16	0x3f77209a	0.9653412
17	0x3f5eeae4	0.87077165
18	0x3f624319	0.8838363
19	0x3f69076b	0.91026944
20	0x3f7de53b	0.991779
21	0x3f624fb6	0.8840288
22	0x3f876623	1.0578045
23	0x3f763b53	0.9618427
24	0x3f751026	0.95727766
25	0x3f763e68	0.96188974
26	0x3f6e9d3b	0.93208665
27	0x3f5dd84d	0.86658174
28	0x3f865100	1.0493469
29	0x3f810abc	1.0081401
30	0x3f72ac80	0.94794464
31	0x3f7298f9	0.9476467
32	0x3f6a6b48	0.9156995
33	0x3f7ba6b0	0.9830122
34	0x3f5fa0da	0.87354815
35	0x3f84482b	1.0334524
36	0x3f8100bb	1.0078348
37	0x3f74a533	0.95564574
38	0x3f6ac1ee	0.91702163
39	0x3f7b66e8	0.982039
40	0x3f7ee849	0.9957319
41	0x3f76141e	0.96124446
42	0x3f6fbfbb	0.9365193
43	0x3f800336	1.000098
44	0x3f86a1c7	1.051812
45	0x3f7b6dd2	0.9821445
46	0x3f60e5ff	0.87850946
47	0x3f86dfd4	1.0537057
48	0x3f852a2e	1.0403497
49	0x3f771c9e	0.9652804
50	0x3f615c00	0.88031006
51	0x3f77a153	0.96730536
52	0x3f74901a	0.9553238
53	0x3f7d188e	0.9886559
54	0x3f80bd95	1.0057856
55	0x3f76c5dd	0.96395665
56	0x3f7e66af	0.9937543
57	0x3f6c35fe	0.92269886
58	0x3f68b0e5	0.9089492
59	0x3f7e54e9	0.9934831
60	0x3f76831e	0.9629382
61	0x3f7522a2	0.9575597
62	0x3f8077e8	1.0036592
63	0x3f7ab1d2	0.9792758

bn_outlayer_in.bias f4 [64]
0	0xbd368bec	-0.044567034
1	0xbe806651	-0.2507806
2	0xbd0358f0	-0.03206724
3	0xbe4724b0	-0.19447589
4	0xbf3e0a02	-0.7423402
5	0xbdfd867a	-0.12379165
6	0xbe02d00c	-0.12774676
7	0xbea052d3	-0.3131319
8	0xbdf231fa	-0.118259385
9	0x3c9d17bc	0.019176356
10	0xbf65cd23	-0.8976614
11	0xbdebfd8b	-0.11522969
12	0x3d1d45d6	0.03839668
13	0xbe11e193	-0.14246206
14	0x3dc540a3	0.09631469
15	0xbe2382b9	-0.15967835
16	0xbd002332	-0.031283565
17	0xbf03639a	-0.51323855
18	0xbe6fa257	-0.23401771
19	0xbdbc59b8	-0.091968
20	0xbc275b16	-0.010214588
21	0xbdd299d1	-0.102832444
22	0xbe4cc50d	-0.19997044
23	0xbdaec651	-0.085339196
24	0xbdd0635c	-0.10175201
25	0xbd6d8a2f	-0.05799311
26	0xbd3c558b	-0.045980018
27	0xbdc33082	-0.095307365
28	0xbd5ead40	-0.054364443
29	0xbdd713aa	-0.105017975
30	0xbdbc50d2	-0.09195103
31	0xbe2d7259	-0.16938151
32	0xbe1fb98e	-0.15598127
33	0xbda501c5	-0.08056978
34	0x3d53bf22	0.05169595
35	0x3d3f4d60	0.04670465
36	0xbe3e90ba	-0.18609896
37	0xbe4a8441	-0.19777013
38	0xbe54189a	-0.2071251
39	0xbdfccdfd	-0.12343977
40	0xbb6a2124	-0.003572532
41	0xbd2566cc	-0.040381238
42	0xbe2020d7	-0.15637527
43	0xbc4cfc82	-0.012511374
44	0xbdb9c8ba	-0.09071489
45	0xbe2e1cf7	-0.17003237
46	0xbf0dd5cd	-0.5540436
47	0xbdea5647	-0.11442237
48	0xbdd6be71	-0.104855426
49	0xbdaa4882	-0.08314611
50	0xbe7baea8	-0.24578345
51	0xbdcf70b9	-0.10128922
52	0x3b6ef067	0.003645921
53	0x3c575658	0.013143145
54	0xbde47582	-0.11155225
55	0xbe2e18e6	-0.17001686
56	0xbe16b9be	-0.14719293
57	0xbe3ebc1c	-0.18626446
58	0xbdbe9225	-0.093052186
59	0xbd00612d	-0.031342674
60	0xbd9ea820	-0.07746911
61	0xbe291ecc	-0.16515654
62	0xbc205cf8	-0.0097877905
63	0xbdfbb3e8	-0.12290174

bn_outlayer_in.running_mean f4 [64]
0	0x3c0696ca	0.008214662
1	0xbb8167e2	-0.0039491514
2	0xbaee6cb9	-0.0018190361
3	0x3ab1edf6	0.0013574946
4	0x380b0cc3	3.3152068e-05
5	0x3c09e81c	0.008417156
6	0x3c5ac728	0.013353147
7	0x3c73db4f	0.01488383
8	0xbc90d4cb	-0.017679593
9	0x3b97c438	0.0046315454
10	0x3aa159ac	0.001231005
11	0x3c5b9adc	0.013403621
12	0xbcb644d8	-0.022249624
13	0x3b1893a0	0.002328135
14	0xbd2abb44	-0.041682497
15	0xbc311d78	-0.010810249
16	0x3b22c65c	0.002483747
17	0x39735075	0.00023204258
18	0x3d9be7a4	0.07612541
19	0x3b29783c	0.0025859019
20	0xbd387195	-0.045030195
21	0x3d54b906	0.051934265
22	0xbd29a4c8	-0.041416913
23	0xbbce951d	-0.006304397
24	0x3be66ec9	0.0070322496
25	0xbc848a0c	-0.016179107
26	0x3b4f9eaf	0.0031680276
27	0x3c2b4501	0.0104534635
28	0x3cfbf8c0	0.030758262
29	0xbbadd7ce	-0.005305267
30	0xbc2b185c	-0.010442819
31	0xbbe2b756	-0.006918828
32	0x3c274fcd	0.010211897
33	0x3d089703	0.03334714
34	0x3c28c884	0.010301713
35	0xbcfad361	-0.030618371
36	0x3d10707c	0.035263523
37	0x3b65ce1d	0.003506548
38	0x3bca6320	0.0061763674
39	0xbbe0e69f	-0.0068634297
40	0xbd06ab35	-0.03287812
41	0x38e35b93	0.000108412605
42	0xbbede421	-0.007259861
43	0x3cf8ce67	0.030371858
44	0xbb46d22f	-0.0030337682
45	0xbd560fce	-0.052261166
46	0xbafe0dc0	-0.001938276
47	0xbb4ae96a	-0.003096188
48	0xbbcc9c52	-0.006244221
49	0x3ba2bea8	0.0049665757
50	0xbd1042db	-0.03522001
51	0xbbf0199a	-0.0073272707
52	0x3bb478b6	0.005507554
53	0x3bc01cb6	0.0058627976
54	0xbbc5c740	-0.0060357153
55	0x3cfedd50	0.03111139
56	0x3cd027ad	0.025409544
57	0xbbf52bd3	-0.007482031
58	0x3bc59368	0.006029535
59	0x3a2c2557	0.00065668434
60	0x3b497523	0.0030739985
61	0x3cf91158	0.030403778
62	0xbce42c6a	-0.02785321
63	0xbb91fd47	-0.004455242

bn_outlayer_in.running_var f4 [64]
0	0x3c7485b1	0.014924453
1	0x39a885dc	0.0003214319
2	0x3b379d99	0.002801752
3	0x3c6dbcfc	0.014510389
4	0x372910dc	1.007711e-05
5	0x3ba2a9c6	0.004964086
6	0x3b0111a3	0.001969435
7	0x3b9193a1	0.0044426476
8	0x3c806b4e	0.015676167
9	0x3c06580f	0.008199706
10	0x396cdac7	0.00022588215
11	0x3d249e85	0.04019024
12	0x3b2dd4fb	0.0026524651
13	0x3bc535f5	0.006018395
14	0x3c2e6b97	0.010645769
15	0x3bbbaf70	0.005727701
16	0x3c17afc7	0.009258217
17	0x3adabb41	0.0016687886
18	0x3c4223e6	0.011849379
19	0x3b954c2f	0.004556201
20	0x3c29afcf	0.010356857
21	0x3c63c031	0.0139008025
22	0x3b31c578	0.0027125757
23	0x3b89286c	0.004185727
24	0x3b38fec4	0.0028228024
25	0x3bb9556c	0.005655935
26	0x3c0723d8	0.008248292
27	0x3a8ec74a	0.0010893133
28	0x3c298d91	0.0103486935
29	0x3b0d9630	0.0021604411
30	0x3c0e2a4a	0.008677075
31	0x3ac5841a	0.0015069277
32	0x3bf140af	0.007362447
33	0x3bf0eeb4	0.0073526744
34	0x3c8795b0	0.016550869
35	0x3bf8fade	0.007598265
36	0x3bdeb1c6	0.0067960946
37	0x3cab6652	0.020922814
38	0x3aeab50f	0.0017906743
39	0x3b36c8ff	0.00278908
40	0x3ba6a742	0.0050858567
41	0x396f4817	0.00022819672
42	0x3ae4ef43	0.0017466325
43	0x3bca039c	0.006164981
44	0x3bf9d1a6	0.007623869
45	0x3cd35588	0.02579762
46	0x3a222312	0.00061850355
47	0x3b29fcf4	0.0025938125
48	0x3b437f95	0.0029830683
49	0x3bbdf5e3	0.0057971342
50	0x3c084f6c	0.008319717
51	0x3b851ad3	0.0040620356
52	0x3c340311	0.010987059
53	0x3c35fbf9	0.011107438
54	0x3b3e252c	0.0029013855
55	0x3c63df8e	0.01390828
56	0x3be6a168	0.007038284
57	0x3ae7f368	0.0017696442
58	0x3ada56d5	0.0016657958
59	0x3cb99369	0.022653298
60	0x3bea90eb	0.007158389
61	0x3c39798e	0.011320485
62	0x3baf5c0a	0.005351548
63	0x3a6cb5c5	0.00090297713

gnn_layers.0.gnn.att_i f4 [1, 1, 64]
0	0xbe747e7c	-0.23876375
1	0xbee74364	-0.45168602
2	0x3f0e80cc	0.5566528
3	0x3e4176e2	0.18893006
4	0xbe53ed29	-0.20695938
5	0x3e1767d0	0.14785695
6	0xbd9de80e	-0.077102765
7	0x3eab5fb7	0.33471462
8	0x3e7e12a1	0.24811794
9	0x3eecef38	0.4627626
10	0x3e73ef95	0.23821862
11	0x3ea8b490	0.32950258
12	0x3e969d4e	0.2941689
13	0x3ebcb771	0.36858705
14	0x3d21c4d2	0.039494343
15	0x3eef104f	0.4669213
16	0xbe6ce949	-0.23135866
17	0x3f0a7835	0.5408967
18	0xbedffc01	-0.4374695
19	0x3f658f9b	0.8967225
20	0xbdb240ea	-0.087037876
21	0x3e46e462	0.19423059
22	0xbe8a8cb1	-0.27060464
23	0x3dacd3f8	0.08438867
24	0xbe978acb	-0.29598078
25	0xbf04bb0e	-0.5184792
26	0xbe4c2abf	-0.19938181
27	0xbeddfa5f	-0.4335508
28	0x3e39790d	0.18112583
29	0xbeb4225c	-0.35182464
30	0x3ec20bf7	0.37899753
31	0x3f58cb46	0.8468517
32	0x3e362fb4	0.17791635
33	0xbea848c8	-0.32868028
34	0x3e84457e	0.25834268
35	0x3f20178d	0.62535936
36	0xbcc0cee2	-0.02353615
37	0xbe51fa0f	-0.20505546
38	0xbda7cc24	-0.081932336
39	0xbdd46c73	-0.103722475
40	0xbebac4fa	-0.36478406
41	0x3e55e3a7	0.20887624
42	0xbde1843e	-0.11011551
43	0x3e7e7b37	0.2485169
44	0x3d13a415	0.036045153
45	0x3dd2d311	0.10294164
46	0x3efd7f6a	0.49511272
47	0xbe60d565	-0.21956404
48	0xbe302060	-0.1719985
49	0x3db55f8c	0.08856115
50	0x3e2038a5	0.15646608
51	0x3ec5b778	0.38616538
52	0x3e76c592	0.24098805
53	0xbf6ffd6d	-0.9374607
54	0xbe4a14f2	-0.19734553
55	0x3ea3bda9	0.31980637
56	0x3e885edc	0.26634872
57	0x3e7b7714	0.24557143
58	0xbed0cd4c	-0.4078163
59	0x3e9082b9	0.28224733
60	0x3f3dab73	0.74089736
61	0x3e5c3859	0.2150587
62	0xbf127964	-0.5721648
63	0xbef5d035	-0.48010412

gnn_layers.0.gnn.att_j f4 [1, 1, 64]
0	0x3e5f2216	0.21790347
1	0x3db3d726	0.08781271
2	0x3d9a5ca0	0.07537198
3	0x3e13d63c	0.14437193
4	0x3e1662bc	0.14686102
5	0xbd440301	-0.047854427
6	0x3e1657bf	0.1468191
7	0x3e669f78	0.2252177
8	0x3d991072	0.0747384
9	0xbe0d952a	-0.13826433
10	0x3e6e1cc6	0.23253164
11	0xbe036712	-0.12832287
12	0x3e9159bc	0.28388774
13	0xbe06d6ed	-0.13167925
14	0x3bf8ac34	0.0075888876
15	0xbdc554e7	-0.096353345
16	0xbe2880c2	-0.16455367
17	0xbd582646	-0.052770875
18	0x3e214de5	0.1575237
19	0x3db38645	0.08765844
20	0x3c35dcb0	0.011099979
21	0xbe6f99e8	-0.23398554
22	0xbe197c36	-0.14988789
23	0x3dcf256d	0.1011456
24	0xbdf6d6ba	-0.120526746
25	0xbe6638bf	-0.22482584
26	0xbdc0fa55	-0.09422747
27	0xbdeabb06	-0.11461453
28	0xbe073f39	-0.13207711
29	0x3deef42c	0.11667666
30	0x3ce71034	0.028205968
31	0x3e6d8ce0	0.23198271
32	0xbe604dc3	-0.21904664
33	0xbdf74a3c	-0.12074706
34	0x3d28b90c	0.0411921
35	0x3e514ee1	0.20440246
36	0xbdfac772	-0.122450724
37	0x3e146535	0.14491732
38	0xbe1d26ce	-0.15346834
39	0xbe13df60	-0.1444068
40	0x3e373aad	0.17893477
41	0xbbb70f65	-0.005586552
42	0xbe62d5c3	-0.22151856
43	0x3d30a0a6	0.043121956
44	0x3e539afd	0.20664592
45	0x3da52cdd	0.080651976
46	0xbc706c1b	-0.014674212
47	0xbd634803	-0.055488598
48	0xbe2101c7	-0.15723334
49	0x3e16b9a2	0.14719251
50	0xbafebed6	-0.0019435536
51	0xbe20732e	-0.15668938
52	0x3d30e664	0.043188468
53	0x3d6c6819	0.057716463
54	0xbb783d05	-0.0037878167
55	0x3ab4ff73	0.001380904
56	0xbe680701	-0.22658922
57	0xbd121ae8	-0.03567019
58	0xbdfd6959	-0.12373609
59	0x3c8ccca3	0.017187422
60	0xbdb15689	-0.086590834
61	0x3ddb0087	0.1069346
62	0xbe09b73a	-0.13448802
63	0xbdf6ceff	-0.120512

gnn_layers.0.gnn.att_em_i f4 [1, 1, 64]
0	0xbee2a567	-0.44266817
1	0xbda7852c	-0.081796974
2	0xbea262e9	-0.31716087
3	0x3e8bd265	0.27308956
4	0x3ef514dc	0.47867477
5	0xbf3defc4	-0.7419398
6	0xbcff5459	-0.03116815
7	0xbe9bb560	-0.30411816
8	0x3f98003a	1.1875069
9	0xbe81b4f8	-0.2533338
10	0xbdb83122	-0.08993746
11	0x3efa58ed	0.4889597
12	0x3f12408e	0.5712975
13	0xbded8878	-0.11598295
14	0x3f680f6a	0.9064852
15	0x3e87411e	0.26416868
16	0xbf7ba73a	-0.9830204
17	0x3ede3c9f	0.43405625
18	0xbf422617	-0.7583937
19	0xbf2a0fe7	-0.66430515
20	0x3f8444b0	1.0333462
21	0x3ed642eb	0.4184793
22	0x3f34c025	0.7060569
23	0xbee1dc60	-0.44113445
24	0xbf18188f	-0.59412473
25	0x3d929486	0.07157235
26	0xbe333dbc	-0.17504019
27	0xbe98d0cc	-0.298468
28	0xbe26b519	-0.16280021
29	0x3e2c1ff4	0.16809064
30	0x3ec2699e	0.37971205
31	0x3eaf2452	0.34207398
32	0xbf0ba8c7	-0.5455441
33	0xbf18524f	-0.5950059
34	0xbefe892b	-0.49714026
35	0x3eed7f11	0.46386006
36	0xbeb344af	-0.3501334
37	0xbe90f513	-0.28311977
38	0x3f1aab8a	0.60418
39	0x3e2a6107	0.16638575
40	0x3f2a9b28	0.66643
41	0xbf07873c	-0.52940726
42	0x3f13e14b	0.57765645
43	0xbf1fc610	-0.62411594
44	0xbf1e6122	-0.6186696
45	0xbda44555	-0.080210365
46	0x3f4551ee	0.7707814
47	0x3dc3bb13	0.09557166
48	0x3d25c7b0	0.04047364
49	0xbf39a735	-0.7252076
50	0x3edee962	0.43537432
51	0xbdfffe7c	-0.12499711
52	0xbe13ffca	-0.14453045
53	0x3e8c09f8	0.27351356
54	0x3daf2e27	0.08553725
55	0xbe758230	-0.23975444
56	0xbf0be107	-0.5464024
57	0x3f3af5fa	0.7303158
58	0x3cf8f25b	0.030389002
59	0x3f2c1182	0.67214215
60	0x3e3ed981	0.18637659
61	0xbf85f997	-1.0466794
62	0x3f592c01	0.8483277
63	0x3eaa641c	0.33279502

gnn_layers.0.gnn.att_em_j f4 [1, 1, 64]
0	0x3f44cb1c	0.7687242
1	0x3f188311	0.5957499
2	0x3ed3def0	0.41381025
3	0x3f143599	0.57894284
4	0xbf12c695	-0.5733426
5	0x3f044655	0.5166982
6	0xbec15e21	-0.37767127
7	0xbe18f16c	-0.14935845
8	0xbf0e610b	-0.55616826
9	0xbf37f63b	-0.7186009
10	0xbe9cbf45	-0.30614677
11	0x3f49d94f	0.7884721
12	0x3f08f1e4	0.53494096
13	0xbe9a902b	-0.30188116
14	0xbf237140	-0.6384468
15	0x3ee9c5cd	0.45658723
16	0x3f1ebfe7	0.6201157
17	0xbec9793a	-0.393503
18	0xbf2e2322	-0.6802236
19	0x3ed06a63	0.40706167
20	0xbeaac370	-0.33352232
21	0xbf1399e9	-0.57656723
22	0x3ed058b2	0.4069267
23	0x3f0b28cd	0.5435913
24	0x3e1d352e	0.15352318
25	0xbe95218e	-0.29127163
26	0x3ed3e803	0.41387948
27	0xbe603745	-0.21896084
28	0x3f4d7c4b	0.8026778
29	0x3ecf124f	0.40443656
30	0xbdea9916	-0.1145498
31	0x3e8e3a3e	0.2777881
32	0xbe4db07f	-0.20086859
33	0x3eab41bf	0.33448598
34	0xbf52c3b9	-0.823299
35	0x3f3ee18a	0.74562895
36	0x3f091f5c	0.53563476
37	0xbf2bd44e	-0.67120826
38	0x3e76fb60	0.2411933
39	0x3eeef5af	0.46671817
40	0xbe724ea5	-0.23662813
41	0x3db58f51	0.08865226
42	0xbddaca12	-0.10683073
43	0x3edd5225	0.43226734
44	0x3f196083	0.5991289
45	0x3f695819	0.9115005
46	0xbed4d401	-0.41567996
47	0x3ee07812	0.43841606
48	0x3ef0ddf8	0.4704435
49	0xbeac7fff	-0.33691403
50	0x3f2a1be1	0.6644879
51	0x3ede46ed	0.43413487
52	0xbecf9526	-0.4054348
53	0x3eff2d78	0.49839377
54	0x3eef7a23	0.4677287
55	0xbf727e8a	-0.94724333
56	0x3f016b76	0.505546
57	0xbe5145cb	-0.2043678
58	0xbeb36561	-0.35038283
59	0x3f5301d1	0.82424647
60	0x3ef1598c	0.4713863
61	0x3f24fe71	0.64450747
62	0xbd812a05	-0.06306843
63	0x3edee625	0.4353496

gnn_layers.0.gnn.bias f4 [64]
0	0x39798d7d	0.00023799199
1	0xbb7236a0	-0.0036958829
2	0x3bcfbe98	0.006339859
3	0xbb0e907f	-0.0021753607
4	0x3c28256b	0.010262827
5	0xbce63c3f	-0.0281049
6	0xbb9ea471	-0.0048413803
7	0xbaaed2aa	-0.0013337929
8	0xba463c98	-0.000756213
9	0xbb44f1c7	-0.0030051337
10	0xbc253051	-0.01008232
11	0xbb9da717	-0.0048111784
12	0xba66d291	-0.00088051806
13	0x3a509230	0.0007956354
14	0x3c1dc43d	0.009629306
15	0x3bd4eb5c	0.0064977836
16	0xbc484e51	-0.012225703
17	0x3ac24ba5	0.0014823569
18	0x3a1dc78f	0.0006018811
19	0xbcaebd35	-0.021330455
20	0x3ac32dcb	0.0014890967
21	0xba696cc5	-0.00089044526
22	0x3cd9a3fc	0.026567452
23	0xbcb7825d	-0.02240103
24	0xbc42fd36	-0.0119011905
25	0x3b05cc03	0.002041579
26	0x3b67d2be	0.0035373415
27	0x3b4370bd	0.0029821836
28	0x3c0c8b72	0.008578168
29	0xbc557d71	-0.013030396
30	0xbadae8cc	-0.0016701459
31	0x3c758108	0.014984377
32	0xbbdeef30	-0.0068034157
33	0xbb9cf4d1	-0.0047899266
34	0x3b21f921	0.0024715143
35	0x3b96b281	0.004598916
36	0x389e2a3c	7.541894e-05
37	0xbaa8268b	-0.001282887
38	0x3c28e010	0.010307327
39	0x3c977ae6	0.01849122
40	0x3b3a4582	0.0028422778
41	0xbb8feb7d	-0.004392086
42	0xbac6c11c	-0.0015163752
43	0x3bc832c2	0.0061095664
44	0xbd6fa602	-0.058507927
45	0xbd7e62f7	-0.0621061
46	0x3c24262a	0.010018865
47	0x3c525764	0.012838218
48	0x3c61a53d	0.013772306
49	0x3bafa7c7	0.005360577
50	0xb8805593	-6.119455e-05
51	0xbc819c89	-0.015821712
52	0x3b8204e9	0.0039678705
53	0xbab57796	-0.0013844843
54	0x3ca1e880	0.019764185
55	0x39e26c7c	0.00043186906
56	0xbb1610d4	-0.0022898214
57	0x3aa94c51	0.0012916421
58	0x3a8c1a04	0.0010688906
59	0x3b33702c	0.0027380092
60	0xbb33d851	-0.0027442167
61	0xbb87a982	-0.00414008
62	0xbafccf43	-0.0019287843
63	0xbb256ea9	-0.002524296

gnn_layers.0.gnn.lin.weight f4 [64, 15]
0	0xbe261d2c	-0.16222066
1	0xbeab7985	-0.3349115
2	0xbdb752a1	-0.08951307
3	0x3e1bef28	0.1522795
4	0xbe11a761	-0.14224006
5	0xbe85fb6b	-0.2616838
6	0xbdbfa622	-0.09357859
7	0xbe967522	-0.2938624
8	0x3e06a31c	0.13148159
9	0xbcd279cc	-0.025692843
10	0x3e415428	0.1887976
11	0x3d05f37a	0.0327029
12	0xbb9d6936	-0.004803802
13	0xbd61537a	-0.05501125
14	0x3e1d0d05	0.15336998
15	0xbdd9c79c	-0.106337756
16	0xbe3ab21f	-0.1823201
17	0x3e465867	0.1936966
18	0x3dfb3dcb	0.122676454
19	0x3e8cbbb4	0.27486956
20	0x3dd972bd	0.10617588
21	0x3de0c9f8	0.109760225
22	0x3e127efd	0.14306255
23	0x3e3e1fab	0.18566768
24	0x3e32b8b2	0.17453268
25	0xbd980f53	-0.07424798
26	0x3e371f82	0.17883113
27	0xbde66412	-0.11249556
28	0x3d7cf5e6	0.061757945
29	0x3f047378	0.5173869
30	0xbe012615	-0.12612183
31	0x3e5b1325	0.21394022
32	0x3e694b5e	0.22782657
33	0x3d264c69	0.040600214
34	0xbe650997	-0.2236694
35	0xbb218779	-0.0024647398
36	0x3e363150	0.17792249
37	0x3d42ffe0	0.047607303
38	0x3e45283f	0.19253634
39	0xbd804b55	-0.062643684
40	0xbe330bac	-0.17484921
41	0x3e2f3367	0.17109452
42	0x3e2ca8bc	0.16861242
43	0x3e7df358	0.2479986
44	0xbeeae136	-0.45874947
45	0xbd27d266	-0.040972136
46	0x3e51986a	0.20468298
47	0x3dca4a19	0.09877414
48	0x3e6a7519	0.22896232
49	0xbe190753	-0.149442
50	0x3c89a00c	0.01679995
51	0x3d5af763	0.053458583
52	0xbe0f31e5	-0.13983877
53	0x3e2c8c11	0.16850306
54	0x3e14ecdc	0.1454348
55	0x3e4e8e31	0.20171429
56	0x3bea87b6	0.0071572913
57	0xbe8b9a3f	-0.27266118
58	0xbe82a4e2	-0.2551642
59	0xbe92b24a	-0.2865165
60	0x3d2e3f7f	0.042541023
61	0x3dada37a	0.08478446
62	0x3c75f088	0.01501096
63	0x3de615bd	0.11234615
64	0x3e1b32e9	0.1515614
65	0x3e0d440a	0.13795486
66	0x3da21947	0.079149775
67	0xbb379fc0	-0.0028018802
68	0x3cca851c	0.024721675
69	0x3cd6bc7b	0.026212921
70	0x3e3a628c	0.18201655
71	0x3e217261	0.15766288
72	0x3e72cc3b	0.2371072
73	0x3e732695	0.23745187
74	0x3e749320	0.23884249
75	0xbd49fed5	-0.049315292
76	0xbd84418e	-0.06457816
77	0x3c396789	0.011316189
78	0xbe6ebe42	-0.23314765
79	0xbda21da8	-0.07915813
80	0x3daab201	0.08334733
81	0x3d0d264f	0.034460362
82	0xbe662a85	-0.22477157
83	0x3e15e24c	0.14637107
84	0xbe2f9e2e	-0.17150185
85	0x3defbe6e	0.117062435
86	0xbe47dd68	-0.19518054
87	0x3e451766	0.19247207
88	0x3e7f75df	0.24947308
89	0x3e53bb17	0.20676838
90	0x3e443471	0.1916063
91	0x3e52356a	0.20528188
92	0xbe5c5ff5	-0.2152098
93	0x3d579806	0.052635215
94	0x3e499dbd	0.19689079
95	0x3b95a0e8	0.0045663007
96	0x3e30703b	0.17230313
97	0x3e7ffce7	0.24998818
98	0xbe365530	-0.17805934
99	0x3e078681	0.13234903
100	0xbe474bca	-0.19462505
101	0x3e4c40e3	0.19946627
102	0xbe03821a	-0.12842599
103	0xbdaee703	-0.08540156
104	0x3d7c13df	0.061542388
105	0xbe58a005	-0.21154793
106	0xbcba6a8a	-0.02275588
107	0xbdd0e0bf	-0.10199117
108	0x3d9a1e05	0.07525257
109	0xbcf80e3c	-0.030280225
110	0xbe75a9c5	-0.23990543
111	0xbda2910c	-0.07937822
112	0x3d1f0d27	0.038830902
113	0x3e15f431	0.14643933
114	0xbe5a4a37	-0.21317373
115	0xbe4dd218	-0.20099676
116	0x3d9677f4	0.07347098
117	0xbe4b41b4	-0.19849283
118	0xbe2f0b18	-0.17094076
119	0xbf00e681	-0.5035172
120	0xbc210a7d	-0.009829161
121	0xbe2d6293	-0.16932134
122	0x3dc1ccbc	0.09462878
123	0x3e70bc17	0.2350925
124	0x3e1b625f	0.15174244
125	0xbe36429e	-0.1779885
126	0x3e83662c	0.25663888
127	0xbe3aa32f	-0.18226312
128	0xbda15492	-0.07877459
129	0x3e2407db	0.16018622
130	0x3e1bd472	0.1521776
131	0x3e663438	0.22480857
132	0x3d28bfb1	0.041198436
133	0xbdf80482	-0.12110235
134	0xbee9d0fa	-0.4566725
135	0x3db92a66	0.0904129
136	0xbe1fd510	-0.1560862
137	0xbddd23dd	-0.10797856
138	0x3e6459b1	0.2229984
139	0xbd6eefe2	-0.05833424
140	0x3dfba332	0.122869864
141	0xbe27d546	-0.16389951
142	0x3d80bc45	0.062859096
143	0x3e87289f	0.2639818
144	0x3cab7cd2	0.020933542
145	0x3c934386	0.017976534
146	0xbe247e44	-0.16063792
147	0xbe126db3	-0.1429966
148	0x3e14935a	0.14509335
149	0xbed8d8ad	-0.4235281
150	0x3d540889	0.051765952
151	0xbe50faa9	-0.2040812
152	0x3d041867	0.032249834
153	0xbe89e58a	-0.26932937
154	0x3daf7968	0.08568078
155	0x3c774d60	0.015094131
156	0xbe34e58e	-0.17665693
157	0xbd8a6e5e	-0.06759332
158	0xbd9434fe	-0.0723667
159	0xbe03cb27	-0.12870465
160	0xbd744b6b	-0.059642237
161	0x3af8a81f	0.0018971002
162	0xbe668529	-0.22511734
163	0xbcdfe122	-0.027329031
164	0xbeec7349	-0.46181706
165	0x3e8103d4	0.25198233
166	0xbe02058b	-0.12697427
167	0x3e0ef12e	0.1395919
168	0xbe45c6cd	-0.19314118
169	0xbe5aa80b	-0.21353166
170	0xbd8c150f	-0.06839954
171	0xbe21f514	-0.15816146
172	0xbdc1ef01	-0.094694145
173	0xbe25e305	-0.16199882
174	0xbdef1aed	-0.116750576
175	0xbe917a54	-0.2841364
176	0x3e79639f	0.24354409
177	0x3e329410	0.17439294
178	0xbd8c3203	-0.068454765
179	0xbcb013ea	-0.02149387
180	0xbd1074ac	-0.035267517
181	0xbe5208bf	-0.20511149
182	0x3dc12726	0.09431295
183	0xbdc213e9	-0.09476454
184	0x3e424ddf	0.18975018
185	0xbd4f435f	-0.05060136
186	0xbe5ec6ce	-0.21755525
187	0x3e7c6f2e	0.24651787
188	0x3da1fb5c	0.07909271
189	0x3d69f5b4	0.057119086
190	0xbc45a9c8	-0.012064405
191	0xbe7b1827	-0.24520932
192	0x3d236169	0.03988782
193	0xbdaa25e5	-0.08308009
194	0xbebb4c38	-0.36581588
195	0x3e473aa7	0.19455968
196	0xbe221aca	-0.15830532
197	0xbdb7317d	-0.08944986
198	0xbca4d718	-0.020122096
199	0xbe3ffd48	-0.18748963
200	0xbe19eeda	-0.15032521
201	0x3cbb0c53	0.022833025
202	0xbc662418	-0.014046691
203	0x3e579815	0.21054108
204	0x3e0f062b	0.13967197
205	0x3e4e8dcb	0.20171277
206	0x3dbd3570	0.09238708
207	0x3d564514	0.05231197
208	0xbdddc2ce	-0.10828172
209	0xbee7179d	-0.45135203
210	0x3e37fff6	0.17968735
211	0xbc87b608	-0.016566291
212	0x3e0c17cc	0.13680953
213	0xbd64c3dd	-0.055850852
214	0xbdc6b2d5	-0.09702078
215	0x3db6b84e	0.08921872
216	0xbda57e8a	-0.08080776
217	0x3e09cf16	0.13457903
218	0x3c7749b6	0.015093258
219	0x3d03386d	0.032036234
220	0xbd648043	-0.055786382
221	0x3dcc0dc4	0.09963563
222	0xbe1d3e7c	-0.15355867
223	0xbe4ef1f1	-0.20209481
224	0xbf060d78	-0.523643
225	0xbe32c1d8	-0.17456758
226	0x3e1706e4	0.14748722
227	0x3c99fb1f	0.018796502
228	0x3cb9efa5	0.02269728
229	0xbd7ce8f8	-0.061745614
230	0x3d349b64	0.044093505
231	0x3d9f1ee5	0.077695645
232	0xbe0e53aa	-0.13899103
233	0x3ddc4b98	0.10756606
234	0x3da6011a	0.08105679
235	0xbd354faa	-0.044265427
236	0x3e03720c	0.12836474
237	0x3e30d966	0.17270431
238	0x3da8a1c1	0.08233977
239	0xbeef883e	-0.46783632
240	0xbe08fadc	-0.13376945
241	0xbe54da0c	-0.20786303
242	0xbd728676	-0.059210263
243	0x3dfabaa6	0.122426316
244	0x3e7155db	0.23567908
245	0xbe9684e9	-0.29398277
246	0xbe7ddf16	-0.24792132
247	0x3e528f0f	0.20562385
248	0xbe054f45	-0.1301852
249	0xbc966d64	-0.018362708
250	0x3de8feca	0.11376722
251	0x3e6dd204	0.23224646
252	0x3e0a4866	0.1350418
253	0x3e1e0264	0.154306
254	0x3e7c9dc5	0.2466956
255	0xbc24cf14	-0.010059137

gnn_layers.0.bn.weight f4 [64]
0	0x3f49bc6f	0.7880315
1	0x3f0c79f8	0.5487361
2	0x3ef6f0c5	0.48230568
3	0x3f627b80	0.88469696
4	0x3e9d4077	0.30713245
5	0x3f455231	0.7707854
6	0x3e69a4b2	0.22816733
7	0x3f59448e	0.8487023
8	0x3f191673	0.5979988
9	0x3f54d97f	0.8314437
10	0x3eb18dc9	0.34678486
11	0x3f5180a6	0.81836927
12	0x3f2c5371	0.6731482
13	0x3f5e4734	0.868274
14	0x3f2b0bae	0.66814697
15	0x3f202ed8	0.6257148
16	0x3ebe01c5	0.37110725
17	0x3ee8ea3c	0.45491207
18	0x3f3e4400	0.7432251
19	0x3e8e05af	0.2773871
20	0x3f40a800	0.7525635
21	0x3f49ccde	0.7882823
22	0x3eb15b62	0.34640032
23	0x3ec896ff	0.391777
24	0x3f3b3316	0.73124826
25	0x3ec9a43c	0.39383113
26	0x3f3530c9	0.70777565
27	0x3e78ff90	0.2431624
28	0x3f376d8e	0.7165154
29	0x3f114639	0.56747776
30	0x3f61eeaa	0.882548
31	0x3f1908fa	0.5977932
32	0x3f6e271a	0.93028414
33	0x3f553cf5	0.8329614
34	0x3f20f774	0.62877584
35	0x3f3065fe	0.6890563
36	0x3f37b1ec	0.7175586
37	0x3f160c1c	0.5861223
38	0x3edb2a66	0.42805785
39	0x3f008352	0.5020038
40	0x3f44c3a6	0.76861036
41	0x3f066f37	0.5251345
42	0x3f277521	0.654131
43	0x3f6f11d1	0.9338656
44	0x3eeea79e	0.46612257
45	0x3f155377	0.5833048
46	0x3eca8254	0.39552557
47	0x3f04415e	0.5166224
48	0x3f05fd91	0.52340037
49	0x3f3e58dd	0.74354345
50	0x3f2725e2	0.6529218
51	0x3ee59280	0.44838333
52	0x3f1e2d78	0.6178813
53	0x3f4a71b5	0.79079753
54	0x3f017c59	0.50580364
55	0x3ea22a83	0.3167306
56	0x3f1e800f	0.6191415
57	0x3f35175e	0.7073878
58	0x3e5198cc	0.20468444
59	0x3f5954a9	0.84894806
60	0x3f4bd2f2	0.7961875
61	0x3f5fc032	0.8740264
62	0x3f39ba90	0.72550297
63	0x3f4b2e6d	0.79367715

gnn_layers.0.bn.bias f4 [64]
0	0xbe27a87a	-0.16372862
1	0xbe847e67	-0.25877687
2	0x3ee6a67b	0.4504889
3	0x3bc6b60e	0.006064183
4	0xbea0ddb4	-0.31419146
5	0x3e6f8de3	0.23393969
6	0x3ed5fe8e	0.41795772
7	0x3db265bb	0.0871081
8	0x3e27ffda	0.16406193
9	0xbe0f2df4	-0.13982373
10	0xbe92a2fc	-0.28639972
11	0x3e22effb	0.15911858
12	0xbe03af1c	-0.12859768
13	0xbd9e5df8	-0.07732767
14	0xbe35ba75	-0.17746909
15	0x3e8051b2	0.2506233
16	0x3eeec1a6	0.46632117
17	0xbe8de3f1	-0.27712968
18	0xbd606dcb	-0.054792207
19	0x3ee9fba3	0.45699796
20	0xbe046975	-0.12930854
21	0x3d49281b	0.049110513
22	0x3eb43f22	0.35204417
23	0x3ec256bf	0.37956807
24	0xbe125fea	-0.14294401
25	0x3ecb6cf0	0.3973155
26	0x3e56bc86	0.20970353
27	0x3ecd25f6	0.40068024
28	0x3e819834	0.25311434
29	0x3ead922c	0.33900583
30	0x3d98572a	0.074385
31	0x3e61fbcf	0.22068714
32	0xbc2b613d	-0.010460195
33	0x3e18c0b2	0.14917257
34	0xbe4bfc70	-0.19920516
35	0xbe15341f	-0.14570664
36	0x3e6c51b8	0.23078048
37	0x3ea4d090	0.3219037
38	0x3ed4b37c	0.41543186
39	0x3ecb34a2	0.39688593
40	0xbdd0af7d	-0.10189722
41	0xbe644b1d	-0.22294278
42	0x3dedc0ba	0.11609025
43	0x3cf5877a	0.029971827
44	0x3ee6a061	0.45044234
45	0x3e9a1c72	0.30099827
46	0xbe911a53	-0.28340396
47	0x3edcec09	0.4314883
48	0x3ed9dea0	0.42552662
49	0xbe2324b5	-0.15931971
50	0xbd6e8fc5	-0.058242578
51	0x3ec35071	0.3814731
52	0x3e807172	0.25086552
53	0xbe098907	-0.13431178
54	0x3ecb7dc6	0.39744395
55	0x3ef19ada	0.47188455
56	0x3e9a61fa	0.30152875
57	0x3e399592	0.18123463
58	0x3eafb5d1	0.34318402
59	0xbd6a7bea	-0.05724708
60	0x3e2c6e6e	0.16839
61	0x3d9ee831	0.07759131
62	0xbe0e100c	-0.13873309
63	0x3e2dc9ba	0.16971484

gnn_layers.0.bn.running_mean f4 [64]
0	0x3e8b3181	0.27186206
1	0xbf10c0f5	-0.5654443
2	0xbe138c45	-0.14408977
3	0x3cbf7b19	0.023374127
4	0xbf1a7ed2	-0.6034976
5	0xbd3772fd	-0.044787396
6	0xbe6d9439	-0.23201074
7	0x3f152dc2	0.58272946
8	0xbd199918	-0.037499517
9	0x3dca3764	0.09873846
10	0x3f062160	0.52394676
11	0x3e6e1e26	0.23253688
12	0x3e61a006	0.220337
13	0x3dd86e07	0.10567861
14	0x3e5166b8	0.2044934
15	0x3c83588c	0.016033433
16	0xbe190e8d	-0.14946957
17	0x3b9762ab	0.0046199164
18	0xbee6ccd5	-0.4507815
19	0xbdc98990	-0.09840691
20	0x3e736387	0.23768435
21	0xbe195f5d	-0.14977784
22	0xbdfe835d	-0.12427399
23	0xbdba63e6	-0.09101085
24	0x3d6a49ab	0.05719916
25	0x3da1529c	0.078770846
26	0x3cf2db8c	0.029645704
27	0xbf20cc38	-0.62811613
28	0x3e8948e8	0.26813436
29	0xbe85500b	-0.2603763
30	0x3e718709	0.23586668
31	0xbe865b90	-0.26241732
32	0x3e702328	0.23450911
33	0x3e530bf1	0.20610024
34	0x3dd16993	0.10225215
35	0x3e9f7d15	0.31150118
36	0x3e4316b8	0.19051635
37	0x3ec052eb	0.3756326
38	0xbe797adf	-0.24363278
39	0xbdf9f00b	-0.12203988
40	0x3ed15522	0.40885264
41	0xbe557e52	-0.20848969
42	0xbf0ac9e7	-0.5421433
43	0x3e212881	0.15738107
44	0xbdbfd8cc	-0.093675226
45	0xbda0f838	-0.07859844
46	0x3ebc62ec	0.3679422
47	0xbe77e69a	-0.24209061
48	0xbdfe0d4b	-0.12404879
49	0x3e30f1eb	0.17279784
50	0xbe181580	-0.14851952
51	0xbe539a08	-0.20664227
52	0x3ca8ddd4	0.020613588
53	0x3e685b5e	0.22691104
54	0xbe1579c4	-0.14597231
55	0x3f4e16d9	0.8050361
56	0x3e43a1af	0.19104646
57	0xbe98a684	-0.2981454
58	0xbe9596bf	-0.29216573
59	0x3e08c260	0.13355398
60	0x3c469ee5	0.012122844
61	0x3e42c895	0.19021828
62	0x3e6f5f00	0.23376083
63	0xbf0dc3ad	-0.553767

gnn_layers.0.bn.running_var f4 [64]
0	0x3e172c17	0.14762913
1	0x3f18990d	0.59608537
2	0x3d3b2bd0	0.04569608
3	0x3bbd5700	0.0057781935
4	0x3f32da38	0.69864225
5	0x3b5e41cc	0.003391373
6	0x3dd177ad	0.102279045
7	0x3f20f863	0.6287901
8	0x3bde0204	0.0067751426
9	0x3c9d49fe	0.019200321
10	0x3f07b1b5	0.53005534
11	0x3ded77c2	0.115951076
12	0x3db4ae6c	0.08822331
13	0x3cb51808	0.022106186
14	0x3d8d8fa8	0.06912166
15	0x3aafb1f4	0.0013404475
16	0x3d12c90f	0.035836276
17	0x3b2cc82b	0.0026364427
18	0x3ec43399	0.38320616
19	0x3c6a60e0	0.014305323
20	0x3dce799a	0.100817874
21	0x3d2e939c	0.04262124
22	0x3d29d690	0.04146439
23	0x3c1314eb	0.008977155
24	0x3c2bb5ea	0.010480383
25	0x3c6e5898	0.01454749
26	0x3bbcb48a	0.0057588266
27	0x3f403be3	0.7509138
28	0x3e0591b8	0.13043869
29	0x3de74682	0.11292745
30	0x3dd1e00b	0.10247811
31	0x3e130c4e	0.14360163
32	0x3dd9f705	0.10642818
33	0x3db4cefd	0.088285424
34	0x3cafb922	0.021450583
35	0x3e2fd075	0.17169364
36	0x3d99ead7	0.07515495
37	0x3e86214f	0.26197287
38	0x3df5d97a	0.12004371
39	0x3d119098	0.035538286
40	0x3e9ca5cc	0.30595243
41	0x3d9a1012	0.075225964
42	0x3f0d4b9e	0.5519351
43	0x3d302917	0.043007936
44	0x3b8a6667	0.004223633
45	0x3b872e40	0.0041253865
46	0x3e723d4f	0.236562
47	0x3df2d09a	0.11856194
48	0x3d0dde90	0.03463608
49	0x3d5b6d4a	0.053571023
50	0x3d3c3955	0.045953114
51	0x3d887e79	0.06664748
52	0x3bce7ea6	0.0063017188
53	0x3dd1de39	0.10247464
54	0x3d4b6b6d	0.049662996
55	0x3f9aae90	1.2084522
56	0x3d93d347	0.07218032
57	0x3e265bd0	0.16245961
58	0x3e238872	0.15970019
59	0x3d0c4990	0.034249842
60	0x3b0263b0	0.0019895844
61	0x3d95cdc3	0.073146366
62	0x3dd1f200	0.10251236
63	0x3f1082b3	0.5644943

out_layer.mlp.0.weight f4 [1, 64]
0	0xbd4bff30	-0.049803913
1	0xbdeb575a	-0.1149127
2	0x3d3702ae	0.04468029
3	0xbd398719	-0.045294855
4	0x3dc67fc5	0.09692339
5	0x3d0bafb9	0.03410313
6	0x3d0650cd	0.0327919
7	0xbd491cfa	-0.0490999
8	0x3cb54f27	0.02213247
9	0xbd0d5675	-0.03450628
10	0x3e0b76e6	0.13619575
11	0xbd63df0d	-0.05563264
12	0x3dc421a1	0.09576727
13	0xbd66ccb1	-0.056347553
14	0x3d90ff74	0.07079974
15	0xbd254381	-0.04034758
16	0x3d6836dd	0.056692947
17	0xbcd52dcc	-0.026022814
18	0xbca7d419	-0.020486878
19	0x3d4dec4b	0.050274175
20	0x3dd1a023	0.10235622
21	0xbcaa780d	-0.020809198
22	0xbe0d804f	-0.13818477
23	0x3d8dfecd	0.06933365
24	0xbd397206	-0.045274757
25	0xbd3f8f8a	-0.04676775
26	0xbd17bac2	-0.03704334
27	0x3d42c04d	0.047546674
28	0xbd3a4ff1	-0.045486394
29	0x3d6c97d4	0.057761982
30	0xbd3127e1	-0.043250922
31	0x3d851632	0.06498374
32	0xbd60e7bb	-0.054908495
33	0xbd3b495a	-0.04572425
34	0xbcd2d6ea	-0.025737245
35	0x3dbed702	0.09318353
36	0xbd384fb5	-0.04499789
37	0xbd268c73	-0.040661287
38	0x3d8e4947	0.0694757
39	0x3d8256c5	0.06364206
40	0x3dc1df5b	0.0946643
41	0xbd48ffd7	-0.049072113
42	0x3d86db2a	0.06584771
43	0xbd29b158	-0.041428894
44	0x3d853d9f	0.06505894
45	0x3d56c253	0.052431416
46	0x3de7689a	0.11299248
47	0x3d649f98	0.055816263
48	0x3d7dcada	0.061961032
49	0xbd28ba47	-0.041193273
50	0xbd151b6e	-0.036403112
51	0x3d8b16d1	0.06791461
52	0xbd0dec68	-0.034649283
53	0xbd4d3a8e	-0.05010467
54	0x3d83276a	0.06404002
55	0xbd398d57	-0.045300808
56	0xbd52c679	-0.05145881
57	0x3da7c52d	0.08191905
58	0x3d0fa623	0.03507055
59	0xbd37df67	-0.044890787
60	0xbd366974	-0.04453416
61	0xbd37d89a	-0.0448843
62	0x3de14eab	0.11001333
63	0x3d511592	0.05104596
