pretrained/best_02_07-20_25_58.pt (torch_old, 30900 bytes, 16 tensors)

embedding.weight f4 [79, 64]
000000 7a 42 af bd 69 2b ad bd 2a be ac bd 57 f9 14 be
       -0.08557601 -0.084555455 -0.084347084 -0.1454824
000010 30 8e af bd 1d 54 c1 bd 3a 2f a8 bd 16 ec 96 bd
       -0.08572042 -0.094398715 -0.08212133 -0.073692486
000020 0f 16 64 be d6 6a 6f be 9b 7f 57 be 92 ad 54 be
       -0.2227404 -0.23380598 -0.21044771 -0.20769337
000030 fc d3 59 be 2f a9 86 be d2 7d 67 be 24 7e b6 bd
       -0.21272272 -0.26300952 -0.2260659 -0.08910778
000040 09 07 40 be c9 af ae bd e8 53 c3 bd 71 49 a6 bd
       -0.18752684 -0.08529622 -0.09537488 -0.081194766
000050 c0 d5 4f be a3 3d b8 bd ee f7 ab bd 04 88 a7 bd
       -0.20296383 -0.08996131 -0.08396898 -0.0818024
000060 be 2e 81 bd 87 d2 a2 be e1 32 53 be 66 b9 ab bd
       -0.063077435 -0.31801245 -0.20624878 -0.08384971
000070 30 45 5c be 55 6b a5 bd d8 7b 4c be bc 5d ab bd
       -0.21510768 -0.080771126 -0.19969118 -0.08367488
000080 cd 4e 0a ba 2f 4b 4f be 71 0d b1 bd 93 ae 4f be
       -0.00052760245 -0.20243524 -0.08645142 -0.20281439
000090 7d b2 3d be f3 51 4b be 6b a9 b6 bd 66 4c a4 bd
       -0.18525119 -0.1985548 -0.08919033 -0.08022384
0000a0 8d 62 43 be b2 a6 c3 bd 55 c9 a2 bd ec a7 4c be
       -0.19080563 -0.09553279 -0.07948557 -0.19985932
0000b0 3f 68 ac bd c2 37 5c be 42 77 52 be b3 89 aa bd
       -0.08418321 -0.21505645 -0.20553306 -0.08327045
0000c0 77 c3 b1 bd 19 3b b8 bd 2d 98 10 be 68 8d a7 bd
       -0.0867986 -0.08995647 -0.1412055 -0.08181268
0000d0 82 af 31 be 21 6e 98 bd af 2b b0 bd 61 04 4a be
       -0.17352107 -0.074428804 -0.08602082 -0.19728233
0000e0 5e 01 56 be be f3 aa bd 11 f3 a9 bd 72 12 5c be
       -0.20898959 -0.083472714 -0.08298314 -0.21491411
0000f0 82 94 8c bd 35 ad b9 bd b8 a4 69 be b3 19 ae bd
       -0.06864263 -0.0906624 -0.22816741 -0.085009955
000100 67 d9 dd bd e9 d4 e4 bd e0 31 de bd f3 43 3c 3e
       -0.10832482 -0.11173422 -0.10849357 0.18385296
000110 8f 73 df bd 85 b8 f4 bd 2f a8 d6 bd 36 52 c2 bd
       -0.10910713 -0.11949257 -0.10481297 -0.09488337
000120 54 32 5c be 13 46 68 be 36 fb 4f be 4a ee 50 be
       -0.21503574 -0.22682981 -0.20310673 -0.204034
000130 ff 60 52 be 60 1c 84 be f1 fa 5f be 68 0b e8 bd
       -0.20544814 -0.25802898 -0.2187307 -0.113303006
000140 1b d2 3e be 46 bc dc bd 52 f5 f1 bd fe 78 d8 bd
       -0.18634836 -0.10778098 -0.11814369 -0.105699524
000150 e1 ff 48 be 56 48 e7 bd 5c 8a e5 bd 59 46 db bd
       -0.1962886 -0.11293094 -0.112080306 -0.10706777
000160 a1 ad cc bd a0 c7 a1 be ee fc 4b be 08 f2 dd bd
       -0.099940546 -0.31597614 -0.19920704 -0.108371794
000170 57 c8 54 be 46 de d6 bd fc 71 46 be 52 a6 db bd
       -0.20779549 -0.10491614 -0.19379419 -0.107250825
000180 e3 ed 0d 3e 0e 89 49 be 85 88 e4 bd 2a 8f 48 be
       0.13860278 -0.19681188 -0.111588515 -0.19585863
000190 c8 09 37 be b4 96 45 be 87 d0 e2 bd 64 c1 cf bd
       -0.17874825 -0.1929577 -0.1107493 -0.10144308
0001a0 38 02 3d be 41 80 f5 bd c2 a8 d2 bd 18 95 45 be
       -0.18457878 -0.11987353 -0.10286094 -0.19295156
0001b0 6a a6 df bd cf 4a 56 be 03 56 4b be fd 7a dc bd
       -0.10920413 -0.20926975 -0.1985703 -0.10765646
0001c0 9e 46 e3 bd 39 87 e4 bd 2d e4 50 3e 8c 4f d8 bd
       -0.110974535 -0.11158604 0.20399542 -0.10562047
0001d0 49 18 2f be d5 21 ca bd d0 68 e0 bd 6c 25 43 be
       -0.17099108 -0.09869734 -0.109574914 -0.19057244
0001e0 f2 6a 4e be 2e fa dc bd 99 f4 df bd 5e 71 54 be
       -0.20157984 -0.107899055 -0.10935325 -0.20746371
0001f0 ed bf c6 bd b3 8a eb bd a5 ad 61 be e6 43 e0 bd
       -0.09704576 -0.11501064 -0.22038896 -0.109504506
000200 1a e1 dd bd fc a1 e5 bd 46 2b df bd db f7 3f 3e
       -0.1083395 -0.11212537 -0.10896926 0.18746893
000210 fa 86 df bd 20 d1 f4 bd 7f ad d8 bd f5 d6 c2 bd
       -0.109144166 -0.1195395 -0.10579967 -0.09513656
000220 36 71 5c be e2 3c 68 be 00 1c 50 be 9a d5 50 be
       -0.21527562 -0.22679475 -0.20323181 -0.20393983
000230 5d 9d 52 be 07 34 84 be 67 32 60 be 63 87 e6 bd
       -0.20567842 -0.25820944 -0.21894227 -0.11256292
000240 16 05 3f be 43 84 de bd 3c fc f6 bd d9 af d8 bd
       -0.18654284 -0.10865071 -0.12059829 -0.10580415
000250 ff d6 48 be 88 dc e7 bd d1 55 e6 bd 03 09 d9 bd
       -0.19613265 -0.1132136 -0.11246837 -0.10597422
000260 50 67 cc bd 24 da a1 be 08 77 4c be 96 6c df bd
       -0.09980643 -0.3161174 -0.19967282 -0.10909383
000270 14 9f 54 be be a3 d4 bd 86 7c 46 be 25 20 dd bd
       -0.20763808 -0.10382794 -0.1938344 -0.10797147
000280 2f 32 10 3e 65 8c 49 be 82 06 e4 bd 46 b4 48 be
       0.14081644 -0.19682463 -0.11134054 -0.19600019
000290 20 24 37 be 5b 1f 45 be 9b 30 e4 bd 86 2e cf bd
       -0.17884874 -0.19250242 -0.11142083 -0.101162955
0002a0 7d dc 3c be e2 9a f4 bd 32 a8 d5 bd 5e af 45 be
       -0.18443485 -0.11943604 -0.10432471 -0.19305179
0002b0 bd f9 db bd 12 03 56 be 48 66 4b be 14 b0 dc bd
       -0.10740993 -0.20899609 -0.19863236 -0.10775772
0002c0 de f2 e4 bd d2 ae e4 bd 87 9c 4b 3e 0f a0 d8 bd
       -0.11179136 -0.11166157 0.19883929 -0.10577404
0002d0 6c 04 2f be ce 66 c8 bd 58 80 e0 bd 82 02 43 be
       -0.1709153 -0.097852334 -0.1096198 -0.19043925
0002e0 ec 88 4e be 74 ff dc bd 70 60 dd bd 5c b7 54 be
       -0.20169419 -0.10790911 -0.108094096 -0.20773071
0002f0 41 39 c6 bd 66 b5 e9 bd b6 b5 61 be bc 20 df bd
       -0.09678889 -0.11411552 -0.22041973 -0.108949155
000300 52 0e dd bd ad 5c e4 bd f4 55 e0 bd e3 ca 3a 3e
       -0.10793747 -0.11150489 -0.10953894 0.18241458
000310 aa 64 df bd 4f e2 f1 bd 45 e1 d9 bd 2b 45 c2 bd
       -0.10907872 -0.11810743 -0.1063867 -0.09485849
000320 1b 5e 5c be de 12 68 be d0 e9 4f be dd 0e 51 be
       -0.21520273 -0.22663447 -0.20304036 -0.20415826
000330 25 55 52 be c9 04 84 be 0f 54 60 be 40 b6 e8 bd
       -0.20540293 -0.257849 -0.21907066 -0.113628864
000340 b5 d5 3e be d7 0f de bd 11 1b f3 bd 0b 7c da bd
       -0.1863621 -0.10842865 -0.11870397 -0.106681906
000350 4e 91 48 be b4 23 e9 bd 8c b0 e1 bd be d0 db bd
       -0.1958668 -0.11383763 -0.11020002 -0.10733174
000360 3d a3 c7 bd 6f bc a1 be 5a e9 4b be eb 10 dd bd
       -0.09747932 -0.31589076 -0.19913235 -0.107942425
000370 00 f4 54 be 78 27 d5 bd 40 5e 46 be a6 6e dc bd
       -0.20796204 -0.10407919 -0.19371891 -0.10763292
000380 1e 3a 0d 3e 02 7e 49 be 96 43 e5 bd 10 e4 48 be
       0.13791701 -0.19676974 -0.111945316 -0.19618249
000390 d4 13 37 be 4e a7 45 be 86 6d e1 bd 70 53 d1 bd
       -0.17878658 -0.19302103 -0.11007218 -0.102209926
0003a0 35 f0 3c be 11 e3 f3 bd b6 c1 d2 bd c1 58 45 be
       -0.18451007 -0.11908544 -0.10290854 -0.19272138
0003b0 93 ea dd bd fa 38 56 be 7c 3a 4b be 8b 5c dc bd
       -0.10835757 -0.20920172 -0.19846529 -0.10759839
0003c0 23 67 e3 bd fe 70 e4 bd 4c 2e 4b 3e 07 9e d7 bd
       -0.11103656 -0.11154364 0.1984188 -0.10528188
0003d0 64 da 2e be a6 dc c9 bd b6 15 e3 bd f5 fa 42 be
       -0.17075497 -0.098565385 -0.110881254 -0.19041045
0003e0 6e 57 4e be 01 55 da bd b9 8a df bd ef a0 54 be
       -0.2015054 -0.106607445 -0.10915131 -0.20764516
0003f0 86 ae c2 bd 51 10 ea bd d1 c1 61 be 2c 2f e2 bd
       -0.09505944 -0.11428893 -0.22046591 -0.110441536

bn_outlayer_in.weight f4 [64]
000000 43 5e 49 41 90 80 49 41 6d d2 4a 41 b6 2c 51 41
       12.585513 12.593887 12.6763735 13.073416
000010 0c b9 49 41 b0 97 4a 41 80 b4 49 41 cf 47 4d 41
       12.607677 12.662033 12.606567 12.830031
000020 0a 30 58 41 ff af 58 41 a3 c1 58 41 fd fa 58 41
       13.511728 13.542968 13.547275 13.561276
000030 1b 85 57 41 2c ce 57 41 c5 ce 58 41 89 92 47 41
       13.469996 13.487835 13.550481 12.473275
000040 f7 d5 59 41 7c e2 49 41 f8 04 4a 41 8d 9e 48 41
       13.6147375 12.617794 12.626213 12.538709
000050 0c 27 57 41 78 0a 4a 41 42 24 49 41 a3 64 49 41
       13.447033 12.627556 12.571352 12.5870695
000060 0e b8 43 41 ea a3 4c 41 48 75 57 41 68 6a 48 41
       12.232435 12.790018 13.466133 12.525978
000070 e7 80 59 41 5b 10 4a 41 12 9f 55 41 0f 6e 49 41
       13.59397 12.628993 13.351336 12.58937
000080 5b e2 64 41 1a 92 58 41 fa fe 49 41 8c 13 58 41
       14.305263 13.535669 12.62475 13.504772
000090 29 fe 58 41 13 25 59 41 3f b0 48 41 81 2c 4b 41
       13.562051 13.571551 12.543029 12.698365
0000a0 37 96 57 41 65 c0 49 41 d3 03 49 41 f1 bf 58 41
       13.474174 12.609471 12.563434 13.546861
0000b0 a7 3b 4a 41 be fb 58 41 05 98 57 41 03 8e 4a 41
       12.639564 13.5614605 13.474614 12.659671
0000c0 1a 53 4a 41 d6 98 49 41 9f 6e 54 41 ce 29 49 41
       12.645288 12.599813 13.277007 12.572706
0000d0 f0 29 49 41 f7 8c 49 41 01 06 4a 41 a1 d7 58 41
       12.572739 12.596915 12.626466 13.552644
0000e0 cf 3f 59 41 ab b8 48 41 d2 12 49 41 47 17 59 41
       13.578078 12.545085 12.567095 13.568183
0000f0 60 de 4c 41 e6 6d 49 41 56 5d 57 41 93 54 4a 41
       12.804291 12.589331 13.460287 12.645648

bn_outlayer_in.bias f4 [64]
000000 8b 63 33 41 15 f6 32 41 cd 03 35 41 0c dd 29 41
       11.2118025 11.185079 11.313428 10.6164665
000010 c2 8a 33 41 19 b8 34 41 7a bf 33 41 c7 48 2e 41
       11.221376 11.294946 11.234247 10.892768
000020 b9 59 33 41 5a ec 33 41 32 4f 34 41 7f b9 34 41
       11.209405 11.245203 11.269335 11.295287
000030 7e b2 32 41 da 30 33 41 89 4a 34 41 de f3 31 41
       11.168577 11.199427 11.268197 11.122038
000040 bb e8 35 41 95 b0 33 41 5d 49 33 41 76 1d 32 41
       11.369319 11.230611 11.205411 11.132193
000050 9b 5c 32 41 1a 0d 34 41 1f d2 32 41 60 49 33 41
       11.147609 11.253199 11.176299 11.205414
000060 80 88 16 41 03 1f 15 41 2d fc 32 41 e2 6e 32 41
       9.408325 9.320071 11.186566 11.152071
000070 87 59 35 41 fd ae 33 41 e0 11 32 41 78 47 33 41
       11.334357 11.230222 11.129364 11.204948
000080 53 0a 36 41 74 42 34 41 d0 b2 33 41 da 74 33 41
       11.377521 11.266224 11.231155 11.216028
000090 51 01 35 41 13 a4 34 41 c3 7d 32 41 b8 f0 34 41
       11.312821 11.290057 11.155704 11.308769
0000a0 aa a5 32 41 20 99 33 41 57 bc 32 41 4d 01 33 41
       11.165445 11.224884 11.170981 11.187818
0000b0 eb 48 34 41 75 b8 34 41 9e 06 33 41 aa 6b 34 41
       11.267802 11.295033 11.189116 11.276285
0000c0 2b 57 34 41 64 47 33 41 21 cd 29 41 5f d6 32 41
       11.271281 11.204929 10.61258 11.177337
0000d0 68 1e 34 41 99 50 32 41 0e c7 33 41 5b 6e 34 41
       11.257423 11.144677 11.236097 11.276942
0000e0 72 88 32 41 23 9c 32 41 ec e9 32 41 05 89 34 41
       11.158312 11.163119 11.18211 11.283452
0000f0 c0 46 30 41 16 eb 32 41 f0 75 32 41 a8 70 34 41
       11.017273 11.182394 11.153793 11.277504

bn_outlayer_in.running_mean f4 [64]
000000 cf e7 75 bd b4 a2 db bc 61 96 7a bd 1e 5d 8a 3d
       -0.060035523 -0.026810981 -0.06117857 0.06756042
000010 27 2f 75 bd 10 3b 9d bd b2 fa 61 bd 39 20 e7 bc
       -0.05985942 -0.07677281 -0.055170722 -0.028213607
000020 e3 66 93 bf 72 74 9a bf 53 ea 95 bf d7 22 8c bf
       -1.1515774 -1.2066786 -1.1712135 -1.0948132
000030 bc 11 96 bf 40 8c 8a bf 9b 4c 9b bf 5c d4 5f bd
       -1.1724162 -1.0824051 -1.2132753 -0.05464588
000040 0c 4e 99 bf 01 92 88 bc fd d0 6d bd ae 77 70 bd
       -1.1976943 -0.016671183 -0.058060635 -0.058707885
000050 e1 f6 8f bf b0 8a 89 bd 7e a2 8b bc 30 39 52 bd
       -1.1247216 -0.06715906 -0.017045256 -0.05132407
000060 6e 88 f2 3c 25 6e 5c bf fb 8f 8e bf e6 94 49 bd
       0.02960607 -0.8610557 -1.1137689 -0.049214266
000070 c8 be 9f bf ef c8 77 bd 75 df 8f bf 19 d5 78 bd
       -1.2480097 -0.06049436 -1.1240069 -0.0607501
000080 0e 9f e9 3e 95 ed 98 bf e5 ed 4a bd 1a 68 8d bf
       0.45629162 -1.1947504 -0.04954328 -1.1047394
000090 3c 41 8b bf 54 0d 9c bf e8 f9 82 bd 30 c3 68 bd
       -1.0879283 -1.2191567 -0.06395322 -0.05682677
0000a0 b0 b5 93 bf 25 a8 6b bd 7b a7 5a bd 10 45 91 bf
       -1.1539822 -0.057533402 -0.053382378 -1.1349201
0000b0 8a 58 82 bd f8 f5 a0 bf 66 cf 91 bf 51 c9 70 bd
       -0.06364544 -1.2575064 -1.1391418 -0.05878574
0000c0 6a 75 76 bd 86 37 12 bd 2f 81 a8 3d 7e 69 56 bd
       -0.06017057 -0.035697483 0.08227765 -0.0523467
0000d0 ab ec 7b bf 32 37 3e 3b 95 5c 89 bd 59 ee 90 bf
       -0.98408 0.0029024598 -0.06707112 -1.1322738
0000e0 ce f2 91 bf 86 7f 7f bd f0 5f 3b bd 4e 6a 94 bf
       -1.1402223 -0.062377475 -0.04574579 -1.1594942
0000f0 f6 3a d9 3c 06 3b 82 bd d4 73 96 bf 04 a6 6f bd
       0.026517373 -0.06358914 -1.1754098 -0.058507934

bn_outlayer_in.running_var f4 [64]
000000 3a 81 63 3f a5 db 7d 3f 89 70 65 3f ae 01 2d 3d
       0.8886906 0.99163276 0.8962484 0.04223793
000010 a6 1f 63 3f cb 15 84 3f 8e 27 67 3f c6 b8 72 3f
       0.88720167 1.0319151 0.9029473 0.9481319
000020 b3 18 0e 3d fc 27 8a 3d 81 f8 12 3d eb f6 55 3d
       0.034691524 0.06745908 0.035881523 0.052237432
000030 b7 46 13 3d a3 89 8c 3d b8 f7 28 3d d1 64 80 3f
       0.03595611 0.068621896 0.041251868 1.0030767
000040 4f dd cf 3d bb 94 99 3f b2 68 82 3f 37 17 48 3f
       0.10149633 1.1998514 1.01882 0.78160423
000050 02 8e 07 3d 03 2a 85 3f d6 e1 72 3f 82 9d 6a 3f
       0.033094414 1.0403446 0.9487585 0.9164659
000060 f2 82 1e 3f ab 1b 1d 3d 55 e9 04 3d 93 62 6c 3f
       0.61918557 0.038356464 0.032449085 0.9233791
000070 b9 a2 28 3d e2 54 54 3f 00 7e 25 3d 30 dc 58 3f
       0.04117081 0.8294202 0.040403366 0.8471098
000080 91 c7 03 3e a1 70 3c 3d 77 dd 76 3f ec c2 02 3d
       0.12869097 0.04600585 0.9643168 0.031924173
000090 f9 b7 fd 3c 87 43 38 3d 57 69 7e 3f 81 e8 72 3f
       0.030971514 0.044986274 0.99379486 0.9488602
0000a0 13 69 0e 3d 7b f5 89 3f 60 bb 4e 3f cd f7 09 3d
       0.034768175 1.077804 0.8075466 0.033683587
0000b0 9d 28 60 3f 0f 6e 5d 3d 67 0c 0b 3d 0a 77 57 3f
       0.8756197 0.05406004 0.033947375 0.84166014
0000c0 fd a8 71 3f e8 c6 9b 3f 68 0b 46 3d 84 e4 5c 3f
       0.9439848 1.2170076 0.04835072 0.8628619
0000d0 cb 47 01 3e bb 55 64 3f 7b bc 71 3f b3 5f 09 3d
       0.12625043 0.89193314 0.94428223 0.03353853
0000e0 98 50 0b 3d d3 43 4c 3f 59 1c 6a 3f 5a 0f 10 3d
       0.034012407 0.7979099 0.91449505 0.03517089
0000f0 d4 df 89 3f 55 a0 5f 3f 26 04 14 3d 08 14 71 3f
       1.0771432 0.8735402 0.03613677 0.9417119

gnn_layers.0.gnn.att_i f4 [1, 1, 64]
000000 a6 b2 57 3d 30 0b 8b be d2 f1 0d 3e ba 4b 4e ba
       0.052660607 -0.27156973 0.13861778 -0.00078695605
000010 48 b0 20 bf 0a f1 1d bd 43 ee fd bd a6 f9 03 bd
       -0.62768984 -0.03855995 -0.123989604 -0.032220505
000020 6e 90 f2 3d 8d 27 aa 3e 9b e4 95 3e fc db c5 3e
       0.11843954 0.332333 0.29275975 0.38644397
000030 af d1 a4 3e 88 28 97 3e bb 82 f2 3d 77 06 37 be
       0.32191226 0.2952311 0.11841341 -0.1787356
000040 e4 81 02 3e b3 9d 73 be 6c e2 9c be 69 e9 8e 3e
       0.12744862 -0.23790626 -0.30641496 0.27912453
000050 61 3f 3c bb ff 30 6e bc f1 5e d5 3c d1 a9 e9 bc
       -0.00287243 -0.014538049 0.026046248 -0.028523358
000060 8c ab e7 be 68 57 28 3e 3f 9f 84 bc 90 54 e4 be
       -0.45248067 0.16439593 -0.016189216 -0.44595766
000070 e0 7b b2 3e e4 49 a5 be 97 b4 ac 3e 9c 9a d9 3d
       0.34860134 -0.32282937 0.3373153 0.106251925
000080 68 11 06 bd d3 58 d8 3d 3f fc 36 3e 07 0c be 3e
       -0.032731444 0.10563817 0.17869662 0.3711855
000090 88 5b f0 3d 70 83 02 be ff 69 a9 bd c5 b2 17 be
       0.11736208 -0.12745452 -0.0827217 -0.14814289
0000a0 ec 9c 5d be 8b 21 95 be 85 05 f2 bd 04 15 d9 3e
       -0.21641892 -0.29127154 -0.11817459 0.42398846
0000b0 4e 96 aa 3e d3 99 84 3e 32 8d d5 3e 88 e5 95 bd
       0.33317798 0.2589861 0.41709286 -0.0731917
0000c0 ea 7c 95 3d 08 07 35 be b6 52 a4 be c8 29 b1 3d
       0.07299216 -0.17678463 -0.32094353 0.08650547
0000d0 b6 14 27 be b4 5e c0 be 73 72 ea be 45 ea 5a 3e
       -0.16316494 -0.37572253 -0.45790443 0.21378429
0000e0 fd 1c 9c 3e 2e 28 ab bb 32 ee da be 60 8d 1c 3e
       0.30490866 -0.0052232957 -0.42759854 0.15288305
0000f0 6c 5c 42 3e 6e 4e ad 3c 34 92 36 3e 4c 16 09 bf
       0.18980569 0.021155562 0.1782921 -0.5354965

gnn_layers.0.gnn.att_j f4 [1, 1, 64]
000000 c0 9c 90 3e e4 16 72 3d 84 4c 6b 3d 29 84 f2 3c
       0.2824459 0.05910386 0.057446018 0.029604034
000010 fc db fa 3d 95 eb aa 3d 30 a5 2f 3e ce 3d ea 3d
       0.1224899 0.08345715 0.17152858 0.114375696
000020 a0 9f 07 be a1 15 d3 be 57 6c 57 be b4 b8 9e be
       -0.13244486 -0.4122744 -0.21037422 -0.31000292
000030 7c 89 b7 bd 17 5c f7 be fd bc e9 be 0a 56 f6 bd
       -0.0896177 -0.48312446 -0.45652 -0.120281294
000040 d2 3b a7 be b4 d9 90 bd c2 9a 35 3e ed e6 af ba
       -0.32662827 -0.070727736 0.17734817 -0.0013420262
000050 05 c3 f7 be e7 d0 2e be b2 55 00 be 2b 34 70 3e
       -0.48390976 -0.17071877 -0.1253269 0.234574
000060 cf a2 9e 3d e7 a9 9a be e5 41 07 bf c9 9f 13 bc
       0.07745897 -0.3020775 -0.5283492 -0.009010264
000070 01 d4 14 bf b2 91 ea 3d f2 5d f1 be 6b 88 79 3e
       -0.5813599 0.114535704 -0.47141987 0.24368446
000080 a6 4b 73 be 10 9f e5 be 3f 56 0b 3e 7b fe 9f be
       -0.23759326 -0.44847918 0.13607119 -0.3124884
000090 0a 6b 00 bf b3 1b ad be 1c 96 14 be d6 cf f2 bd
       -0.5016333 -0.33810195 -0.14510387 -0.11856048
0000a0 30 bc 0b be 75 49 a4 3d 0c 1e 31 be 40 41 de be
       -0.13646007 0.08021823 -0.17296618 -0.43409157
0000b0 1c 46 67 3e 65 f7 d3 be 62 9e 04 bf 35 9d 2c bc
       0.22585338 -0.41399685 -0.51804173 -0.010535528
0000c0 30 ab aa bd 58 70 f5 3d 8e 1f a5 3c 07 e7 92 bd
       -0.08333433 0.119843185 0.020156648 -0.07172971
0000d0 65 61 fc bd 7e d1 4e 3e 13 43 61 3d 20 a1 e4 be
       -0.12323264 0.20197102 0.054995608 -0.4465418
0000e0 f5 80 10 bf 05 58 85 3d 77 04 a5 bb 7b 9d d0 be
       -0.5644677 0.06510929 -0.0050359326 -0.40745148
0000f0 4a c0 72 be 71 d4 96 3d 62 e2 11 bf 5c 46 a6 bd
       -0.23706165 0.07364739 -0.5698606 -0.08118889

gnn_layers.0.gnn.att_em_i f4 [1, 1, 64]
000000 09 4e d3 3b 2d 8e 9c 3c 06 b9 90 3b ef 5c be bc
       0.0064485115 0.019110763 0.0044165878 -0.023237674
000010 3f 32 7e 3c 5b 50 1b 3c 6b ed b1 3b 69 a2 29 3c
       0.015514909 0.009479607 0.0054299138 0.010353663
000020 ab 92 cf 3b f4 9b 9a b9 77 80 17 3b 92 41 b1 3c
       0.006334623 -0.00029489363 0.0023117342 0.021637712
000030 49 a5 0d bc b5 27 98 3c b8 d0 cf 3c 5d 52 1a 3c
       -0.008645364 0.018573621 0.02536808 0.009419051
000040 5a 05 9b 3b ea a6 54 3c 53 ae 7c 3c 54 fa 83 3c
       0.0047308626 0.012979249 0.0154224215 0.016110577
000050 2f 59 73 3b 4a 25 c0 3b 3d 28 10 3c b4 6d c0 3b
       0.0037132015 0.00586382 0.008798656 0.0058724526
000060 7e 8f de 3b a2 a2 85 3c 66 e0 e0 3c 2e 62 31 3c
       0.006792008 0.0163129 0.027450752 0.0108266305
000070 d3 d0 df 3b a7 8b 43 3c 20 4e 6c 3c 77 29 54 3c
       0.0068303137 0.011935151 0.014422923 0.012949339
000080 4e 8c 73 bc 13 3d 4c 3c 08 36 bb 3c 8f e8 bd 3c
       -0.014864994 0.012465733 0.022852913 0.023182182
000090 28 3a 3a 3c 02 d4 57 3c 23 a2 5c 3c 76 bf 7f 3c
       0.011366405 0.013173105 0.013466391 0.015609613
0000a0 f2 d4 89 3c c7 36 18 3c cf 48 35 3c 7f d4 99 3c
       0.016825173 0.009290404 0.011064722 0.018778084
0000b0 31 15 8f 3c 59 06 9b 3c 6c 00 32 3c a0 be b5 3c
       0.01746616 0.018923925 0.010864358 0.022185624
0000c0 22 1f 58 3c 28 44 c8 3b 69 8d 80 bc 8c 36 22 3c
       0.013191016 0.0061116405 -0.01569243 0.0099007
0000d0 0b 37 1a 3c 1f 71 19 3c 6c 9a ac 3b f3 54 a8 3c
       0.009412537 0.009365349 0.005267432 0.02054832
0000e0 9c c7 93 3c 56 d7 49 3c 58 07 04 3c 71 d1 a3 3c
       0.018039517 0.0123194065 0.0080583915 0.01999733
0000f0 a1 11 7f 3c a7 8f 3a 3c 77 1c 1a 3c 69 fc 57 39
       0.015568168 0.011386788 0.009406201 0.00020598028

gnn_layers.0.gnn.att_em_j f4 [1, 1, 64]
000000 57 13 92 bb ab 8d 7d bb ac 6a a7 3d 0d cd fd bc
       -0.004457872 -0.0038689177 0.08174643 -0.030981565
000010 f9 3c 46 3d fc 57 dc 3d b0 71 01 3e cf 93 62 3e
       0.04839799 0.10758969 0.12641025 0.22126697
000020 6a 26 29 be f0 bf ef bd ca cf a1 3e 44 f9 22 3d
       -0.1651856 -0.11706531 0.31603843 0.0397885
000030 9b d3 16 be f3 c9 30 bd b3 8b 24 3e dc d0 ea bd
       -0.14729159 -0.043161344 0.16068916 -0.11465618
000040 3e b8 75 3d cf 97 14 3e 0f 6a ec 3d a0 4e ee 3d
       0.05999016 0.14511035 0.115436666 0.1163609
000050 3a 33 6c be ea 38 a8 3d 7a 61 b8 3d f9 19 9b 3d
       -0.23066416 0.082139805 0.09002967 0.07573313
000060 3e 00 99 3d 37 89 84 3d 00 c2 34 be cf 14 a7 3e
       0.07470749 0.06471484 -0.1765213 0.32633063
000070 6a 6c c2 bd 25 fb 32 bd 54 a9 1d 3e a6 f6 94 3e
       -0.094933346 -0.04369654 0.15396625 0.29094428
000080 71 3f b5 be 06 68 1e 3e fa 6f c4 3d 98 f7 e8 bd
       -0.35399964 0.1546937 0.0959167 -0.1137535
000090 7b 9f 5b be 95 c5 b2 3d c4 d0 a9 3d a8 3a ca 3c
       -0.21447556 0.08729092 0.08291772 0.024686173
0000a0 ee de 1a 3e 4f 09 9c 3d 6b 7b 03 3e 16 88 9d 3e
       0.15124103 0.07618963 0.12840049 0.30767888
0000b0 8c ce 88 3d c1 6e f0 bb d7 14 81 3e 32 f4 30 3e
       0.06680021 -0.0073374216 0.25211212 0.17280653
0000c0 86 54 f7 3d 4b 91 b8 3d c3 ed 22 3d 5b 0a 11 3e
       0.120766684 0.090120874 0.03977753 0.14164107
0000d0 2b f3 15 3e 9e 51 02 3e 7d cd 80 3e 80 02 17 be
       0.14643542 0.12726447 0.25156775 -0.14747047
0000e0 8e e6 92 3e 78 63 3b 3e 51 22 94 3e 9f 8e b9 3e
       0.28691524 0.18299663 0.2893243 0.36241624
0000f0 0c dd 03 3d 2f c1 b9 3d 6b d1 08 be 64 6d aa 3e
       0.03219323 0.0907005 -0.13361137 0.33286583

gnn_layers.0.gnn.bias f4 [64]
000000 76 7d a0 3e c0 3f 09 3f bb c4 59 be fd ff 0c 3d
       0.3134572 0.536129 -0.21266453 0.034423817
000010 cd ab 71 bd 8f 80 00 be 17 b9 7d 3e 2e cc 1f 3f
       -0.059001733 -0.12549041 0.24777637 0.6242093
000020 4f be a0 3c cc 43 7d 3e 55 18 83 3e a0 72 d8 3d
       0.019621996 0.24732894 0.256045 0.10568738
000030 19 ce d2 3e 29 1c a0 bd a8 70 d4 3d 79 2e ae bd
       0.41172865 -0.07817871 0.1037305 -0.08504958
000040 2c 1a fc bb 42 28 1e 3f f7 47 50 be be 92 a2 3e
       -0.0076935496 0.6178018 -0.20339952 0.3175258
000050 a2 92 bd 3d 6b d7 27 3f 99 07 ef 3d ff 2d fe bd
       0.092564836 0.65563077 0.11671371 -0.12411117
000060 96 73 25 3f 4c 3b c7 3d 0c eb 94 3e c8 79 9a 3e
       0.64629495 0.09728107 0.29085577 0.30171037
000070 74 08 e3 3d 69 cc b0 be fe 86 da 3e f8 4e 76 be
       0.11085597 -0.34530953 0.42681116 -0.24053562
000080 0b 02 5b be 94 72 91 3e 5e 28 42 be 7d 8e a5 3c
       -0.21387498 0.2840773 -0.18960711 0.020209545
000090 bb df b2 3e cf 07 79 3e ba 83 eb 3d 8f a3 fd bc
       0.34936318 0.24319385 0.11499734 -0.03096178
0000a0 37 56 c5 bd cb 2d 9b bd db 87 1a bd 5e 74 8c 3e
       -0.09635585 -0.07577094 -0.037727218 0.2743253
0000b0 9f f2 32 be 89 21 f0 3c e2 58 c2 3e e7 e1 40 3d
       -0.17475365 0.029312866 0.37958437 0.047090437
0000c0 9f 55 f4 3d 3e 7d 03 bf ec dd 9a 3e 2c 9d 3f 3e
       0.119303934 -0.5136298 0.30247438 0.187123
0000d0 86 90 29 bd 98 bc 5e bb bf cc 40 3d 6c 3c e2 bc
       -0.041397594 -0.0033986922 0.04707026 -0.027616702
0000e0 8f 69 80 be fa 75 9f 3d a7 25 cb bc 29 20 ee bd
       -0.25080535 0.07786174 -0.024798227 -0.11627228
0000f0 7c 7e 9c be 45 12 3c 3e 28 ff 08 3e 14 54 95 3e
       -0.3056525 0.18366344 0.13378584 0.2916571

gnn_layers.0.gnn.lin.weight f4 [64, 15]
000000 92 36 fb bc f0 9a 20 be a4 c7 93 3d 44 b1 92 3e
       -0.03066567 -0.15684104 0.07215813 0.28650868
000010 80 99 c4 bc bb cf 27 be 0f ba b9 3c 04 67 2e be
       -0.023998976 -0.16387837 0.022671727 -0.17031485
000020 52 5b b1 3e b4 a0 28 3e 4d 54 f7 3e 16 b8 5b 3e
       0.34639984 0.16467553 0.48306504 0.21456942
000030 43 7f 2f 3e 1a e7 57 3e bf 1c c2 3e 84 61 f3 bc
       0.1713839 0.21084252 0.37912557 -0.029709585
000040 b0 96 6e bd ed f1 8c 3e 0a 17 fa 3d 63 62 68 3e
       -0.058249176 0.27528325 0.122114256 0.22693782
000050 f3 99 8f 3c 3b 5e de 3c 18 d9 85 3d af 59 2c bd
       0.017529463 0.027144542 0.06535548 -0.042077716
000060 38 0f 09 bd 2b 43 5e be 9f f1 e7 3d 11 d6 f6 bd
       -0.03346178 -0.2170531 0.113253824 -0.12052549
000070 82 17 44 3e b8 f8 a2 3e e4 f9 37 3b e0 74 96 3e
       0.19149593 0.31830382 0.002807253 0.29386044
000080 0c 58 86 3e 94 9e 9a 3d f0 e8 7d be e5 95 60 bd
       0.2623905 0.075497776 -0.2479589 -0.05483045
000090 bf 9d 03 3e f1 19 8d bd a1 28 6d 3b 8c 36 40 be
       0.12853144 -0.068897136 0.0036187547 -0.18770808
0000a0 22 9e 31 be 64 45 2a 3e 69 78 ef 3d 0a 32 81 3e
       -0.17345479 0.16628033 0.11692888 0.2523349
0000b0 84 9f 5a bd ba 96 b5 bd a7 e5 84 3e 5a d4 07 3e
       -0.053374782 -0.088666394 0.2595646 0.132646
0000c0 73 0c 52 3e dd 84 83 be a0 ea 2e be bc 3b 3c bd
       0.20512562 -0.25687304 -0.1708169 -0.045955405
0000d0 c3 e9 64 be d5 c9 18 3d 31 bc 95 3d 0d 98 50 3e
       -0.22354798 0.037301857 0.07311285 0.20370503
0000e0 f0 54 82 3b 72 2b 64 be 32 45 0c 3c 35 e6 68 3e
       0.0039774105 -0.22282198 0.008561419 0.22744067
0000f0 86 6a 2a bc 81 52 19 3e d0 d1 96 bd 9d db 54 3e
       -0.010401374 0.14972879 -0.07364237 0.20786901
000100 eb 8e 38 3e cb bb 59 3e d2 45 b4 3c 74 14 89 be
       0.18023269 0.21263044 0.02200595 -0.26773417
000110 98 5d 5f be 16 0b 83 be 4e 0a 46 3e a8 63 2e 3d
       -0.21813047 -0.25594395 0.19339868 0.04257551
000120 dd 39 49 3e d1 df 7e 3e 37 84 c2 3d 4e 25 59 3e
       0.1965098 0.24890067 0.09497874 0.21205637
000130 2f be aa 3d 98 0c 04 3e 67 04 10 be 04 e4 40 3c
       0.08337056 0.12895429 -0.1406418 0.011773113
000140 48 39 37 3e 85 39 aa 3d fa fd 80 be 5f 87 1e 3e
       0.17892945 0.08311752 -0.2519377 0.15481327
000150 03 c8 17 be 99 22 2e 3e 6d 9d c1 bd 18 ef 78 3e
       -0.14822392 0.17005385 -0.09453855 0.24309957
000160 7c a7 28 3e bd 06 dd 3c ef b6 4f 3e 06 87 6a 3e
       0.1647014 0.026980752 0.20284627 0.2290307
000170 fb bf 73 be dd 4a 9c 3c c5 45 06 3e 0b 47 a6 bd
       -0.23803703 0.019078666 0.13112552 -0.08119019
000180 00 f8 f8 3d 7c 94 25 3e 16 12 94 be b1 d2 e9 3d
       0.12156677 0.16169924 -0.28920048 0.11417139
000190 41 cc f0 bd 4f 7d 8c 3e c8 94 5f bd cc f5 b3 3d
       -0.11757708 0.27439353 -0.05458525 0.087871164
0001a0 77 d8 7a 3e 90 46 cc bd 58 16 0d 3e c5 92 61 3d
       0.24496637 -0.09974396 0.13778055 0.05507161
0001b0 32 c6 7a 3e 4a 58 03 3e ac 41 f3 bd 4a de 62 3d
       0.24489668 0.12826648 -0.1187776 0.055387773
0001c0 bf 32 1e 3e 02 5d 82 3e 6c ee 6b bd 0f 3a 94 bd
       0.15449046 0.25461584 -0.057600424 -0.07237636
0001d0 ab d2 5c 3e 78 8f 9b bd 3a 45 b0 bc 70 87 42 be
       0.21564738 -0.07595724 -0.021517385 -0.18996978
0001e0 b4 82 2e be c9 fb 82 be d9 65 b0 3c af b0 54 3e
       -0.17042047 -0.25582722 0.02153294 0.20770524
0001f0 cc 97 07 3e 89 57 36 be 7c a5 91 3e ed 3e 35 be
       0.132415 -0.1780683 0.28446567 -0.17699786
000200 5b 3b 44 bd b3 f6 3d 3e 7a 16 25 3e a9 2c 37 3e
       -0.04790817 0.1855114 0.16121855 0.1788813
000210 95 8a df bc 45 b3 59 be 4d c7 8d be a0 d8 09 be
       -0.02728776 -0.21259792 -0.27691117 -0.13461542
000220 c6 85 8e be 10 22 00 be 03 05 66 3e 95 06 2d 3d
       -0.27836436 -0.12512994 0.2246285 0.042242605
000230 4e 3f 33 3e ca 8e f5 bd 45 d1 bf 3d 8c 3a 8e 3e
       0.17504618 -0.119901255 0.09366087 0.27779043
000240 4c 65 0a 3e f1 f2 a4 3d 33 32 ad bd bc cb 38 be
       0.13515204 0.0805415 -0.0845684 -0.18046468
000250 b1 08 27 3d 95 e0 e2 be d2 67 a0 be d9 fc 23 be
       0.040779773 -0.44311967 -0.3132921 -0.16014422
000260 74 c6 07 3e 63 71 6d bd 99 e1 1b 3e 94 b2 d6 3d
       0.13259298 -0.057969462 0.15222777 0.1048328
000270 bc 14 71 3b e2 2f a7 3d 2e 36 4d 3d 8a 7c 00 3d
       0.003678604 0.0816343 0.050100498 0.03136877
000280 11 83 0b 3e 53 e4 23 3e a6 a2 4d bd c0 ce 94 bc
       0.13624217 0.16005068 -0.05020394 -0.018164992
000290 a3 be ee be 61 70 e4 bd 61 83 a5 be c6 38 c4 3d
       -0.4662982 -0.11154247 -0.32326797 0.09581141
0002a0 e6 3f d5 bd 94 34 26 3c 82 99 45 3e 9a 20 aa 3d
       -0.10412578 0.010144372 0.1929684 0.083069995
0002b0 5a 61 03 3e 43 fb 50 3e 7c 1e 42 3e 33 57 c9 bd
       0.12830105 0.20408349 0.18956941 -0.09831085
0002c0 9c 2a 4d 3e 50 e7 2f bd 80 f3 e4 be 2f c6 a6 be
       0.20035785 -0.042945206 -0.44717026 -0.32573077
0002d0 53 79 9e be 63 f5 2c be 0e d7 02 3e b2 8a 16 bc
       -0.30951938 -0.16890483 0.1277735 -0.009188341
0002e0 bb 1d 40 3e 9b 88 df 3c f6 a5 ad bd fd 17 4f 3e
       0.18761341 0.027286818 -0.0847892 0.20223995
0002f0 74 dc 57 3c 1b 68 93 3d f6 31 22 3e 09 b5 eb bb
       0.013175119 0.07197591 0.15839371 -0.007193212
000300 02 6a e1 3d d8 91 a7 bd c7 b4 e0 be dc fc d5 bd
       0.110065475 -0.08182114 -0.43887922 -0.1044862
000310 91 66 96 be 31 04 7e bd fd 3b f2 3d ae 6d 91 3c
       -0.29375127 -0.062015716 0.11827848 0.017752495
000320 60 db 06 3d 5a 40 f9 3d 6d 46 76 3d d8 9c 6c 3e
       0.032924056 0.12170477 0.060125757 0.23106706
000330 84 31 09 3e de e3 1c 3e 7d 54 ee 3c 90 77 82 bd
       0.13397795 0.153213 0.029093022 -0.06370461
000340 59 15 80 be bd 15 d7 be 03 e7 d1 be d7 5c 54 be
       -0.25016287 -0.42008772 -0.4099656 -0.2073854
000350 d3 56 52 3e d5 eb 1d bd 48 f3 ff 3c f9 ef 70 3e
       0.20540933 -0.038554985 0.031243935 0.23529042
000360 25 e3 2c bd e3 f2 3b 3e 36 6e bc 3d 3d 05 5d 3e
       -0.04220881 0.18354373 0.092007086 0.2158403
000370 a0 2b 0d 3c de 01 95 3e 6a 22 38 be ff 93 e2 be
       0.008616358 0.29102987 -0.17981878 -0.44253537
000380 09 85 a3 be 3b e1 36 be 7d 25 91 3e 5d 0b 0f 3e
       -0.31937435 -0.17859356 0.28348914 0.13969178
000390 67 94 e6 3d f8 d1 58 bc 20 a9 6e 3d 2b ac 9a 3d
       0.11258774 -0.013233654 0.05826676 0.0755237
0003a0 29 2c eb bd f2 9c 91 3e cd c5 9b 3e bf 11 de 3d
       -0.11483032 0.28440052 0.30424348 0.108432285
0003b0 b7 1d 4a 3e 19 26 f2 bb e9 9b 2b bd d3 cf 3f be
       0.19737898 -0.0073897955 -0.041896734 -0.18731622
0003c0 c1 d2 10 be 16 3a 56 be b1 e8 f3 bb 6d 2c 4a 3e
       -0.14142896 -0.20920596 -0.0074435105 0.1974351
0003d0 8e 7a b3 3e 98 58 22 be 51 90 0b be 4a c1 95 3e
       0.3505444 -0.15854108 -0.13629271 0.2924903
0003e0 b4 23 e5 bc 77 01 2d 3c fd 72 c4 3d d0 9c 89 3d
       -0.027971126 0.010559431 0.09592245 0.06719363
0003f0 7d 03 11 be 17 a6 9f be 2c 60 f4 be 7c db b8 3d
       -0.14161487 -0.31181404 -0.47729623 0.09026238

gnn_layers.0.bn.weight f4 [64]
000000 59 86 3a 40 47 e2 3f 40 7f dd 41 40 4c cc c7 3f
       2.91445 2.9981859 3.029144 1.5609221
000010 09 5d 3f 40 ef c0 31 40 38 d1 40 40 a6 21 42 40
       2.9900534 2.7774007 3.0127697 3.0333037
000020 95 18 5d 3f 93 23 37 3f f6 c7 6f 3f 8c 36 e2 3e
       0.86365634 0.71538657 0.9366449 0.4418224
000030 92 75 6b 3f f3 18 bf 3e 21 b6 57 3f 91 65 34 40
       0.91976273 0.37323722 0.8426228 2.8186991
000040 ed fb 3a 3e 0b 8e 31 40 06 1a 24 40 51 4d 46 40
       0.18260165 2.7742946 2.5640883 3.098469
000050 48 a1 6d 3f f7 35 33 40 91 8a 37 40 67 74 45 40
       0.9282422 2.8001688 2.8678324 3.0852296
000060 40 58 5a 40 aa b6 9c 3d 7c 1a 68 3f b9 42 46 40
       3.4116364 0.07652028 0.9066541 3.0978224
000070 54 95 74 3f 11 0c 46 40 20 41 52 3f c2 ab 3e 40
       0.95540357 3.0944865 0.8213062 2.9792333
000080 17 19 9a 40 7d de 49 3f a7 cf 3b 40 6a f7 68 3f
       4.8155627 0.78855115 2.934549 0.91002524
000090 0b 06 7d 3f 8a 87 5b 3f 6f 8f 35 40 cb ad 42 40
       0.98837346 0.8575369 2.8368795 3.0418575
0000a0 13 7e 7f 3f 04 4b 2a 40 80 a9 41 40 9d c4 74 3f
       0.9980175 2.6608286 3.0259705 0.9561251
0000b0 87 1b 41 40 b9 c6 4a 3f f7 48 6e 3f 20 d8 43 40
       3.0173051 0.79209477 0.93080086 3.0600662
0000c0 3c dc 3b 40 08 59 2e 40 54 4f dd 3f bd c8 41 40
       2.935317 2.724184 1.7289834 3.027877
0000d0 ae b2 cf 3e e0 29 34 40 d8 25 3f 40 3e dc 75 3f
       0.4056601 2.8150558 2.9866848 0.9603919
0000e0 5c b5 6d 3f 62 59 42 40 b6 45 43 40 22 ff 67 3f
       0.9285486 3.0367055 3.0511298 0.90623677
0000f0 98 c8 58 40 88 75 30 40 17 89 5c 3f 4a 35 3c 40
       3.3872433 2.7571735 0.8614668 2.9407525

gnn_layers.0.bn.bias f4 [64]
000000 02 be 35 40 77 8b 26 40 1a 6d 38 40 30 b1 c6 3f
       2.8397222 2.6022623 2.881659 1.5522823
000010 2f f8 36 40 a1 8f 38 40 98 ae 39 40 ad 97 3a 40
       2.858898 2.8837664 2.9012814 2.9155076
000020 4b 82 a9 40 89 32 ab 40 2f 91 b6 40 6b f4 ae 40
       5.297155 5.349919 5.7052226 5.467336
000030 e0 84 b4 40 ad 42 89 40 79 19 b0 40 f9 51 32 40
       5.64122 4.289389 5.5031095 2.7862532
000040 3c 4e d6 40 5b d2 2b 40 53 e5 29 40 2e dd 35 40
       6.69705 2.684714 2.6546218 2.8416247
000050 02 a0 b5 40 c9 4a 3b 40 84 aa 1c 40 c8 51 38 40
       5.675782 2.9264395 2.4479074 2.8799915
000060 18 4b fe 3f b9 97 34 40 04 e2 b0 40 f3 25 35 40
       1.9866667 2.8217604 5.52759 2.8304412
000070 f1 53 be 40 51 fe 3b 40 c9 43 b9 40 7d da 36 40
       5.9477468 2.9373972 5.7895246 2.8570855
000080 28 2b 84 40 ce 82 c2 40 a4 50 31 40 aa 88 b2 40
       4.130268 6.0784674 2.770547 5.5791826
000090 2b a4 c0 40 4b fb c9 40 f6 c1 39 40 8b 6e 42 40
       6.02004 6.3119254 2.9024634 3.037997
0000a0 8b 21 c6 40 26 d9 2d 40 af 30 36 40 7e 26 ba 40
       6.1915946 2.7163787 2.8467214 5.8171988
0000b0 04 74 3a 40 ef a8 c0 40 84 a0 b5 40 cf 33 37 40
       2.913331 6.020622 5.675844 2.8625371
0000c0 7b 70 36 40 b3 97 32 40 c7 ea d1 3f 9b 10 36 40
       2.8506153 2.790509 1.6399773 2.8447635
0000d0 42 3d c1 40 7f 97 1a 40 c9 ab 3c 40 a4 44 bc 40
       6.0387278 2.4154966 2.947985 5.883379
0000e0 c7 fb b2 40 9b 9f 35 40 86 c4 31 40 fe d9 b0 40
       5.5932345 2.8378665 2.7776198 5.5266104
0000f0 93 30 21 40 44 56 2d 40 d0 ef a8 40 33 d1 37 40
       2.5185897 2.7083902 5.279274 2.8721435

gnn_layers.0.bn.running_mean f4 [64]
000000 68 25 16 47 e3 93 8e 46 d7 76 2d 46 e3 63 35 45
       38437.406 18249.943 11101.71 2902.243
000010 dc cb 70 46 29 30 89 46 14 3a 86 46 89 e8 4a 46
       15410.965 17560.08 17181.04 12986.134
000020 9a 12 6f c5 99 04 c6 c5 17 a1 8c c5 a0 1d eb c5
       -3825.1626 -6336.5747 -4500.136 -7523.703
000030 ff f2 86 c5 90 7c c7 c5 7c de 00 c6 d4 cb a9 46
       -4318.3745 -6383.5703 -8247.621 21733.914
000040 99 3a 47 c6 82 c3 4d 46 74 d6 a3 46 b9 f6 c7 45
       -12750.649 13168.877 20971.227 6398.8403
000050 b0 b1 0e c6 96 29 1a 46 cb 61 b9 45 c2 cc 4d 46
       -9132.422 9866.396 5932.224 13171.189
000060 93 eb 9c 46 f8 b9 2e c5 9d 51 23 c6 d5 d0 86 45
       20085.787 -2795.623 -10452.403 4314.104
000070 ad ab 09 c6 8f 01 a9 46 0e 45 1f c6 37 f3 44 46
       -8810.919 21632.78 -10193.264 12604.804
000080 19 ec 50 c6 7b 97 0e c6 eb ec 51 46 ec 07 89 c5
       -13371.024 -9125.87 13435.2295 -4384.99
000090 0c b7 b3 c5 a7 e6 ab c5 32 1d 16 46 1b 3a e6 45
       -5750.881 -5500.8315 9607.299 7367.263
0000a0 bb 33 8b c5 46 1f a9 46 71 b0 8d 46 2b 56 b4 c5
       -4454.4663 21647.637 18136.22 -5770.771
0000b0 d0 a7 46 46 03 85 a7 c5 61 0c b7 c5 ab 38 0e 46
       12713.953 -5360.6265 -5857.5474 9102.167
0000c0 69 c5 7d 45 05 0f 9c 46 3c 40 18 46 b3 06 37 46
       4060.3381 19975.51 9744.059 11713.675
0000d0 80 de 2b c5 96 f0 0b 46 96 bf 26 46 36 42 62 c6
       -2749.9062 8956.146 10671.896 -14480.553
0000e0 b5 21 98 c5 b5 14 02 46 c8 71 ab 45 03 72 c7 c5
       -4868.2134 8325.177 5486.2227 -6382.2515
0000f0 4b ef 20 46 e3 3a 4e 46 af d0 9b c5 ad 13 62 46
       10299.823 13198.722 -4986.0854 14468.919

gnn_layers.0.bn.running_var f4 [64]
000000 1e 32 ae 50 6a 0c 9d 4f 51 59 e8 4e 22 5e fe 4c
       2.338016e+10 5.269673e+09 1.9490838e+09 1.3336194e+08
000010 bc e7 5f 4f 54 56 91 4f ba 20 8b 4f 13 05 1f 4f
       3.756506e+09 4.876708e+09 4.6683556e+09 2.66791e+09
000020 30 d2 5c 4d 8c 50 17 4e 75 d4 98 4d 1e 68 55 4e
       2.3154765e+08 6.346596e+08 3.2050755e+08 8.950926e+08
000030 3e b6 8c 4d 91 8b 19 4e 6c 4f 80 4e 41 ad de 4f
       2.950942e+08 6.4401517e+08 1.0763443e+09 7.4717926e+09
000040 a9 2f 19 4f 56 84 23 4f fc 43 cf 4f 99 57 1a 4e
       2.5700375e+09 2.743359e+09 6.9546783e+09 6.47358e+08
000050 41 57 9d 4e ba 98 b7 4e 00 ac 04 4e 61 85 23 4f
       1.3198706e+09 1.5401198e+09 5.564662e+08 2.7434273e+09
000060 1d 4b be 4f d2 73 eb 4c ce ec cd 4e e4 5a 8c 4d
       6.3851873e+09 1.2344488e+08 1.7274243e+09 2.9434586e+08
000070 56 64 92 4e 17 99 dc 4f f0 f4 c3 4e c9 c6 15 4f
       1.2280246e+09 7.402041e+09 1.6438047e+09 2.5128328e+09
000080 0a 7d 28 4f d5 01 9d 4e 9a 1c 2a 4f 7a 1f 91 4d
       2.8267668e+09 1.3170715e+09 2.8540012e+09 3.043449e+08
000090 52 52 f9 4d 4b 21 e4 4d 90 1c ae 4e 8e c4 4c 4e
       5.228652e+08 4.784234e+08 1.4605537e+09 8.588584e+08
0000a0 74 ae 95 4d bd e3 dc 4f d2 14 9b 4f fa 11 fb 4d
       3.1390477e+08 7.411825e+09 5.203666e+09 5.265324e+08
0000b0 d7 54 18 4f 19 98 d8 4d 7b 55 01 4e 5b 41 9c 4e
       2.555697e+09 4.5423082e+08 5.424657e+08 1.3107644e+09
0000c0 68 c5 78 4d a8 35 bc 4f a8 09 b3 4e 13 51 01 4f
       2.6085542e+08 6.315266e+09 1.5018772e+09 2.1695741e+09
0000d0 be d8 e3 4c 07 3e 97 4e 27 b2 d6 4e 13 ad 45 4f
       1.1945726e+08 1.2687123e+09 1.8009998e+09 3.3164541e+09
0000e0 91 b5 b2 4d 25 b8 82 4e 29 fb e2 4d 83 87 19 4e
       3.7478045e+08 1.0965531e+09 4.7601386e+08 6.4394874e+08
0000f0 63 01 c8 4e 49 3a 24 4f 17 81 bb 4d 56 6b 45 4f
       1.677767e+09 2.7552832e+09 3.9322493e+08 3.312146e+09

out_layer.mlp.0.weight f4 [1, 64]
000000 88 ff 30 41 2d 27 31 41 a7 b3 2f 41 4d 6c 36 c1
       11.062386 11.072064 10.98136 -11.401441
000010 18 e9 30 41 61 22 2f 41 49 b8 30 41 9c bc 36 41
       11.056908 10.945893 11.0449915 11.421047
000020 0e b6 3f 41 fb 0f 3f 41 e4 48 42 41 13 93 3e 41
       11.981947 11.9414015 12.142796 11.910907
000030 93 e1 3f 41 c1 4d 41 41 ed ad 3e 41 62 5e 30 41
       11.992572 12.081483 11.917462 11.023043
000040 3e a5 41 41 e7 e4 30 41 76 73 30 41 d5 21 32 41
       12.102842 11.055884 11.028189 11.13326
000050 84 a1 40 41 f4 db 2f 41 06 ed 30 41 81 02 31 41
       12.039433 10.9911995 11.057867 11.063111
000060 52 16 22 41 b2 e0 2b 41 ca 54 40 41 e9 f3 31 41
       10.130449 10.742357 12.0207 11.122048
000070 22 e8 3d 41 dd b8 30 41 65 98 3d 41 55 9b 30 41
       11.869173 11.045133 11.849706 11.037923
000080 e7 24 53 c1 27 8b 3f 41 7f 21 31 41 7b 41 40 41
       -13.196509 11.971473 11.070678 12.015986
000090 96 23 3e 41 ce ee 3f 41 f6 b3 30 41 2c d6 33 41
       11.883688 11.995802 11.043936 11.239788
0000a0 94 0a 40 41 4e 7a 30 41 43 32 31 41 a4 5c 3f 41
       12.002583 11.02986 11.074771 11.960117
0000b0 59 10 30 41 d4 3c 3e 41 ad 87 41 41 95 0e 30 41
       11.003991 11.889851 12.095624 11.00356
0000c0 6e 03 30 41 a5 c9 30 41 41 f3 3c c1 82 2b 31 41
       11.000837 11.04923 -11.809388 11.073122
0000d0 29 7f 2f 41 4b 14 31 41 e1 77 30 41 ad ab 3e 41
       10.968545 11.067454 11.029267 11.916913
0000e0 77 22 40 41 95 c1 31 41 97 05 31 41 05 5d 40 41
       12.008414 11.109761 11.063865 12.02271
0000f0 d4 16 36 41 b3 f6 31 41 f5 59 40 41 37 0e 30 41
       11.380573 11.122729 12.021962 11.00347
