pretrained/best_01_26-18_05_13.pt (torch_old, 17588 bytes, 16 tensors)

embedding.weight f4 [27, 64]
-0.09858208 -0.04845442 0.07707421 0.03667091 0.047768172 -0.07119215 0.099240445 0.02080236
0.04595657 0.032077376 -0.006122513 0.067704186 0.09859636 0.039465785 -0.009069669 0.046530638
-0.07523435 0.050543766 0.061201554 0.07949688 -0.027411466 -0.14332628 0.05114538 0.009302957
0.12393014 0.014718267 0.07383926 0.096068 -0.030828118 0.07270383 0.0446273 0.037511025
0.08526937 -0.12957852 0.060260363 0.14068602 -0.075180046 -0.07475232 -0.11594926 -0.04502077
0.043932218 0.09558949 -0.088167764 -0.09109831 0.024055056 0.024850782 0.014892627 0.08254566
0.09487057 0.00010282894 0.025111483 -0.006340652 -0.02548632 -0.022165444 -0.040873908 -0.113805056
0.07153805 -0.07880889 -0.040505625 0.0985223 -0.013205764 0.050525617 0.10777576 -0.011247711
0.025103176 0.107123345 -0.06822731 -0.044029035 -0.0001886359 -0.05595015 0.031598628 0.078487806
-0.039080966 0.00023518976 0.064091526 -0.09081639 -0.09925679 -0.12561084 0.080008216 -0.11781288
-0.09429666 0.0851868 -0.09144004 0.11494026 -0.07031451 0.029093837 -0.022141108 0.0007100189
0.073717326 0.10684949 -0.10714773 0.059192713 0.019230774 -0.03938466 -0.081894204 0.05023248
0.10565623 -0.11557494 -0.09280702 -0.1108873 -0.0009266782 -0.043977723 -0.052664693 0.11272851
-0.0557613 -0.10527396 0.036273386 -0.04297449 -0.0821686 0.07925972 0.019658463 -0.12062191
0.09572963 0.07905986 -0.083278164 0.057696052 0.033830408 -0.10613681 -0.08138879 -0.12114919
0.04994832 0.028090114 0.04570317 -0.06566804 0.08793122 0.013997197 -0.09633271 -0.01007619
0.0831503 0.06685607 -0.04661598 -0.07927998 -0.100672275 0.06795801 -0.069220036 0.05870614
-0.020572018 0.024865381 -0.14448987 -0.046346463 0.079264 -0.14862569 0.037808105 -0.10561356
-0.005538345 -0.13320316 -0.098470375 -0.1102921 -0.0738395 0.0051534506 -0.10293161 -0.010271146
0.10042113 0.06762821 0.122443795 0.10547568 -0.01923666 -0.050427176 0.120821685 0.018256726
-0.029583663 0.073937684 -0.08241974 0.11338833 0.055359818 -0.08277606 -0.13413008 0.12727115
0.14335799 0.028630314 -0.0821461 0.09120303 0.027050877 -0.067470804 0.11269929 0.06859077
0.060231425 0.086026974 -0.090217985 -0.10294628 0.049043342 0.014428964 -0.064336896 0.011416513
0.07123955 -0.14331299 0.06129017 -0.046500247 -0.118986614 -0.02438234 -0.013076931 -0.04594742
-0.12578644 0.101436794 -0.053238444 0.04335087 0.13024923 -0.05907915 -0.07417826 -0.1622422
0.044622876 -0.07532553 -0.024959609 0.06879804 -0.025221506 0.05143284 -0.054805353 -0.057532195
-0.114210986 -0.0037103756 -0.07956492 0.019529607 -0.02508047 0.04523909 -0.07249811 -0.0980129
0.023781145 -0.09805779 0.079320185 -0.03775347 0.069689706 0.030454531 0.06702186 -0.072995014
0.046094134 -0.08811252 -0.0960235 0.026169375 -0.085012786 -0.08691894 -0.011194615 0.12090071
-0.06934067 0.03792028 -0.10957847 0.043485045 0.016582448 -0.06527845 0.1200284 -0.1322072
-0.04696639 -0.07928516 0.12999223 0.06630862 0.14131305 0.09817561 -0.01553774 -0.12542807
-0.05217677 -0.007054756 -0.09160939 0.09390812 0.012880755 -0.0116182575 -0.10430349 0.11128216
00000000: 67e5 c9bd 2478 46bd 15d9 9d3d 3c34 163d
00000010: 8fa8 433d 31cd 91bd 933e cb3d b669 aa3c
00000020: f53c 3c3d 9163 033d 5d9f c8bb 7ea8 8a3d
00000030: e3ec c93d e0a6 213d f398 14bc e996 3e3d
00000040: 7814 9abd fb06 4f3d 7bae 7a3d 43cf a23d
00000050: 038e e0bc 20c4 12be d17d 513d 6e6b 183c
00000060: 16cf fd3d e324 713c 0a39 973d 4dbf c43d
00000070: 408b fcbc bfe5 943d 1ecb 363d 29a5 193d
00000080: b5a1 ae3d 3bb0 04be 92d3 763d ff0f 103e
00000090: fff7 99bd bf17 99bd ce76 edbd b367 38bd
000000a0: 45f2 333d 6cc4 c33d 4d91 b4bd c091 babd
000000b0: 1c0f c53c de93 cb3c 3400 743c b30d a93d
000000c0: 804b c23d dea5 d738 99b6 cd3c 3ec5 cfbb
000000d0: b0c8 d0bc 4e94 b5bc 666b 27bd a012 e9bd
000000e0: 8b82 923d 8e66 a1bd 3ae9 25bd 0fc6 c93d
000000f0: fd5c 58bc f3f3 4e3d 8ab9 dc3d 5248 38bc
00000100: 2da5 cd3c 7c63 db3d c3ba 8bbd ca57 34bd
00000110: 90cc 45b9 fc2b 65bd 906d 013d 37be a03d
00000120: 5d13 20bd 459d 7639 6b42 833d f2fd b9bd
00000130: 2547 cbbd 21a0 00be 59db a33d e147 f1bd
00000140: 9b1e c1bd 6b76 ae3d ea44 bbbd cd65 eb3d
00000150: 0e01 90bd 3356 ee3c 4561 b5bc 9020 3a3a
00000160: 1cf9 963d e8d3 da3d 4570 dbbd 0f74 723d
00000170: db89 9d3c cf51 21bd 26b8 a7bd 93c0 4d3d
00000180: 4b62 d83d 8eb2 ecbd 9b11 bebd e118 e3bd
00000190: 52ec 72ba fc21 34bd efb6 57bd 34de e63d
000001a0: f665 64bd e099 d7bd 6793 143d 0506 30bd
000001b0: 0348 a8bd ec52 a23d c90a a13c 9f08 f7bd
000001c0: e50d c43d 23ea a13d be8d aabd b252 6c3d
000001d0: c191 0a3d 415e d9bd 2aaf a6bd 111d f8bd
000001e0: 9c96 4c3d 3d1d e63c 3f33 3b3d f77c 86bd
000001f0: 4915 b43d 8054 653c 154a c5bd 9b16 25bc
00000200: b44a aa3d d6eb 883d 66f0 3ebd 8b5d a2bd
00000210: 442d cebd 922d 8b3d 3cc3 8dbd d975 703d
00000220: a686 a8bc 7cb2 cb3c 27f5 13be cad5 3dbd
00000230: 2a55 a23d 5531 18be acdc 1a3d ec4b d8bd
00000240: 017b b5bb 6966 08be d6aa c9bd d3e0 e1bd
00000250: 2a39 97bd 47de a83b cfcd d2bd 4f48 28bc
00000260: 98a9 cd3d a980 8a3d d0c3 fa3d a203 d83d
00000270: 3396 9dbc ba8c 4ebd 5c71 f73d 218f 953c
00000280: 7059 f2bc a46c 973d aecb a8bd 2438 e83d
00000290: fac0 623d 7f86 a9bd 6559 09be 5e53 023e
000002a0: 70cc 123e 1f8a ea3c 373c a8bd a7c8 ba3d
000002b0: cd99 dd3c 222e 8abd e3ce e63d 5179 8c3d
000002c0: 3ab5 763d e92e b03d 35c4 b8bd 80d5 d2bd
000002d0: ace1 483d 7667 6c3c 10c3 83bd 530c 3b3c
000002e0: 0be6 913d a4c0 12be 670b 7b3d 0b77 3ebd
000002f0: 41af f3bd 79bd c7bc a040 56bc 5d33 3cbd
00000300: 29ce 00be 18be cf3d 8e10 5abd af90 313d
00000310: 0e60 053e fbfc 71bd c6ea 97bd d222 26be
00000320: 7ac6 363d 4544 9abd 1878 ccbc fde5 8c3d
00000330: 559d cebc 3eab 523d 947b 60bd e1a6 6bbd
00000340: 73e7 e9bd c629 73bb eff2 a2bd 8efc 9f3c
00000350: 8f75 cdbc a04c 393d e479 94bd fdba c8bd
00000360: add0 c23c 86d2 c8bd 9f72 a23d 62a3 1abd
00000370: 7ab9 8e3d c87b f93c c242 893d 697e 95bd
00000380: 34cd 3c3d 5674 b4bd f8a7 c4bd 2861 d63c
00000390: 2f1b aebd 8f02 b2bd 9e69 37bc cb9a f73d
000003a0: 7b02 8ebd 4c52 1b3d ad6a e0bd 601d 323d
000003b0: ead7 873c b5b0 85bd 73d1 f53d 5361 07be
000003c0: d45f 40bd 4260 a2bd af1c 053e d0cc 873d
000003d0: 5eb4 103e 4b10 c93d 0192 7ebc 3770 00be
000003e0: 4fb7 55bd 952b e7bb b49d bbbd e752 c03d
000003f0: cd09 533c 815a 3ebc 119d d5bd e7e7 e33d

bn_outlayer_in.weight f4 [64]
0.97829753 1.03139 1.0284828 1.0191307 0.9705188 1.0246401 1.0244535 0.9600565
0.9853941 0.973262 1.0441263 0.99091274 0.9685573 0.9642469 0.9898015 1.0024877
0.98317474 1.0031608 0.99231243 0.9882045 0.9929435 0.97118 0.98661083 0.9858045
0.9773808 0.9993148 0.9831157 0.9998786 0.98996246 0.9974099 1.0184506 0.9782807
0.9724367 0.9916213 1.0357139 1.0045279 1.0380955 1.0204189 1.0426544 1.0427997
0.97300047 0.96803963 1.0015527 1.0292633 0.9825316 1.0031793 0.9873294 0.961319
0.98149025 0.9700245 0.9825746 0.989538 0.9886667 0.97012836 1.0777059 1.0005698
0.9931733 0.9917971 1.013086 0.99686086 1.0011969 1.0141393 0.99523354 1.0101823
00000000: b571 7a3f 9604 843f 53a5 833f e072 823f
00000010: ec73 783f 6827 833f 4b21 833f 43c6 753f
00000020: ca42 7c3f b327 793f eea5 853f 75ac 7d3f
00000030: 5ff3 773f e3d8 763f a263 7d3f 8451 803f
00000040: 57b1 7b3f 9367 803f 3008 7e3f f8fa 7c3f
00000050: 8c31 7e3f 419f 783f 8792 7c3f af5d 7c3f
00000060: a135 7a3f 18d3 7f3f 78ad 7b3f 0bf8 7f3f
00000070: 2e6e 7d3f 4156 7f3f 975c 823f 9b70 7a3f
00000080: 9df1 783f e5da 7d3f 4692 843f 5f94 803f
00000090: 50e0 843f 169d 823f b375 853f 767a 853f
000000a0: 8f16 793f 72d1 773f e132 803f e6be 833f
000000b0: 3187 7b3f 2e68 803f 9fc1 7c3f 0119 763f
000000c0: f242 7b3f 8753 783f 028a 7b3f 5d52 7d3f
000000d0: 4319 7d3f 555a 783f 44f2 893f ac12 803f
000000e0: 9b40 7e3f 6ae6 7d3f cdac 813f 4632 7f3f
000000f0: 3827 803f 51cf 813f a0c7 7e3f a74d 813f

bn_outlayer_in.bias f4 [64]
-0.050017715 0.040548373 0.033608925 0.028222643 -0.009771534 0.05321526 0.040410113 -0.03154208
-0.024582105 -0.054273505 0.049867954 0.019812582 -0.036407392 0.0050922115 0.032968145 0.006440871
0.03746426 0.05669371 0.005124975 0.007848033 0.0146112805 0.057504676 0.0032129714 0.047713973
-0.0440546 0.042010583 0.022578543 -0.012354502 -0.019844174 0.043093607 0.03411612 0.058120243
-0.03142975 0.0050946167 -0.0067709424 -0.028402254 0.05350618 0.040098354 0.054205194 0.021699669
-0.022629652 -0.039033968 0.054616354 -0.025231978 0.028256055 0.04909108 -0.053855225 -0.009390906
-0.0030040771 -0.055436026 -0.036450125 0.05397219 -0.0074912757 -0.03725647 0.07061047 0.053512868
-0.03942485 0.055383243 -0.017434357 0.025156755 0.054083195 0.06804017 -0.019189144 -0.018886823
00000000: 60df 4cbd 0d16 263d 83a9 093d 2c33 e73c
00000010: c918 20bc 3ff8 593d 1385 253d 4532 01bd
00000020: 6960 c9bc e54d 5ebd 5742 4c3d ff4d a23c
00000030: eb1f 15bd 91dc a63b 9b09 073d f10d d33b
00000040: 2074 193d aa37 683d 68ef a73b 0995 003c
00000050: 2764 6f3c 068a 6b3d b790 523b ba6f 433d
00000060: 9972 34bd 4a13 2c3d a3f6 b83c 8a6a 4abc
00000070: 4090 a2bc ec82 303d 58bd 0b3d 7e0f 6e3d
00000080: 7bbc 00bd bef0 a63b c8de ddbb d8ab e8bc
00000090: 4c29 5b3d 2c3e 243d 4406 5e3d 81c3 b13c
000000a0: d261 b9bc 15e2 1fbd 66b5 5f3d 4bb3 cebc
000000b0: 3e79 e73c ba13 493d 4c97 5cbd 51dc 19bc
000000c0: 0de0 44bb e310 63bd ba4c 15bd f111 5d3d
000000d0: 6079 f5bb 3e9a 18bd 399c 903d 4f30 5b3d
000000e0: f47b 21bd 8ad9 623d 7fd2 8ebc 8a15 ce3c
000000f0: 5786 5d3d a558 8b3d 8d32 9dbc 8ab8 9abc

bn_outlayer_in.running_mean f4 [64]
0.0051598535 0.010056791 0.0018089126 0.0028436326 -0.005876675 0.001547632 0.007954139 -0.0051238462
0.000613806 0.0009868189 -0.02194007 -0.0036405367 0.00083399256 -0.0058585424 0.0012605464 0.00074801914
0.00057813793 0.0028139579 -0.0027442286 -0.006629661 -0.0042391033 0.00759903 -0.009466131 -0.013406467
0.008799611 -0.0001792945 -0.013079506 0.00060141366 0.0032457574 -0.0016024447 0.0054195747 -0.012593615
0.009120133 -0.0018219815 0.0009741974 0.001788939 -0.013149909 0.004450376 -0.026992848 0.0014017093
-0.005499643 -0.00046884757 -0.0077089956 0.0006512638 -0.014226643 -0.01036716 0.003949659 -0.017654737
0.004652191 0.00062140264 0.0025401665 -0.012363063 0.0038593519 0.005442405 -0.017825997 -0.0086936215
-0.0006851412 0.0016828055 -0.00021440779 0.001377217 -0.01825984 0.006532127 0.0010245304 0.0034984373
00000000: fd13 a93b 3dc5 243c 0919 ed3a 3d5c 3a3b
00000010: 1f91 c0bb ead9 ca3a 1452 023c f0e5 a7bb
00000020: d3e7 203a 2658 813a a9bb b3bc 1296 6ebb
00000030: 4ba0 5a3a 04f9 bfbb eb38 a53a b716 443a
00000040: 2e8e 173a 616a 383b 84d8 33bb a13d d9bb
00000050: 2de8 8abb 4901 f93b d517 1bbc cca6 5bbc
00000060: 3e2c 103c 0001 3cb9 6d4b 56bc 30a8 1d3a
00000070: c6b6 543b 1f09 d2ba b096 b13b 7355 4ebc
00000080: 9c6c 153c 8ecf eeba 4861 7f3a d57a ea3a
00000090: b772 57bc 76d4 913b 1b20 ddbc 8fb9 b73a
000000a0: 5936 b4bb a8cf f5b9 be9b fcbb 93b9 2a3a
000000b0: de16 69bc 05db 29bc 246c 813b aba0 90bc
000000c0: 6871 983b a0e5 223a ec78 263b 728e 4abc
000000d0: 2eed 7c3b 3456 b23b d307 92bc b16f 0ebc
000000e0: 0c9b 33ba 9591 dc3a a7d2 60b9 bc83 b43a
000000f0: a995 95bc 740b d63b 8949 863a 0a46 653b

bn_outlayer_in.running_var f4 [64]
0.004303036 0.0022765521 0.0020754556 0.0015679204 0.00474581 0.0035414675 0.0022236009 0.0027187876
0.0014952269 0.0036721977 0.0019767566 0.0050688796 0.0016372295 0.0070116404 0.0043926807 0.00109469
0.005273971 0.006703548 0.003754055 0.0050344067 0.0016779929 0.0050202333 0.0034968809 0.0016330733
0.0062457304 0.004602023 0.005846438 0.0020936492 0.0015568743 0.005162688 0.0020598006 0.0023100923
0.0017831092 0.00597401 0.0015267006 0.0043922453 0.0044907494 0.002288564 0.0023715585 0.002207745
0.0038930478 0.0046655424 0.0028014632 0.0017657585 0.0021250257 0.0012804718 0.0038709135 0.0065496643
0.002155563 0.0045944205 0.0017621788 0.0017689782 0.0028316563 0.0015348985 0.0009152839 0.0051746257
0.0013337964 0.004469317 0.0014457738 0.0021227952 0.0019833406 0.0045210104 0.0018289747 0.001981259
00000000: 7b00 8d3b 3532 153b 5e04 083b ae82 cd3a
00000010: bd82 9b3b f717 683b d5b9 113b b02d 323b
00000020: 7dfb c33a 41a9 703b 798c 013b d818 a63b
00000030: 4e98 d63a e7c1 e53b 7af0 8f3b b37b 8f3a
00000040: 46d1 ac3b 70a9 db3b 9706 763b aaf7 a43b
00000050: 19f0 db3a c580 a43b ed2b 653b d90c d63a
00000060: fca8 cc3b 91cc 963b 7a93 bf3b 9b35 093b
00000070: 0810 cc3a c42b a93b b8fd 063b eb64 173b
00000080: 37b7 e93a a1c1 c33b 921b c83a d3ec 8f3b
00000090: 2327 933b bcfb 153b 266c 1b3b d1af 103b
000000a0: 8122 7f3b 68e1 983b c198 373b 0671 e73a
000000b0: 0444 0b3b 81d5 a73a 27af 7d3b 919e d63b
000000c0: 5944 0d3b cb8c 963b e9f8 e63a 0fdd e73a
000000d0: 4f93 393b a62e c93a aaef 6f3a e88f a93b
000000e0: c8d2 ae3a 5973 923b 1e80 bd3a 981e 0b3b
000000f0: effa 013b fc24 943b 35ba ef3a 03d8 013b

gnn_layers.0.gnn.att_i f4 [1, 1, 64]
0.0033757798 0.2386853 0.025802162 -0.32204565 0.3068197 0.037058916 -0.20960803 -0.1690648
0.2289438 0.05163536 0.13545172 0.2018535 -0.13410406 0.040779915 -0.20233394 0.24658236
-0.14962384 0.23528852 0.11088115 0.124613345 -0.2757805 0.02284368 0.19342515 -0.015627408
0.030996906 0.15862006 -0.1874444 -0.07216965 0.08760768 0.2111091 0.22478148 -0.062221117
0.041157633 -0.1174067 -0.04756975 -0.15732093 0.24459265 -0.050134547 0.09839132 0.14252102
0.04175442 0.04852512 0.01042729 -0.27226716 -0.012881951 -0.055663735 -0.27676156 0.34191126
-0.06806706 -0.12881528 -0.34945074 -0.32176188 0.14089142 -0.16487865 -0.16989866 -0.119216025
0.22188227 -0.077263325 0.16963619 0.18840992 -0.2875299 0.22910918 -0.05588698 0.28124335
00000000: 303c 5d3b eb69 743e 0e5f d33c 2be3 a4be
00000010: 7917 9d3e 17cb 173d 7da3 56be 531f 2dbe
00000020: 3e70 6a3e 997f 533d dbb3 0a3e afb2 4e3e
00000030: 9352 09be d708 273d a130 4fbe 1680 7c3e
00000040: fe36 19be 79ef 703e a815 e33d 4835 ff3d
00000050: 1a33 8dbe ab22 bb3c 3e11 463e 0d05 80bc
00000060: 39ed fd3c 4c6d 223e 6df1 3fbe aecd 93bd
00000070: a86b b33d fc2c 583e 1e2d 663e 92db 7ebd
00000080: e894 283d ed72 f0bd 80d8 42bd bd18 21be
00000090: 7f76 7a3e e259 4dbd 6381 c93d 08f1 113e
000000a0: af06 2b3d 47c2 463d 39d7 2a3c 9a66 8bbe
000000b0: d20e 53bc a8ff 63bd b1b3 8dbe fe0e af3e
000000c0: be66 8bbd 27e8 03be 35eb b2be f9bd a4be
000000d0: d745 103e f3d5 28be eaf9 2dbe 8827 f4bd
000000e0: 1b35 633e 3c3c 9ebd 1cb5 2d3e 88ee 403e
000000f0: 1e37 93be 999b 6a3e bfe9 64bd 21ff 8f3e

gnn_layers.0.gnn.att_j f4 [1, 1, 64]
0.16578455 -0.30394772 0.045547016 0.09436362 -0.09369726 0.24199489 -0.2567991 -0.110133335
0.28468096 0.30039147 0.13973501 -0.16603073 -0.2755866 -0.23300461 -0.05866514 0.15153228
0.10426852 -0.02420754 0.28126368 0.2586267 -0.1370991 -0.11500813 0.009754277 0.0503728
0.007923331 0.13206336 0.22332644 -0.07790726 0.12346749 0.052264743 0.11874423 0.11143295
-0.09421126 -0.1294381 0.1134562 -0.17873931 0.17278351 -0.2006301 0.19609192 0.10752158
-0.05405387 0.18391037 -0.07375785 0.053670242 0.07829489 0.01713664 0.07219706 0.014033533
-0.064525545 0.17924017 0.1065357 0.10289229 0.1807361 -0.17415841 -0.08470574 0.0034776928
0.23498769 -0.22253947 -0.18461093 -0.0752191 -0.26721188 -0.21940257 0.2069479 -0.002461257
00000000: 6dc3 293e 099f 9bbe 828f 3a3d b741 c13d
00000010: 59e4 bfbd 82cd 773e 2c7b 83be 968d e1bd
00000020: b4c1 913e e9cc 993e b216 0f3e f603 2abe
00000030: b019 8dbe c398 6ebe dc4a 70bd 472b 1b3e
00000040: bc8a d53d e44e c6bc cb01 903e b86a 843e
00000050: b563 0cbe 6289 ebbd 67d0 1f3c b653 4e3d
00000060: dcd0 013c 9e3b 073e b0af 643e d78d 9fbd
00000070: 86dc fc3d 8e13 563d 2d30 f33d f536 e43d
00000080: d5f1 c0bd 6c8b 04be b95b e83d 7007 37be
00000090: 29ee 303e fa71 4dbe 52cc 483e 4634 dc3d
000000a0: 9767 5dbd 0053 3c3e 5b0e 97bd 54d5 5b3d
000000b0: 1259 a03d 2462 8c3c 0ddc 933d e7ec 653c
000000c0: f825 84bd bc8a 373e 642f da3d 31b9 d23d
000000d0: e212 393e 9556 32be 347a adbd 01ea 633b
000000e0: 9da0 703e 63e1 63be a60a 3dbe 790c 9abd
000000f0: ffcf 88be 11ab 60be 26ea 533e 0a4d 21bb

gnn_layers.0.gnn.att_em_i f4 [1, 1, 64]
-0.019801999 -0.01594836 0.025266847 0.018014194 0.0071553146 -0.022197157 0.011952923 -0.0053834314
-0.01319648 -0.0095187975 -0.010623334 0.0128722945 0.00041043438 0.00038705228 -0.011134508 0.008441215
-0.011325332 0.02496072 0.006760809 0.017484 0.027120354 0.01744526 0.0139940595 0.0010815391
-0.028911171 -0.0052630524 -0.016452732 0.015699532 0.007748209 -0.013974881 0.007953972 0.013799001
0.025606902 0.009943953 0.0028753118 -0.00037664076 0.040256362 -0.010995207 -0.005107822 0.009154311
-0.021982735 -0.008406862 0.017878668 -0.020319765 0.009457071 0.004212092 0.005629123 0.0047367997
-0.027775804 0.00037020675 -0.009423215 -0.025220659 -0.0023541672 0.03131503 -0.013511303 0.0038103955
-0.019104654 -0.018544188 -0.0065793395 0.022363989 0.015128481 -0.045961935 -0.022892836 -0.0187507
00000000: cd37 a2bc 23a6 82bc 6bfc ce3c 8192 933c
00000010: 2177 ea3b d0d6 b5bc 31d6 433c 7f67 b0bb
00000020: 0d36 58bc bbf4 1bbc 7e0d 2ebc 51e6 523c
00000030: 922f d739 47ed ca39 836d 36bc 064d 0a3c
00000040: e38d 39bc 6d7a cc3c c789 dd3b 9b3a 8f3c
00000050: 812b de3c 5de9 8e3c 5747 653c 6ec2 8d3a
00000060: 1fd7 ecbc af75 acbb e1c7 86bc 4e9c 803c
00000070: b0e4 fd3b e6f6 64bc 6051 023c 3515 623c
00000080: 91c5 d13c f6eb 223c ba6f 3c3b de77 c5b9
00000090: dbe3 243d 3e25 34bc 845f a7bb f7fb 153c
000000a0: 2315 b4bc efbc 09bc 4976 923c a375 a6bc
000000b0: d5f1 1a3c 9705 8a3b 8274 b83b 2837 9b3b
000000c0: 158a e3bc 4f18 c239 d463 1abc 8e9b cebc
000000d0: 5f48 1abb 3044 003d 835e 5dbc d4b7 793b
000000e0: 5d81 9cbc fbe9 97bc 8097 d7bb af34 b73c
000000f0: 73dd 773c 9542 3cbd c289 bbbc 119b 99bc

gnn_layers.0.gnn.att_em_j f4 [1, 1, 64]
-0.047835104 -0.035063405 0.0420517 -0.03046182 -0.038934864 0.044506136 -0.040709876 -0.006523249
0.032316253 -0.020705855 -0.00018507703 -0.0004791148 0.007831159 0.022906678 -0.05823927 -0.0135728195
0.038012818 0.03487427 0.041814357 -0.04586819 0.044205397 0.015664287 -0.009044471 0.04248052
-0.028602699 0.0058252667 -0.010632413 0.036609504 0.029436635 -0.01869834 -0.029841516 0.046011392
-0.018795045 0.028575057 0.027777277 -0.014228153 -0.038586363 -0.014014266 0.03582078 -0.031121336
0.00057288527 -0.021442786 0.025208704 -0.044229336 0.024736531 0.012638888 0.04843032 0.04680628
-0.04587542 0.008974193 -0.006293402 0.020708203 -0.04592488 0.01543873 0.013209926 0.0172585
0.0125119295 -0.029834244 0.047553338 -0.0142269535 0.041263968 0.03632418 0.0127389245 -0.02750183
00000000: beee 43bd a59e 0fbd 673e 2c3d 118b f9bc
00000010: 2a7a 1fbd 114c 363d 66bf 26bd fbc0 d5bb
00000020: 0c5e 043d 539f a9bc 3d11 42b9 b331 fbb9
00000030: 434e 003c c9a6 bb3c 4d8c 6ebd 8860 5ebc
00000040: 54b3 1b3d 53d8 0e3d 8845 2b3d 48e0 3bbd
00000050: b810 353d 6452 803c 432f 14bc 0e00 2e3d
00000060: 3550 eabc e1e1 be3b 9333 2ebc d9f3 153d
00000070: 1925 f13c 432d 99bc 3276 f4bc 7176 3c3d
00000080: 11f8 99bc 3d16 ea3c 2c8d e33c 331d 69bc
00000090: bc0c 1ebd 189c 65bc cfb8 123d 2cf2 febc
000000a0: ae2d 163a c8a8 afbc 7c82 ce3c d229 35bd
000000b0: 44a4 ca3c 5713 4f3c df5e 463d f1b7 3f3d
000000c0: dde7 3bbd 7e08 133c e238 cebb 40a4 a93c
000000d0: ba1b 3cbd baf2 7c3c 726e 583c b361 8d3c
000000e0: d6fe 4c3c f266 f4bc 4ac7 423d 2b18 69bc
000000f0: 6804 293d aac8 143d ecb6 503c 854b e1bc

gnn_layers.0.gnn.bias f4 [64]
-0.000766425 0.00063816045 5.7851066e-05 -0.00065125147 0.0014848658 -0.0025807885 -0.0010016127 -0.00242743
-0.0009823379 -0.0011430352 -4.7540718e-05 0.0035526792 0.0013383583 0.00019536022 -0.0032484976 0.0007998637
0.0017496884 0.0028613065 -0.00022963219 1.5649102e-05 -0.0026386115 0.001140859 0.0013553741 -0.0025966607
0.0003447799 -0.0013170325 0.0012096041 0.0049648215 -0.001610139 -0.0041618827 -0.0031901656 -0.004793019
0.0018152695 -0.0005885678 -0.0019696592 0.00016205892 -0.00065592537 8.712784e-05 -0.0002194138 -0.0003977385
0.000117398864 0.00025020394 7.072758e-05 0.0012905776 -5.604987e-06 0.0030494297 -0.0011401222 0.0005321073
-0.002661848 0.0015002264 -6.912344e-05 -0.00083045434 0.0005317397 0.00023333008 -0.0005280699 -0.0051793666
-0.0018743201 -0.010612926 -0.0014558866 0.0016314486 -0.00038883238 -3.6462137e-05 0.0022269792 -0.00080130546
00000000: e9e9 48ba 394a 273a 1ca5 7238 bfb8 2aba
00000010: d49f c23a 7222 29bb 8c48 83ba 8415 1fbb
00000020: cac1 80ba e6d1 95ba 7566 47b8 11d4 683b
00000030: da6b af3a 9cd9 4c39 bfe4 54bb f2ad 513a
00000040: cd55 e53a c284 3b3b 6cc9 70b9 3146 8337
00000050: 8eec 2cbb e088 953a cfa6 b13a bd2c 2abb
00000060: 93c3 b439 47a0 acba 948b 9e3a f1af a23b
00000070: 4d0b d3ba 6760 88bb 1912 51bb c20e 9dbb
00000080: 56ee ed3a 1e4a 1aba 6615 01bb 5cee 2939
00000090: 68f2 2bba 67b8 b638 7212 66b9 8f87 d0b9
000000a0: 0934 f638 ce2d 8339 9553 9438 9928 a93a
000000b0: 7912 bcb6 f1d8 473b 2770 95ba 1e7d 0b3a
000000c0: 6672 2ebb 3fa3 c43a 5df6 90b8 d9b2 59ba
000000d0: 7264 0b3a 11aa 7439 2c6e 0aba adb7 a9bb
000000e0: bfab f5ba d7e1 2dbc 73d3 beba 55d6 d53a
000000f0: 33dc cbb9 ecee 18b8 83f2 113b b30e 52ba

gnn_layers.0.gnn.lin.weight f4 [64, 15]
0.11638966 -0.054622732 0.27854264 0.015542509 -0.12651528 0.086155005 0.15443662 0.013001065
0.24537735 -0.16539754 0.122178674 0.15807264 0.14357685 0.011048701 0.0824384 -0.22828062
-0.2232128 -0.024563693 -0.04344135 0.19879752 0.19302078 0.18681382 -0.12268931 -0.21237557
-0.25546917 0.10961656 -0.23243013 -0.25372198 -0.11471755 -0.2052249 -0.112996176 -0.17254432
-0.14280064 0.25595927 -0.05567846 0.22245574 -0.0038989766 -0.032421075 -0.077760145 -0.19241203
-0.21679652 0.18343788 -0.085328676 -0.2628622 0.25537425 0.0062870937 -0.18707538 -0.21687227
-0.23551238 -0.24786426 0.2436254 0.17761517 0.0033651025 -0.2532294 -0.08745978 -0.28331107
0.058915507 -0.11574235 -0.10572315 -0.13948485 0.12958999 0.1558745 0.06694342 -0.02803026
-0.015774684 0.006975189 -0.19220684 0.28825533 -0.09594829 0.18120728 -0.12601678 0.037188932
0.13559178 -0.20849895 0.17631459 -0.19166555 0.056443624 -0.037207965 0.177294 0.28418386
0.07773435 0.005000244 -0.12214772 0.11390321 -0.12278847 0.11991876 -0.11269047 0.19611256
0.2224056 0.18253343 -0.019827692 0.10825597 -0.27072167 0.20005596 -0.094484724 0.07729125
-0.06800548 -0.118289575 -0.15265602 0.15695783 -0.17076129 -0.07719108 0.10092916 -0.014414669
-0.27501845 -0.27739102 -0.13911645 0.2473615 -0.20262045 0.14568396 0.19366002 -0.12266058
-0.13644403 -0.2088937 0.03463565 -0.047231384 0.00555617 0.108086884 0.10178556 -0.1041153
0.0015426622 0.048099328 -0.0077738175 0.0393469 -0.1253145 0.21627422 -0.040058058 -0.035353497
-0.23964949 -0.19111119 0.014566883 -0.037533358 -0.1279253 0.15900274 -0.007302658 0.10899205
0.240715 -0.11678045 -0.12017645 -0.039002735 -0.006470768 -0.12804145 -0.048809756 0.005915734
0.13596095 0.26332232 0.21170127 0.043559846 0.002469763 0.08619761 0.010305803 -0.015818072
0.115236126 -0.20189632 -0.21110782 0.024535077 -0.06081379 -0.10844461 -0.23062 0.20797658
0.014743653 -0.11581845 -0.07097336 0.1178944 -0.1510346 0.010697966 -0.005717404 0.09191121
0.1080433 -0.17263672 0.12534405 0.21945791 0.034789253 0.15783574 -0.08584756 0.07885582
0.10915798 -0.09608263 0.20396183 -0.22200038 -0.12326004 -0.18034491 -0.18252932 -0.1873058
-0.27975616 0.026801458 -0.07171767 -0.2537527 -0.01886711 -0.06213397 0.0984159 -0.23376994
-0.10330023 0.02650847 0.088721044 0.0068167886 0.06498819 0.2633751 -0.110759474 0.17202865
0.22057974 -0.25652456 0.052734964 0.14639626 -0.05326931 0.14728752 0.0089665605 0.20480742
-0.00034253387 -0.17835528 0.20499235 0.07971246 0.22713591 0.058862347 0.13092718 0.15331382
0.034523085 -0.08118109 0.043757178 -0.20419207 -0.003108416 -0.10130195 -0.0027536377 -0.24007308
0.14523216 -0.26636693 0.10350414 0.16635653 -0.26857248 0.2341026 -0.21118078 -0.0593205
0.14066331 -0.08922943 0.23890407 -0.1254063 -0.039713573 -0.17357425 -0.11812343 0.27456522
0.21444042 0.023548683 0.022197453 -0.23584124 0.19521986 -0.05737104 -0.13311514 -0.24022017
0.20622413 0.11180586 0.14756039 0.013019758 -0.20713776 0.09078078 0.009895707 0.09395564
00000000: b45d ee3d 16bc 5fbd 249d 8e3e 02a6 7e3c
00000010: 398d 01be 0972 b03d a224 1e3e 6b02 553c
00000020: 3344 7b3e f95d 29be d038 fa3d cbdd 213e
00000030: cf05 133e 9c05 353c 77d5 a83d 65c2 69be
00000040: e591 64be cc39 c9bc 8fef 31bd 9491 4b3e
00000050: 3da7 453e 1f4c 3f3e 8844 fbbd fb78 59be
00000060: dbcc 82be a67e e03d 2a02 6ebe d9e7 81be
00000070: 09f1 eabd 7a26 52be 8a6a e7bd 75af 30be
00000080: 553a 12be 180d 833e 190f 64bd 70cb 633e
00000090: f985 7fbb f6cb 04bd b640 9fbd a907 45be
000000a0: e8ff 5dbe 24d7 3b3e cdc0 aebd e095 86be
000000b0: 6ac0 823e f703 ce3b b090 3fbe c413 5ebe
000000c0: 282a 71be 21d0 7dbe f078 793e c0e0 353e
000000d0: 0d89 5c3b 49a7 81be 1d1e b3bd 260e 91be
000000e0: 6351 713d 530a edbd 6185 d8bd 1ed5 0ebe
000000f0: 3db3 043e 919d 1f3e a219 893d b79f e5bc
00000100: e939 81bc 2090 e43b dfd1 44be 3496 933e
00000110: 8980 c4bd 678e 393e 8b0a 01be 6c53 183d
00000120: 92d8 0a3e c080 55be d08b 343e f943 44be
00000130: 6e31 673d 6167 18bd 8f8c 353e 8c80 913e
00000140: 3033 9f3d 16d9 a33b 9528 fabd 1646 e93d
00000150: 8578 fbbd f897 f53d 43ca e6bd bbd1 483e
00000160: 4bbe 633e 0bea 3a3e af6d a2bc 4eb5 dd3d
00000170: 089c 8abe 78db 4c3e 3581 c1bd e04a 9e3d
00000180: 7546 8bbd ce41 f2bd dc51 1cbe 8eb9 203e
00000190: 0cdc 2ebe 5b16 9ebd f3b3 ce3d 812b 6cbc
000001a0: 38cf 8cbe 3206 8ebe 8b74 0ebe 554c 7d3e
000001b0: bc7b 4fbe 2d2e 153e d04e 463e 7835 fbbd
000001c0: fcb7 0bbe 3be8 55be 1dde 0d3d b275 41bd
000001d0: 8810 b63b a85c dd3d f374 d03d 673a d5bd
000001e0: 2733 ca3a cd03 453d 82bb febb 372a 213d
000001f0: 7252 00be fd76 5d3e eb13 24bd d4ce 10bd
00000200: ad66 75be a7b2 43be f0a9 6e3c 94bc 19bd
00000210: dafe 02be 9dd1 223e 234b efbb 3937 df3d
00000220: fe7d 763e 972a efbd 121f f6bd 55c1 1fbd
00000230: bc08 d4bb 4c1d 03be bdec 47bd c6d8 c13b
00000240: 5939 0b3e 2fd2 863e 38c8 583e cf6b 323d
00000250: bfdb 213b 5f88 b03d acd9 283c e794 81bc
00000260: eb00 ec3d e9bd 4ebe a62c 58be c9fd c83c
00000270: e117 79bd 3518 debd a627 6cbe d0f7 543e
00000280: 5d8f 713c 3932 edbd 7b5a 91bd 9f72 f13d
00000290: d0a8 1abe 8646 2f3c 1059 bbbb f23b bc3d
000002a0: ce45 dd3d aec7 30be 315a 003e 93b9 603e
000002b0: 2d7f 0e3d b19f 213e d8d0 afbd 297f a13d
000002c0: 388e df3d f8c6 c4bd 5fdb 503e 1154 63be
000002d0: c36f fcbd 56ac 38be f7e8 3abe 17cd 3fbe
000002e0: 333c 8fbe bb8e db3c b7e0 92bd e0eb 81be
000002f0: 338f 9abc 3180 7ebd 468e c93d 6361 6fbe
00000300: 128f d3bd 4a28 d93c 61b3 b53d 5e5f df3b
00000310: 8718 853d 1ad9 863e ddd5 e2bd 4728 303e
00000320: a8df 613e 3057 83be 9e00 583d e7e8 153e
00000330: ec30 5abd 8ad2 163e 7be8 123c 09b9 513e
00000340: 1e96 b3b9 c4a2 36be 84e9 513e 4940 a33d
00000350: 5196 683e a519 713d c611 063e 4cfe 1c3e
00000360: 1468 0d3d 4542 a6bd ba3a 333d ba17 51be
00000370: 91b6 4bbb 6677 cfbd 6076 34bb b8d5 75be
00000380: bdb7 143e 3f61 88be fbf9 d33d 5e59 2a3e
00000390: 5582 89be 98b8 6f3e c63f 58be 0dfa 72bd
000003a0: 0b0a 103e ebbd b6bd 45a3 743e 826a 00be
000003b0: b3aa 22bd 73bd 31be b2ea f1bd d093 8c3e
000003c0: 4596 5b3e 2be9 c03c 6fd7 b53c 5e80 71be
000003d0: b7e7 473e e5fd 6abd 564f 08be 47fc 75be
000003e0: 6b2c 533e 79fa e43d 121a 173e d350 553c
000003f0: ec1b 54be 46eb b93d 9a21 223c d16b c03d

gnn_layers.0.bn.weight f4 [64]
0.93125266 1.006022 0.9651905 0.9679611 0.9488475 0.931689 0.9625928 0.9623622
0.99691457 0.92943454 1.0246341 0.92768306 0.9592546 0.9263444 0.94107085 0.9548
0.94225675 0.9295375 0.93196577 0.93881226 0.93856716 0.92976236 0.92822665 0.97334754
0.93257004 0.9479107 0.99715286 0.9526042 0.9682365 0.93574154 0.9609039 0.9838453
0.9656027 0.9450784 0.9723574 1.0160633 0.9131663 0.9660499 0.95782757 0.9395993
0.9452444 0.9287499 0.9534436 0.95630604 0.9814162 1.0021926 0.92114586 0.9976367
0.967551 0.9258808 0.96286756 0.9895501 0.9529227 0.9679333 1.0053077 0.95636606
1.0081758 0.9308066 1.0018003 0.95551264 0.9538873 0.9461707 0.93932736 0.9794511
00000000: 9366 6e3f 54c5 803f b916 773f 4ccc 773f
00000010: abe7 723f 2c83 6e3f 7b6c 763f 5e5d 763f
00000020: cb35 7f3f 6cef 6d3f 3627 833f a37c 6d3f
00000030: b691 753f e824 6d3f 05ea 703f c66d 743f
00000040: bd37 713f 2bf6 6d3f 4f95 6e3f 0056 703f
00000050: f045 703f e804 6e3f 43a0 6d3f 4e2d 793f
00000060: e9bc 6e3f 47aa 723f 6945 7f3f dedd 733f
00000070: 59de 773f c28c 6f3f ccfd 753f 49dd 7b3f
00000080: bd31 773f a8f0 713f 6aec 783f 5d0e 823f
00000090: 44c5 693f 0c4f 773f 3034 753f 9489 703f
000000a0: 89fb 713f 8ec2 6d3f e114 743f 79d0 743f
000000b0: 183e 7b3f d947 803f 37d0 6b3f 1e65 7f3f
000000c0: 6cb1 773f 8606 6d3f 7d7e 763f 2853 7d3f
000000d0: bef2 733f 7aca 773f ecad 803f 68d4 743f
000000e0: e80b 813f 5749 6e3f fe3a 803f 7a9c 743f
000000f0: f531 743f 3e38 723f c277 703f 4fbd 7a3f

gnn_layers.0.bn.bias f4 [64]
-0.04600594 0.045549612 0.06409501 0.058343753 -0.042142633 0.06537406 0.058844253 -0.015719125
0.010123338 -0.046288036 0.029098496 -0.051608406 -0.03245092 0.055027932 0.055113275 0.054414183
0.04974166 0.06408007 -0.043505605 -0.049281623 0.062819794 0.057716317 -0.05602043 0.02933106
-0.04607221 0.0564747 -0.008412848 0.045225613 0.038183566 0.05680539 0.063984305 0.017845025
-0.036217604 0.051895533 0.070195004 -0.0069866623 0.07213767 0.06352981 0.04273656 0.07045025
-0.031616595 -0.046043757 0.05090647 0.058653604 0.015400833 -0.008056524 -0.058230847 -0.0005256714
0.024962824 -0.05435064 0.037782412 -0.018364042 0.0348905 -0.018201021 0.07026296 0.045555197
0.0057282993 0.06510326 0.028502688 0.045194857 0.038550057 0.06585627 0.049829725 0.035779502
00000000: b970 3cbd 3b92 3a3d 3f44 833d dcf9 6e3d
00000010: c19d 2cbd d6e2 853d ac06 713d 65c5 80bc
00000020: 5bdc 253c 8698 3dbd f85f ee3c 5663 53bd
00000030: 42eb 04bd f864 613d 75be 613d 68e1 5e3d
00000040: e9bd 4b3d 693c 833d ef32 32bd 87db 49bd
00000050: aaa7 803d f267 6c3d ae75 65bd b147 f03c
00000060: 37b6 3cbd 0452 673d 0bd6 09bc 7e3e 393d
00000070: 5f66 1c3d c5ac 683d 340a 833d bb2f 923c
00000080: e958 14bd 6990 543d 66c2 8f3d 5ff0 e4bb
00000090: eabc 933d eb1b 823d 880c 2f3d 3848 903d
000000a0: 6780 01bd 6198 3cbd 4d83 503d c33e 703d
000000b0: c753 7c3c 83ff 03bc 7883 6ebd 36cd 09ba
000000c0: d67e cc3c c79e 5ebd bbc1 1a3d 3070 96bc
000000d0: 57e9 0e3d 4f1a 95bc 07e6 8f3d 1698 3a3d
000000e0: 75b4 bb3b dc54 853d 787e e93c 3e1e 393d
000000f0: aae6 1d3d a7df 863d 411a 4c3d 878d 123d

gnn_layers.0.bn.running_mean f4 [64]
0.5118186 -0.5902647 -0.19260506 -0.6525847 0.23010512 0.4094309 -0.29603058 -0.18201761
-0.15431528 0.30517504 -0.32064694 0.26342973 -0.66973144 0.31726897 0.16181596 -0.091909856
0.065894864 0.17297567 0.42753935 0.13229035 -0.034619413 0.282458 0.5887967 -0.30474418
0.30591637 0.41847777 0.37810057 -0.25382304 -0.12842156 0.16008894 -0.055919934 -0.09592422
-0.23448831 0.05874444 -0.29185927 0.029882342 0.5563429 -0.31868127 -0.29236758 -0.254525
0.11226629 0.5064561 -0.006220411 -0.55093986 -0.06589278 -0.2565017 0.0976527 0.21359028
-0.100283295 0.27871108 -0.33747506 -0.8083122 -0.24122551 -0.845104 -0.53130686 0.007262044
-0.40210745 0.12936285 -0.4436466 -0.24448012 -0.6391695 0.09922507 -0.16627565 -0.18305746
00000000: 8b06 033f 961b 17bf 433a 45be ca0f 27bf
00000010: ada0 6b3e eda0 d13e 5291 97be d362 3abe
00000020: d304 1ebe e73f 9c3e d62b a4be 43e0 863e
00000030: 8573 2bbf 1471 a23e 15b3 253e 3c3b bcbd
00000040: e3f3 863d 8920 313e 70e6 da3e 1f77 073e
00000050: 16cd 0dbd 569e 903e 61bb 163f 6e07 9cbe
00000060: 12a1 9c3e b842 d63e 6696 c13e 18f5 81be
00000070: f180 03be 5bee 233e 4d0c 65bd eb73 c4bd
00000080: b41d 70be 039e 703d 946e 95be d0cb f43c
00000090: 7d6c 0e3f 312a a3be 34b1 95be 1a51 82be
000000a0: deeb e53d 1ba7 013f 97d4 cbbb 650a 0dbf
000000b0: cbf2 86bd 3154 83be 24fe c73d 69b7 5a3e
000000c0: 5461 cdbd 38b3 8e3e 88c9 acbe 8ced 4ebf
000000d0: d203 77be bc58 58bf ba03 08bf 71f6 ed3b
000000e0: 07e1 cdbe b277 043e a625 e3be ff58 7abe
000000f0: 9da0 23bf 8336 cb3d 2a44 2abe 6a73 3bbe

gnn_layers.0.bn.running_var f4 [64]
0.891162 1.1582522 0.12547588 1.430841 0.18431781 0.5774032 0.29968333 0.11357533
0.08203679 0.31633118 0.35340157 0.23279354 1.5632005 0.34656513 0.119997315 0.030309474
0.016396444 0.09679781 0.61328375 0.06641073 0.02219077 0.27367818 1.1728041 0.3244804
0.33125725 0.60607386 0.48771378 0.2300054 0.056941863 0.093726255 0.0182417 0.035933718
0.19689032 0.013085139 0.31807953 0.0068309507 1.0809088 0.34324136 0.2917775 0.23885626
0.056839205 0.8991893 0.0021835605 1.052313 0.016532082 0.23809715 0.03939782 0.16593589
0.03861405 0.26070958 0.3888927 2.2326493 0.21725442 2.457506 0.9720636 0.007099334
0.5455152 0.07024916 0.6635361 0.20987669 1.3755165 0.04626184 0.10717711 0.12714772
00000000: 3123 643f 9c41 943f c07c 003e cc25 b73f
00000010: cfbd 3c3e b2d0 133f 1870 993e 2f9a e83d
00000020: e802 a83d 29f6 a13e 0df1 b43e 6e61 6e3e
00000030: f416 c83f fc70 b13e 27c1 f53d 934b f83c
00000040: d651 863c ee3d c63d 2a00 1d3f 5902 883d
00000050: 6bc9 b53c 8c1f 8c3e 721e 963f 4c22 a63e
00000060: 8d9a a93e a827 1b3f 9fb5 f93e 8986 6b3e
00000070: df3b 693d 8df3 bf3d 9e6f 953c 3c2f 133d
00000080: 9e9d 493e 0d63 563c 52db a23e 2bd6 df3b
00000090: 385b 8a3f 55bd af3e dc63 953e bc96 743e
000000a0: 3ad0 683d 4531 663f 111a 0f3b 31b2 863f
000000b0: 4a6e 873c bdcf 733e 9c5f 213d 19eb 293e
000000c0: c429 1e3d ba7b 853e f21c c73e bae3 0e40
000000d0: f177 5e3e c747 1d40 29d9 783f 88a1 e83b
000000e0: e2a6 0b3f cbde 8f3d 80dd 293f eae9 563e
000000f0: ed10 b03f 0e7d 3d3d ac7f db3d 0333 023e

out_layer.mlp.0.weight f4 [1, 64]
-0.07980969 -0.05034918 -0.029006593 -0.06422211 -0.07390991 0.093914874 -0.041017592 0.07937769
-0.0817006 -0.041614257 0.043902352 -0.07908742 0.05760607 0.059397146 0.10306143 -0.08154597
0.07288055 0.09268338 -0.04384304 -0.013065545 0.053004917 0.060763545 -0.103450775 0.11288092
-0.009964648 0.051508397 -0.061244033 -0.096272856 -0.07544887 0.07298486 -0.08122338 0.05300963
0.006651335 0.04015921 -0.060544472 -0.046141863 -0.095099434 -0.090839535 0.15795273 -0.036701027
-0.024501031 -0.08313136 0.014724684 -0.15287367 0.010678162 0.08402961 -0.061649375 0.023408476
-0.02191933 -0.06646153 -0.10707158 0.05423415 -0.08455637 0.028466022 0.08751359 0.07138835
-0.089411795 0.10281452 -0.13759723 -0.092512585 0.07949394 0.02330709 -0.06614792 -0.037137784
00000000: 4373 a3bd f13a 4ebd 3c9f edbc e286 83bd
00000010: 145e 97bd 7156 c03d 1002 28bd c590 a23d
00000020: a552 a7bd b673 2abd f4d2 333d 96f8 a1bd
00000030: 58f4 6b3d 6c4a 733d df11 d33d 9301 a7bd
00000040: 6642 953d c9d0 bd3d c294 33bd de10 56bc
00000050: af1b 593d 32e3 783d 00de d3bd 1d2e e73d
00000060: c342 23bc 78fa 523d 06db 7abd b42a c5bd
00000070: f084 9abd 1679 953d 7258 a6bd a020 593d
00000080: 71f3 d93b fc7d 243d 7bfd 77bd 40ff 3cbd
00000090: 7ec3 c2bd 140a babd 5cbe 213e d153 16bd
000000a0: 63b6 c8bc c640 aabd cd3f 713c ea8a 1cbe
000000b0: 75f3 2e3c b717 ac3d 0e84 7cbd 22c3 bf3c
000000c0: 2b90 b3bc fc1c 88bd 5848 dbbd a124 5e3d
000000d0: e42b adbd 9331 e93c 533a b33d 0e34 923d
000000e0: 881d b7bd 6b90 d23d 4ae6 0cbe 3d77 bdbd
000000f0: b8cd a23d 83ee be3c 9078 87bd ca1d 18bd
