pretrained/best_02_16-17_35_49.pt (torch_old, 30900 bytes, 16 tensors)

embedding.weight f4 [79, 64]
000000 62 bc 22 bd bf 0f 61 3d 51 2f 9b 3d 99 ab 5c be
       -0.039730437 0.054946657 0.07577384 -0.21549834
000010 25 8f 10 3e d7 a2 11 3e 6e 25 0e 3e 85 0f 9e be
       0.14117105 0.14222275 0.13881466 -0.30871215
000020 6f 6c b5 be f0 76 92 3e 81 fe 9a be 94 60 d4 bc
       -0.3543429 0.28606367 -0.30272296 -0.025924958
000030 08 8f 84 be 4c 5d af be b3 d8 13 bd 1a 81 8d be
       -0.25890374 -0.34250867 -0.036095332 -0.2763756
000040 1b 4e a4 bb ae 7a 7e 3d 9e 44 19 3d cc 0d c1 be
       -0.0050141937 0.062128715 0.037418954 -0.3770584
000050 19 df 99 bd bc 65 3e be bc 47 14 bd 25 f3 0d bc
       -0.075132556 -0.18593496 -0.036201224 -0.008663927
000060 fd 8d 31 be 1d 99 c1 bc 9b d4 09 bd 22 24 79 be
       -0.1733932 -0.02363258 -0.033650022 -0.2433019
000070 ab 75 4b 3d 04 cb e3 ba 0d 0a 61 bd 84 43 81 3d
       0.049672764 -0.0017379229 -0.054941226 0.06311706
000080 c9 d2 c0 bd 12 fb dc 3d bb c6 3b 3e de 09 9c be
       -0.09415204 0.10790075 0.18337528 -0.30476278
000090 0b a4 98 3d b9 a7 c3 3e be 93 0c 3e 40 d4 46 bb
       0.07453164 0.382139 0.13728234 -0.0030338913
0000a0 e0 49 b3 be 51 4d a0 be 68 c4 0c 3e 47 18 67 3d
       -0.350173 -0.31308988 0.13746798 0.056419637
0000b0 aa 5b b7 3d 9c c4 b9 be 9c ee 77 be 46 3a 99 3d
       0.089530304 -0.36282814 -0.24212116 0.07481818
0000c0 62 17 64 bd a4 b1 dc 3d 6e c9 12 bc ea 2c 2f 3d
       -0.055686362 0.1077607 -0.008959157 0.042767443
0000d0 99 e3 18 bf 6e c1 a4 be e8 cf b7 bb dc a6 4a bd
       -0.59722286 -0.32178825 -0.005609501 -0.049475536
0000e0 35 d4 fe 3d 52 8a 9d 3d 20 e1 83 be ac 56 a2 be
       0.12442819 0.07692398 -0.25757694 -0.3170675
0000f0 4d 08 94 bc d7 dc 61 3d 6d 4e 2d be de f1 de 3d
       -0.018070364 0.05514225 -0.16924448 0.10885976
000100 b4 f1 cc 3c 19 4c 71 3d 69 5a 83 be 87 db 9d 3d
       0.025017597 0.058910463 -0.25654915 0.07707887
000110 2c 2f ca 3d b8 aa 52 3d 95 c0 c3 3d 78 c2 bb 3d
       0.098722786 0.05143234 0.095582165 0.09167951
000120 82 ae ff 3d 87 fc 49 3e f6 6d 1d 3e cd 66 81 bd
       0.124844566 0.19725238 0.15373978 -0.06318436
000130 51 7f 8a bd bd 5e 18 bb 66 5a 2b bc 17 82 c5 be
       -0.06762565 -0.0023249828 -0.010458564 -0.38575813
000140 8e 47 2e be 1d 42 99 3c 18 98 2d 3e 17 38 9b 3d
       -0.17019483 0.018708283 0.1695255 0.07579058
000150 d2 2c 6d bd 73 6b 19 bc 95 96 ae 3b cb d6 3f be
       -0.057904072 -0.009363997 0.0053280094 -0.18734281
000160 27 b5 f1 3a 0b 92 d2 3d ce e6 f4 bd 76 98 17 be
       0.0018440828 0.10281762 -0.11958085 -0.14804253
000170 5b df db 3d a8 db 98 3c 54 c8 be bd a0 3e 64 3d
       0.10735961 0.018659428 -0.09315553 0.055723786
000180 94 bb 31 bc 37 dc c4 3d 3d 1e 79 3e 74 5c 62 bc
       -0.010847945 0.09612315 0.24327941 -0.013815988
000190 74 78 fa 3d 86 a7 17 3f b7 42 7c be 0a c9 7d be
       0.12230006 0.59239995 -0.24634825 -0.24783722
0001a0 ec e9 92 bd b6 d5 ac be 7a 5a 2b 3e 0a d5 ad 3d
       -0.07173523 -0.33756799 0.16733733 0.084878996
0001b0 d9 1d fa be 87 b8 09 3e 15 aa 97 3e ae 06 10 bf
       -0.48850897 0.13449298 0.2962195 -0.5626019
0001c0 ab df f5 3c 08 a5 0e 3e e6 0e 33 3d b8 3d 53 be
       0.03001388 0.13930142 0.04371538 -0.20629013
0001d0 69 81 d1 be 96 42 ea bb 2b 67 8f bd 4c a9 0f 3f
       -0.40919045 -0.007149051 -0.070020996 0.561177
0001e0 93 f3 e6 3d 72 a2 97 bd 43 6f 3c 3e 2e 49 c3 3e
       0.11276927 -0.07404031 0.18401818 0.3814177
0001f0 b0 bd 21 bc 01 c9 e6 3d 4e ac e1 3d 7b a6 1b 3d
       -0.009871885 0.11268807 0.11019193 0.038000565
000200 1d 5b 01 be ee db 13 bc ea da b2 bd 93 a6 58 3d
       -0.12632413 -0.009024603 -0.08733161 0.052893233
000210 89 6b 7e 3e fe a2 d2 3d 56 a3 8b 3d 9a 9f ba 3d
       0.24845709 0.102849945 0.06818263 0.09112473
000220 62 5e 3f 3e ed 3f 0f 3e 39 3a 1e 3e 0e fc 80 be
       0.18688348 0.1398923 0.15451898 -0.25192302
000230 db d9 8a bd ee c8 95 bb 98 8e 39 bc 0d cd c5 be
       -0.06779834 -0.004571072 -0.011325501 -0.38633004
000240 d3 3c 0c 3c 52 cf 1a bb a2 bd b5 3e 77 51 03 3e
       0.0085594235 -0.0023622108 0.3549624 0.12824045
000250 5f a7 6c bd 4f 70 d2 bd ed 67 82 be a6 4e 4c be
       -0.057776805 -0.102753274 -0.25469914 -0.19951877
000260 61 39 b8 bc d0 e2 d3 3d 3c ba b4 ba c3 24 80 be
       -0.022488298 0.103459954 -0.0013788412 -0.25028047
000270 36 4a db 3d 24 54 ce 3d 46 38 e1 bd f8 ee d4 3c
       0.10707514 0.10074642 -0.109970614 0.025992855
000280 f4 fb 10 bc 6f 5a c4 3d 5e 47 e5 3e 14 41 28 be
       -0.008849133 0.09587561 0.4478101 -0.16431075
000290 c1 07 f9 3d b9 84 a4 3c cf bb 56 3d 07 53 b0 be
       0.12159682 0.020082818 0.052425202 -0.34438345
0002a0 25 5e 92 bd 13 d3 79 be 94 79 2c 3e 78 6a ae 3d
       -0.07146863 -0.24396925 0.16843253 0.08516401
0002b0 d2 47 dc be 88 e5 56 3e 37 aa 8e 3e c7 bf 48 be
       -0.43023545 0.20985997 0.2786424 -0.19604407
0002c0 f8 77 ca 3c 07 62 65 be e2 97 15 3d 78 73 5d be
       0.024715409 -0.22400676 0.0365218 -0.21626079
0002d0 a9 41 eb bd a2 6a 09 bd 4f 61 b9 be e5 ce f4 3e
       -0.11487133 -0.03354896 -0.36207053 0.47814098
0002e0 db 00 e6 3d fd 45 69 be d1 d1 3d 3e 83 c8 d7 3e
       0.11230632 -0.22780605 0.1853707 0.42145166
0002f0 3b d6 00 be 5e 89 e2 3d 44 c8 71 3e 62 a0 88 3e
       -0.12581722 0.11061357 0.23611552 0.26684862
000300 0b 07 1f 3e 02 52 20 3e 8e 2d 15 3e 26 d2 50 bf
       0.1553003 0.15656283 0.14568159 -0.8157066
000310 3b fc 01 bd a7 b6 9a bc 2e b1 06 3e 1a df d4 3d
       -0.031734686 -0.018885924 0.13153526 0.10394116
000320 3d 1d 9f be fb f6 37 be 7d 29 99 3c c4 ab bd be
       -0.31076995 -0.1796531 0.018696541 -0.3704511
000330 8b b7 7a bd 08 33 80 3d a6 9c b6 be 57 9e 9b be
       -0.061210196 0.062597334 -0.35666388 -0.3039424
000340 36 0d 37 be 68 4f 01 3e db ce 6a 3d da b1 2f 3e
       -0.17876133 0.12627947 0.05732618 0.17157689
000350 7c 84 c0 bd 4b 5f 95 3d 14 d2 45 be dd 7d 29 3d
       -0.094002694 0.07293566 -0.1931842 0.0413798
000360 14 9e 9c be d6 60 06 3e db 73 ff bd 41 05 ef 3d
       -0.30589354 0.13122877 -0.124732696 0.11670924
000370 a0 f4 03 3e 9e c1 ca 3c a2 2d 58 bc ad c3 11 bc
       0.12886286 0.024750527 -0.013194473 -0.00889675
000380 2f f3 d7 3d 10 19 e1 3d 70 b4 da bc c3 86 92 3d
       0.105444305 0.109911084 -0.026697367 0.0715461
000390 b3 6e 0d 3e 79 2e 1b 3d 0a 0a 78 3b ce 3d e6 3d
       0.1381176 0.037886117 0.003784778 0.11242257
0003a0 81 50 7d bd ea 1e d5 3d 20 ae 3d 3e 43 0d e3 3d
       -0.061844353 0.10406287 0.18523455 0.11086514
0003b0 ed f2 29 3e 6a 82 ce be dd 6e 17 be e5 e1 0f 3e
       0.16596575 -0.40333873 -0.14788385 0.14051016
0003c0 cc b2 e6 3d c7 9e 4d 3e 2e 58 41 be cd 08 43 3e
       0.112645715 0.200801 -0.18881294 0.19046326
0003d0 80 42 be be bc 79 90 3d 60 b6 1b 3d 77 51 3f be
       -0.3716011 0.07054469 0.038015723 -0.1868342
0003e0 fe 01 27 3e 6c 99 19 3e 3c 29 61 3e 28 e9 b8 bd
       0.16309354 0.14999932 0.21988386 -0.09028846
0003f0 45 7a 4b bc 6f eb 1b 3e 48 86 25 be fc 30 ea bb
       -0.012419288 0.1522653 -0.16164505 -0.0071469527

bn_outlayer_in.weight f4 [64]
000000 1e 60 4c 3f 78 6b 3a 3f 84 25 68 3f 49 89 86 3f
       0.79834163 0.72820234 0.90682244 1.0510646
000010 37 6e 68 3f 17 2e 69 3f 3d 2c 63 3f b5 67 65 3f
       0.90793175 0.9108595 0.8873938 0.8961137
000020 f7 70 69 3f 21 f4 7c 3f 67 7d 63 3f 4e 46 8d 3f
       0.91187996 0.9881001 0.88863224 1.103708
000030 b2 9e 89 3f 84 01 70 3f 78 31 70 3f 56 ce 88 3f
       1.0751555 0.9375231 0.93825483 1.0687969
000040 61 41 6c 3f 8d 75 6c 3f d4 7a 83 3f 72 40 63 3f
       0.9228726 0.9236687 1.0271859 0.8877021
000050 77 32 88 3f 69 e1 60 3f 4a f6 73 3f 36 12 68 3f
       1.0640401 0.8784395 0.9529768 0.9065279
000060 9f ca 70 3f 54 26 6d 3f d4 f5 6b 3f a3 bd 5e 3f
       0.94059175 0.9263661 0.9217198 0.8700811
000070 82 cb 86 3f e5 08 74 3f 4a c5 7f 3f 00 be 5e 3f
       1.0530856 0.9532607 0.99910414 0.87008667
000080 e7 d7 6a 3f 76 6d 69 3f b1 95 6e 3f c5 16 67 3f
       0.9173569 0.9118265 0.9319716 0.9026912
000090 38 88 80 3f 6f 9f 7f 3f 46 5e 64 3f f8 13 6e 3f
       1.0041571 0.9985265 0.8920635 0.9299922
0000a0 58 0d 8b 3f 02 95 5f 3f 6c 41 6e 3f d8 74 7a 3f
       1.0863447 0.8733674 0.93068576 0.9783454
0000b0 e0 cf 79 3f 16 cc 75 3f 67 46 5e 3f 59 2a 83 3f
       0.9758282 0.96014535 0.86826175 1.0247298
0000c0 fc 00 82 3f 9c e3 6c 3f 6c d6 6d 3f 81 3d 64 3f
       1.015655 0.92534804 0.92905307 0.8915635
0000d0 b4 94 8c 3f b5 44 7d 3f dc 3d 6d 3f 1e 3e 58 3f
       1.098288 0.98932964 0.92672515 0.84469783
0000e0 4c 7e 73 3f 2b 7f 61 3f 14 eb 6d 3f 6a 71 6b 3f
       0.9511459 0.8808467 0.92936826 0.9196993
0000f0 3e fe 71 3f c3 b1 76 3f 75 c4 79 3f 36 b5 68 3f
       0.9452857 0.9636499 0.97565395 0.90901506

bn_outlayer_in.bias f4 [64]
000000 eb c0 cc bf 72 a8 9f bf eb 10 09 bf 3e 7b 93 3d
       -1.5996374 -1.247328 -0.5354144 0.07201241
000010 3f 3b 0b be d7 3c 00 bf 80 f3 e6 be cd 44 ff be
       -0.1359682 -0.50092834 -0.4510765 -0.49857178
000020 bc f1 9d bd 87 6f 91 bd 1e d1 a4 be 8a 7e fa 3c
       -0.07712123 -0.0710135 -0.32190794 0.030577917
000030 30 1a 6c be b7 91 5f be 40 1b 63 3d ce f8 7f be
       -0.23056865 -0.2183293 0.05544591 -0.24997255
000040 6c 00 bb be c0 c8 20 be a9 b1 64 bf a3 fc ab be
       -0.3652376 -0.1570158 -0.8933359 -0.33591184
000050 80 6b 4f be 57 c8 70 bf 66 5b 2c 3e 9f cd 7e be
       -0.20255852 -0.94055694 0.1683174 -0.24883126
000060 bd 5c 6a bd 38 56 cb be f4 93 fd bd 4d c3 ad be
       -0.05721735 -0.39714217 -0.123817354 -0.33938065
000070 88 84 af be 5a a5 7b be d8 9d eb bd ba e1 e9 be
       -0.342808 -0.24574795 -0.11504716 -0.45680028
000080 3e 11 a5 bd a9 1a 0a bf d6 43 6e 3d a9 c3 a9 bd
       -0.08059929 -0.5394693 0.058170162 -0.08289272
000090 d5 d2 af be 06 9d 9b bd 1d ba f3 bd c3 cb b1 be
       -0.3434054 -0.07598309 -0.11900733 -0.3472577
0000a0 c7 cc 82 be 59 80 73 bf cf a5 c4 be 5c 5a 78 be
       -0.25546858 -0.9511772 -0.38407752 -0.2425322
0000b0 66 2d c5 be 98 8d c9 be 3d 6d 8e be 16 ad c1 3c
       -0.385112 -0.3936584 -0.27817717 0.023642104
0000c0 51 05 50 be 1e d4 9d be 60 dc 43 be 40 11 b1 be
       -0.20314528 -0.30825895 -0.19127035 -0.34583473
0000d0 3a 8f 26 3b e7 46 2d be 59 a5 d5 be 8b ca af bd
       0.002541496 -0.16921578 -0.41727713 -0.08583554
0000e0 6f 6b ac be fb 1d 62 be 65 b8 ad be fe b7 d8 3b
       -0.33675715 -0.22081749 -0.33929744 0.0066137305
0000f0 ea 23 49 bd 47 ca 63 be 0d 14 61 be fc 4e 00 bf
       -0.049106516 -0.22245131 -0.21980305 -0.5012052

bn_outlayer_in.running_mean f4 [64]
000000 a1 f1 83 3a e1 2b 4a 3a 9d 27 bc 3c bf d7 4e bd
       0.0010066518 0.0007712227 0.022968108 -0.05049872
000010 3a 74 25 3b d2 33 24 3b 58 c7 e7 3c 3c 6d 9e 3b
       0.0025246278 0.0025055301 0.028293297 0.004834799
000020 2c b2 97 ba df ff 97 bb 6e 1f 54 3c 1a 05 3f bc
       -0.0011573485 -0.0046386565 0.012946947 -0.011658931
000030 09 85 52 bd f0 36 8f bc 51 06 ac bc 18 aa 13 bd
       -0.051396403 -0.01748225 -0.020999106 -0.036050886
000040 00 7b 56 3c b8 e9 26 3b dd a7 02 38 60 bd 84 3c
       0.013090849 0.0025468897 3.115075e-05 0.016203582
000050 4f 41 3b bd 83 83 b4 3a 7d 2c 9b bc c3 43 82 3c
       -0.04571658 0.0013772104 -0.018942112 0.015901452
000060 ca 71 c0 ba a2 e1 24 3d 4f 81 b4 bb ef a2 bd 3b
       -0.0014682349 0.040254243 -0.005508579 0.0057872455
000070 13 c4 60 3d c6 54 f6 3b d5 40 d1 bb d8 02 65 3c
       0.05487449 0.00751743 -0.0063859024 0.013977729
000080 9b 18 ce bb 2f c9 ed 3c 04 8e 2d 3b b6 19 52 bc
       -0.0062895543 0.029026596 0.0026482353 -0.012823513
000090 86 85 92 3d d2 88 57 3a 54 ac 13 3c 9f 49 91 3c
       0.07154374 0.0008221987 0.009013254 0.0177353
0000a0 15 4b 4e bd ec 05 03 3c 91 f6 1b 3d 3e 0e 57 3d
       -0.050364573 0.007997017 0.03807694 0.052503817
0000b0 6b 56 fc 3c f7 37 d4 3c 39 9b 1c 3b 3f fc d8 3b
       0.030802926 0.025905592 0.002389623 0.006621867
0000c0 0d aa 38 3c b7 80 b0 3c 18 02 03 3c 0b fe 15 3c
       0.011271012 0.021545751 0.007996105 0.009154807
0000d0 ed 86 73 bc 34 75 6b bc 20 31 8c 3b 68 f3 0c 3d
       -0.014863712 -0.014371205 0.004278317 0.034411818
0000e0 e7 ea 5f 3d 77 9b d3 3b 97 78 e6 3c 87 7a b6 3b
       0.05466738 0.006457742 0.028133674 0.0055688056
0000f0 b2 f2 ce bb 6f 5f 81 3d 14 eb 33 bb 4f 30 5e 3c
       -0.0063155526 0.06317031 -0.002745335 0.013561322

bn_outlayer_in.running_var f4 [64]
000000 c3 94 c3 3a 36 ff 4f 3a 8c e6 d2 3b 9c 1d cb 3c
       0.0014921654 0.0007934453 0.0064361747 0.024794392
000010 0f 10 28 3a 7f 9d 01 3a cb 32 98 3b 44 80 c8 3b
       0.00064110843 0.0004944428 0.004644727 0.006118806
000020 fe 56 10 3a 75 f7 8a 3a 60 2d 07 3b 78 e8 9a 3b
       0.0005506127 0.0010602312 0.002062641 0.0047274195
000030 2e f4 34 3b 57 24 ee 3b 96 31 b8 3b 52 b8 53 3b
       0.0027611363 0.0072675156 0.0056211455 0.0032305908
000040 c5 b2 30 3c 55 93 b4 3b 32 81 47 36 54 90 39 3c
       0.0107848095 0.0055107274 2.9728512e-06 0.011325914
000050 0a 7f 55 3b eb 35 03 3a 78 dc 47 3b ef 2a 66 3c
       0.0032576942 0.0005005288 0.00304964 0.014048322
000060 df a7 9c 3b 09 ee 83 3b 14 c2 e7 3a 62 21 00 3c
       0.004780754 0.0040261787 0.0017681741 0.007820459
000070 18 27 dc 3b a4 dd 37 3c ff 83 41 3b 02 97 ac 3b
       0.0067185275 0.011222277 0.0029528139 0.005267025
000080 06 9a b6 3b 84 22 0f 3b 92 d2 63 3a ea b7 3a 3c
       0.0055725602 0.0021840641 0.000869074 0.011396388
000090 09 f8 f9 3a 54 3c b2 39 81 4f 7a 3b ee 09 ad 3b
       0.0019071113 0.00033995754 0.003819436 0.0052807247
0000a0 9d 81 23 3b 87 81 06 3c d5 d7 ca 3b 4b a2 fd 3a
       0.0024949082 0.008209593 0.00619028 0.0019350735
0000b0 14 43 02 3c 3d 54 33 3c 85 fa 9b 3b 07 b7 ab 3b
       0.007950563 0.010945377 0.004760089 0.0052403244
0000c0 f1 c4 df 3b 27 0d d5 3b a2 e8 8f 3b cb 67 31 3c
       0.006828897 0.006501812 0.0043917457 0.010827969
0000d0 43 6e b5 3b 49 6b db 3b c0 ec 16 3c b0 b5 2b 3c
       0.005536826 0.006696139 0.009211719 0.010480329
0000e0 21 c8 1f 3b 5b e3 90 3b 0e fc 9a 3b 4b 42 ab 3a
       0.002438076 0.004421634 0.0047297543 0.0013066021
0000f0 0c eb a4 3b 30 2b 30 3b b2 29 06 3a 01 a5 26 3b
       0.0050329026 0.002688121 0.00051179074 0.002542794

gnn_layers.0.gnn.att_i f4 [1, 1, 64]
000000 3f ed 1c 3f 23 bd 08 be 28 fa 95 3e d7 ad b3 3f
       0.6129951 -0.133534 0.29292417 1.4037427
000010 8a 88 ac be f4 74 9a 3e 16 e0 ba 3e 18 fb f6 bc
       -0.3369792 0.30167353 0.3649909 -0.030149028
000020 1c 7e 00 bf 45 17 9c be 41 17 86 bd 15 e1 75 3f
       -0.5019243 -0.30486503 -0.06547404 0.9604657
000030 e7 64 b0 be 05 fd 0b 3e 9f 35 34 3f b5 b5 d1 be
       -0.34451982 0.13670738 0.7039432 -0.40958944
000040 6b b0 75 3d db ba a6 bf b3 c6 76 bc 5e b2 35 3e
       0.0599827 -1.3025774 -0.015062022 0.17743823
000050 34 ff 2a bf ad 1e 41 3e 8a d6 33 3f ed 60 40 3f
       -0.6679566 0.18859358 0.70249236 0.75147897
000060 70 b2 a4 bf 6d 71 f1 3e eb 47 14 bf e2 61 64 bd
       -1.2866955 0.4715685 -0.5792224 -0.05575741
000070 7b 42 02 3e b4 aa 86 3e a1 57 28 3e d8 1f dd bc
       0.12720673 0.2630211 0.16439678 -0.026992723
000080 37 3e bc be 67 5e 19 bd dd 65 e8 3e 65 34 49 3e
       -0.36766216 -0.037443545 0.45390216 0.19648893
000090 5b 6d ac 3d 03 24 e2 be bb 35 17 3f 19 ad a0 be
       0.084192954 -0.441681 0.5906636 -0.31382063
0000a0 0f 32 97 be 4d 8d 0a 3e 31 34 37 3e 1d 4e b8 bd
       -0.2953038 0.13530464 0.17891003 -0.08999274
0000b0 ce 73 3d 3f 26 95 7e 3f a1 99 c6 3e a6 df b5 3e
       0.7400483 0.9944633 0.38789085 0.35522193
0000c0 5a ac 99 bf f4 3b bc 3e 92 b9 ae bf 82 c1 9e 3e
       -1.2005723 0.3676449 -1.3650382 0.3100701
0000d0 84 8d 24 3f 7a 84 17 be 35 dd ed be 88 4c e8 3d
       0.64278436 -0.1479663 -0.4645783 0.11342722
0000e0 a2 73 c6 be f6 f6 01 3f 1b 49 0e bf d9 99 e6 be
       -0.38760096 0.5076746 -0.555803 -0.4503925
0000f0 b4 de 2a bf ff 99 94 3e a1 bf 17 3f 1f 5a d6 be
       -0.6674607 0.2902374 0.5927678 -0.41865632

gnn_layers.0.gnn.att_j f4 [1, 1, 64]
000000 46 fd 8d 3e 9e fd b6 3d 70 d9 cb 3d 6b 65 d6 3d
       0.27732295 0.089350924 0.09953582 0.10468563
000010 b9 82 d6 3d e1 8d dc bb 79 49 12 3e ae 83 1a 3e
       0.10474152 -0.0067307805 0.1428584 0.15089294
000020 c4 50 c9 bc 57 cb 38 be d0 89 37 3e 6a bd 1a bd
       -0.024574645 -0.18046318 0.17923665 -0.037778296
000030 f1 49 39 3e 19 76 19 be 06 94 be 3c 93 12 22 be
       0.18094613 -0.14986457 0.023263942 -0.15827398
000040 b6 a4 94 bd 06 6e 9e bd b2 a9 3b 3e c5 35 b9 3d
       -0.072579786 -0.07735829 0.18326452 0.09043459
000050 ed 4b 4d bd 92 1a 53 be 0b bf c6 bd 71 85 28 3e
       -0.050121237 -0.20615605 -0.09704407 0.16457154
000060 08 f9 a5 bd 95 51 2e be 14 27 2c be bb cb 58 bd
       -0.081041396 -0.17023309 -0.16811782 -0.052928668
000070 02 9d c5 bd bd 48 2d 3e 09 34 0f bd 43 66 7a 3e
       -0.096490875 0.16922279 -0.034961734 0.24453072
000080 9d a0 87 be 14 f4 00 be 53 a0 bc 3d cd fe 3c 3e
       -0.26489726 -0.12593108 0.09210267 0.18456574
000090 90 7d d6 bd f8 a7 c2 3d 74 76 d5 bd 7b 8b c0 bd
       -0.10473168 0.09504694 -0.10422984 -0.09401604
0000a0 16 28 08 3e c8 7b 93 bb 7e e8 3a be 68 6c ed bc
       0.13296542 -0.00450084 -0.18252751 -0.028982356
0000b0 ec 50 73 3e f8 2a a0 3d 8d ba 14 bc 5b 4b ed bc
       0.23761338 0.07820696 -0.00907768 -0.028966596
0000c0 e9 43 ce bd e7 18 1d 3e ff d8 90 bd 3a 7e 92 bd
       -0.100715466 0.1534153 -0.07072639 -0.07152982
0000d0 7f 45 4a 3b 38 e1 60 3d 02 eb a1 3d 4f 1a 7e 3b
       0.0030864177 0.054902285 0.07906152 0.0038773005
0000e0 2b aa 3e be dc f5 82 bc d5 bb 31 bd 42 3e 02 bd
       -0.18619601 -0.015986376 -0.04339202 -0.031797655
0000f0 86 1c 43 be df 70 9a 3d 9a c7 ef bd 12 b0 c6 bd
       -0.1905385 0.0754106 -0.11707993 -0.097015515

gnn_layers.0.gnn.att_em_i f4 [1, 1, 64]
000000 85 47 7d 3e f0 d6 38 3e 35 fa 43 bf 0c 06 dd 3f
       0.24734314 0.18050742 -0.7655366 1.726747
000010 76 59 ab bf 45 d1 58 bf 7d 42 25 be 8a bb 08 3f
       -1.3386676 -0.8469432 -0.16138645 0.5341116
000020 6c 43 ad 3f 21 ab af 3f 39 d8 48 be 4e de 1b 3f
       1.35362 1.3724099 -0.19613732 0.60886085
000030 99 4d 93 3f f7 0c df 3f af 9d 70 3f 08 8a 0b 3f
       1.1508056 1.7425832 0.93990606 0.54507494
000040 94 44 17 3f 82 9f a2 be 16 39 4e bf 22 e9 cf 3f
       0.59089017 -0.3176232 -0.80555856 1.6243021
000050 0d d4 72 3f a6 6f 00 3f 37 c4 c5 3e ed a7 a6 bf
       0.94854814 0.5017036 0.38626263 -1.3019997
000060 11 bb 4e 3f ec f1 88 3e a5 44 22 3f 20 d0 3a 3f
       0.8075419 0.26747072 0.63385993 0.72973824
000070 4c 18 92 3f 43 6c d3 be be c6 b0 3f 05 c6 a1 be
       1.1413665 -0.41293535 1.3810651 -0.3159639
000080 fb 03 ac 3f d0 28 6a bc 31 89 a5 bf a9 ea db 3e
       1.3438715 -0.014291957 -1.2932492 0.4295247
000090 55 e3 0f bf ad 77 c3 bf 0a 6a 87 bf 21 19 8b 3d
       -0.56206256 -1.5270897 -1.0579236 0.06791902
0000a0 b6 ba a7 3f f6 69 65 3f f8 ee 8b 3f 17 5d fb 3e
       1.3103855 0.8961481 1.0932302 0.4909446
0000b0 51 0e fd be d3 f4 ba 3f 2b 02 53 3f f1 0b 97 3e
       -0.49424985 1.4605964 0.82425183 0.29501298
0000c0 a4 3e 55 3e ff 68 bc 3e 8c ec 82 3f 07 78 14 bf
       0.20824677 0.36798856 1.0228438 -0.5799565
0000d0 c4 d4 9f 3f 74 4c ab 3f 3d 68 f7 3c 81 d8 f9 bd
       1.2486806 1.3382707 0.030201072 -0.12199498
0000e0 d9 4f 75 bf 7c 00 7a 3e cc 80 89 3f 13 b7 5a bf
       -0.9582496 0.24414247 1.0742431 -0.854356
0000f0 6b 64 93 bf 1a 33 75 bf 6d 47 ce 3f 27 5c 7a bf
       -1.151502 -0.957811 1.6115547 -0.97796863

gnn_layers.0.gnn.att_em_j f4 [1, 1, 64]
000000 ee 0e 88 bd c2 e5 a2 3e 48 70 d7 3e e4 76 bb be
       -0.066434726 0.31815916 0.4207785 -0.36614144
000010 45 e7 a6 be fd 8b af be 57 5b d4 3e e3 17 8b be
       -0.3259832 -0.3428649 0.41475937 -0.27166662
000020 83 fc 05 bf dc ec 9e bd 50 06 6b be 88 22 4b 3f
       -0.5233843 -0.07760021 -0.22951627 0.79349566
000030 e2 d9 46 3f 85 6b 8f 3e 63 0e bd bd b8 a3 41 3c
       0.7767621 0.28011718 -0.0923126 0.011818819
000040 ff 11 5f be 93 0f 16 bf 9e 7c 65 be db 0f 20 3d
       -0.21784209 -0.58617514 -0.22410819 0.03907762
000050 c6 f4 d3 be 42 bd 2f 3d ae 0d 63 3f 86 f5 63 3f
       -0.41397685 0.0429051 0.8869275 0.89046514
000060 f5 0b e9 be 60 c6 04 bf d8 75 d6 3d 49 9f f0 bd
       -0.45516935 -0.51865196 0.10471696 -0.11749131
000070 93 f2 29 3e 74 5c f8 3c a7 67 b4 3e ce 74 65 be
       0.16596441 0.030317523 0.3523533 -0.22407839
000080 e4 31 36 3c 23 cd cc bc 4c 24 e0 be 7c 47 ed 3e
       0.011120293 -0.02500016 -0.43777692 0.463436
000090 0c c5 ec 3e 59 0d 20 bf 9b 01 44 3f 27 f8 00 3e
       0.46244085 -0.62520367 0.7656495 0.12594663
0000a0 77 14 a2 3e 27 cd 3f 3e 5b ab c0 3e c7 4d f1 3d
       0.31656238 0.18730603 0.37630734 0.11782413
0000b0 30 a0 2a 3f 24 b6 49 bb 54 dd 25 bf ba 60 4b 3e
       0.66650677 -0.003077873 -0.64790845 0.19861117
0000c0 c7 ad 2c 3f 20 b2 1e 3e 1b 5d c9 3e eb 3b 7d 3d
       0.67452663 0.15497637 0.39328846 0.06182472
0000d0 1c 22 22 3f 40 50 1c 3f db a5 96 3e 5c 61 8f bf
       0.63333297 0.6105995 0.29423413 -1.1201587
0000e0 00 c6 56 be db 05 b2 3d 3d 80 ed 3d d1 b0 0f bf
       -0.20973969 0.08692523 0.11596725 -0.56129175
0000f0 9d 3a d4 3e d1 e2 a5 3e 38 38 c5 bd 19 33 5d be
       0.41450968 0.3239961 -0.096298635 -0.21601523

gnn_layers.0.gnn.bias f4 [64]
000000 87 6b 2c bd 57 38 0d bd 5d c1 bc bb 2f 07 1a 3b
       -0.042094734 -0.034477558 -0.0057603554 0.0023502817
000010 32 0f 34 3d 5a 94 96 bb 8d b3 e7 3b 06 2a 09 bb
       0.043959804 -0.0045953216 0.0070709647 -0.002092959
000020 f7 ad cc 3c ee b4 e5 bc d3 b0 04 3b bc b6 38 3c
       0.024985297 -0.028040376 0.0020246997 0.011274036
000030 f5 55 64 3d 00 c3 9d bc d3 52 53 bc 06 32 3e bd
       0.055746038 -0.019258022 -0.012898165 -0.046434425
000040 61 a2 67 3b f0 0b 9c bc af 10 90 3d b5 54 db bb
       0.0035344588 -0.019048661 0.07034432 -0.0066934475
000050 67 09 98 bb a3 5a a2 bd 59 c6 20 3c 11 3b 51 bb
       -0.0046397927 -0.07927444 0.009812915 -0.0031926075
000060 6b 4b ec 3c 83 42 a9 bd 95 a8 59 3c 8d 24 00 bc
       0.028844556 -0.08264639 0.013284822 -0.007821214
000070 24 c6 a9 bc 07 96 60 ba ff b3 85 3b 21 fd 78 b9
       -0.020724364 -0.00085672777 0.004080295 -0.00023745421
000080 79 1c 12 bd 0d a7 a3 bc 0e 10 08 bc df 18 93 ba
       -0.035671685 -0.019977117 -0.008304609 -0.0011222622
000090 67 97 e7 3c de a0 be bc 6e 95 10 bd b6 d9 40 bc
       0.028270436 -0.023270067 -0.035298757 -0.011770656
0000a0 03 9e 6a 3c 6e 5b 82 ba f3 d4 62 bc af 03 ab 3a
       0.0143198995 -0.0009945461 -0.013844716 0.0013047362
0000b0 0c 7c e9 bb 96 cc bd bc ec 9f 64 bb 6e f6 67 3a
       -0.0071253832 -0.023168843 -0.003488536 0.00088486716
0000c0 2d a9 86 bc fd b0 f6 ba 4c 63 e3 bd 8e bc c2 ba
       -0.016438091 -0.0018821057 -0.11102924 -0.0014857219
0000d0 18 ec 1c bc ca b1 1e 3c 25 eb 05 bb 28 be dc bb
       -0.0095777735 0.009685943 -0.0020434347 -0.0067365356
0000e0 69 e9 e2 bb c7 77 83 3c 5e 0d 30 bd 2c aa 48 3d
       -0.0069247973 0.016048325 -0.042981498 0.048990414
0000f0 87 1d 01 3c 03 d5 13 3d 4f b5 11 bc c3 a2 74 bc
       0.007880575 0.036091816 -0.008893325 -0.014931384

gnn_layers.0.gnn.lin.weight f4 [64, 15]
000000 e7 b9 0b be 08 79 a5 be 67 49 81 bd e8 4a 14 3e
       -0.13645135 -0.32318902 -0.063128285 0.144817
000010 5a 04 8e bd 8f 3c 37 be 08 4d e2 bb c0 7a 46 be
       -0.06934424 -0.17894195 -0.0069061555 -0.19382763
000020 97 73 0c 3e be 06 51 bc b1 ae 3a 3e 4c c3 0e 3d
       0.13715969 -0.012757955 0.18230702 0.03485422
000030 26 28 7e 3d 95 a2 03 3e 42 85 1a 3f 6e 6c ac 3d
       0.062050007 0.12854989 0.60359585 0.08419119
000040 c8 31 c8 bd 73 09 0d 3e af 6c a9 bc 61 1b fe 3d
       -0.0977512 0.13773136 -0.020681707 0.12407566
000050 aa e4 a8 bd 47 21 85 bc fd e5 84 3d e4 c3 f4 3d
       -0.08246739 -0.01625122 0.06489179 0.11951426
000060 34 31 ff 3d dc 88 79 be 3f 83 d5 3d 24 84 0f be
       0.124605566 -0.24368614 0.10425424 -0.14015251
000070 bf d7 98 3e f0 72 8b 3e b7 59 21 bd 92 14 6c 3e
       0.298521 0.27236128 -0.0393922 0.23054722
000080 2a df 65 3e fd d7 8b 3d 62 30 17 be 31 6c 66 3d
       0.22448412 0.06828306 -0.1476455 0.056255523
000090 83 c2 6f 3e 6a a1 a5 3d 24 93 8b 3e 66 04 d2 3c
       0.23414044 0.08087428 0.27260697 0.025636863
0000a0 76 e3 dc bd 1c 14 00 3e ed 79 1c 3d c9 9e 1b 3e
       -0.10785572 0.12507671 0.038202215 0.1519729
0000b0 24 5d 1e 3e 48 42 42 be bf 5d 8a 3d e7 9d 0c bd
       0.15465218 -0.18970597 0.06756162 -0.034330275
0000c0 be 3b 9a 3d 9c b6 e6 bd 2e 13 cb bc 00 d1 4b 3d
       0.07530926 -0.11265299 -0.024789419 0.049759865
0000d0 34 22 f1 bd 9a 83 f5 3c ea 1d cf 3d 6b 65 0a 3e
       -0.11774102 0.02996998 0.101131275 0.1351525
0000e0 52 5c 72 bc 40 35 4a be c9 68 fb bd 53 3d 6c 3f
       -0.014792519 -0.19746876 -0.122758456 0.92281073
0000f0 33 4d bc bd 5f bb 36 3d d0 36 e1 bd 6c 5b b7 3e
       -0.09194412 0.044612285 -0.10996783 0.35811937
000100 12 28 81 3e c7 67 87 3e 54 9a a0 3d 12 d0 5c be
       0.25225884 0.26446363 0.07841936 -0.21563748
000110 4b e5 bb bd 87 ee 3d be 45 42 8e bc d1 47 fd bd
       -0.091745935 -0.18548022 -0.017365584 -0.123672135
000120 2a f2 22 3d 53 63 8a 3d d2 8d 99 3d ca 24 ef 3e
       0.039781727 0.06757226 0.07497753 0.46707755
000130 fa 01 8a 3e 88 56 2e 3e e6 23 83 bd f3 93 d0 3b
       0.26954633 0.17025197 -0.064033315 0.006365293
000140 38 5a 09 3e 36 00 ea 3c e5 67 81 be 28 54 91 3e
       0.13413322 0.028564554 -0.25274578 0.2838452
000150 d0 4d 94 bc 07 8d 89 3e 7d 4e 86 be 51 a4 de bd
       -0.01810351 0.26865408 -0.26231757 -0.108711846
000160 1d 7c c9 bd f0 73 12 3e a2 1e 8c 3e b9 25 83 3e
       -0.09838126 0.14302039 0.2736712 0.25614718
000170 d4 61 37 be f9 9e 45 3d 5d a3 3b 3e 6f 39 cf bc
       -0.17908412 0.04824731 0.18324037 -0.025295941
000180 02 3d 06 3e ce 98 34 3e a6 97 34 be 57 f1 2a 3e
       0.1310921 0.17636415 -0.17635974 0.16693626
000190 27 53 06 be 33 24 07 3e f3 68 82 be 12 93 89 be
       -0.13117658 0.13197403 -0.25470695 -0.26870018
0001a0 0f d2 2a 3e d0 84 41 be 90 4e 38 bd 40 de 77 bd
       0.16681693 -0.1889832 -0.044996798 -0.06051469
0001b0 8c 9d 31 3d 59 b4 53 3c d2 bf 36 be 81 b2 1d bc
       0.04336314 0.012921416 -0.17846611 -0.009625078
0001c0 32 67 3b 3d 3b f6 f4 3d 7c 99 16 be 00 92 14 be
       0.04575271 0.11961027 -0.14706987 -0.1450882
0001d0 8f e0 d6 3d 56 66 27 be e5 1d 25 be b8 8d 5d be
       0.1049205 -0.16347632 -0.16124685 -0.21636093
0001e0 43 c3 cc 3d c0 58 8f bd 25 4b df 3d 8b b3 89 3e
       0.09998181 -0.069993496 0.109030046 0.26894793
0001f0 b0 bb 1c 3e 4f 67 0b be 0e 18 5f 3e d2 b1 38 be
       0.15305972 -0.13613628 0.2178652 -0.18036583
000200 6d bc 94 bd be a3 ef 3d f7 9f 03 3e c3 42 20 3e
       -0.07262502 0.11701153 0.1285399 0.15650468
000210 b6 d1 39 bd 11 2a 6e be 45 6a 1e bf b0 bf 5b 3e
       -0.04536601 -0.23258235 -0.61880904 0.21459842
000220 37 8f da bc 13 ed d0 bc bd a5 55 3e 1c 13 a0 3d
       -0.026679618 -0.02550367 0.20864005 0.07816145
000230 75 88 b7 3d a7 5e e8 bd e0 9d 98 3d 32 15 05 3e
       0.08961574 -0.113461785 0.07451987 0.12996367
000240 2b ca b5 3d 76 89 f3 bb 99 fc 37 be ae 76 94 be
       0.08876451 -0.007432158 -0.17967452 -0.28996795
000250 16 2a 74 be 8c c0 cd be 98 b5 fa 3d 01 9c f4 bd
       -0.2384418 -0.40185964 0.122416675 -0.11943818
000260 39 71 da 3d e9 ad ff bd 34 80 30 3e 32 86 78 3d
       0.10666127 -0.124843426 0.17236406 0.060674854
000270 97 0a 3d be 25 a8 b3 bd 82 b4 d8 bd 2a 35 3a be
       -0.18461071 -0.087723054 -0.10581304 -0.18184343
000280 40 30 3e be c2 95 9c bd 5d 4f 19 be 6e ff db 3d
       -0.18573093 -0.076457515 -0.14971681 0.10742079
000290 e9 81 69 3d ec f7 30 3e 91 50 3b be 73 62 e6 3d
       0.057008658 0.17282075 -0.18292452 0.112492464
0002a0 62 86 22 be 67 d3 4c bd 91 cd c1 3c 45 57 99 bd
       -0.15871575 -0.050006296 0.023657592 -0.074873485
0002b0 97 78 cd 3c 7a 03 4a bd 5d 96 bd 3d 8e 29 00 be
       0.025081916 -0.04931972 0.09257195 -0.12515852
0002c0 1b 49 9c 3e fc e9 56 3e fd ce c7 bd f0 68 31 3f
       0.30524525 0.20987695 -0.09756277 0.69300747
0002d0 33 c3 d4 3d a8 5f 02 bd 5c 67 3e 3e e4 9f a6 bb
       0.10388794 -0.031829506 0.18594116 -0.0050849784
0002e0 f9 5a f0 3d 42 ce 32 bd a7 1b f2 bd 78 98 79 3d
       0.11736102 -0.043653734 -0.118216805 0.06093642
0002f0 b6 5e 0f 3d 58 a9 92 3d 3c c2 86 3d 38 b2 ae bd
       0.035002433 0.07161206 0.06580016 -0.08530086
000300 f5 e9 8b bc 65 55 1e be 34 34 10 bf 73 77 cf bb
       -0.017079333 -0.15462263 -0.56329656 -0.006331378
000310 2c d9 a1 be bf 9b 24 be 43 d4 aa bd 5a 8f 58 be
       -0.31611001 -0.16075037 -0.08341267 -0.21148434
000320 89 bd 4d be 02 70 9d bd dc 04 5e bd b4 58 e1 3d
       -0.20091833 -0.076873794 -0.054203853 0.11003247
000330 d2 e6 74 3d bb 6c 23 3e 58 c0 0d 3d 74 c6 25 3b
       0.05979044 0.15959446 0.03460726 0.002529529
000340 28 91 0e be 01 5c 32 be 37 04 3d bd 64 7b 0d bd
       -0.1392256 -0.17417909 -0.046146598 -0.034541503
000350 60 17 ff 3d f7 1b c7 bd c9 26 9e bd e8 a6 e8 3d
       0.1245563 -0.09722131 -0.077222414 0.1135996
000360 1e 93 ee bd bd 1b cb 3d 67 0f c2 bd 40 1b 15 bd
       -0.11649154 0.099174 -0.09475594 -0.03640294
000370 10 f7 86 bd e6 fa 67 3e a5 95 16 be d7 07 d9 be
       -0.06590092 0.22654304 -0.14705522 -0.42388794
000380 16 39 03 3f 59 22 d7 bd fc 8b 45 3e 8c 73 7c 3d
       0.5125898 -0.10504598 0.19291681 0.06163363
000390 e9 2c de 3d 3e 27 3a bd eb 20 6e 3d c5 c2 98 3d
       0.1084841 -0.04544758 0.05813686 0.07459024
0003a0 48 66 2b bd 21 2c 20 3e 61 e1 16 3e 1f bc b5 bb
       -0.04184559 0.15641834 0.14734413 -0.0055461074
0003b0 c7 ae 37 3e 70 90 93 3e 5a e7 b9 3e 7d 45 ff 3d
       0.17937766 0.28821135 0.3630932 0.12464426
0003c0 77 02 27 be f3 59 42 be c9 8f b8 bd 81 b7 c3 3d
       -0.16309534 -0.18979625 -0.090118 0.09556485
0003d0 eb 5d 40 3e 20 1b 8f be 5c 9a 54 be 3d f0 96 3e
       0.18785827 -0.27950382 -0.20762008 0.29480162
0003e0 20 a0 91 bd 0d 03 09 bd d6 06 f9 3d c9 f9 4b 3e
       -0.071106195 -0.033450175 0.12159507 0.19919504
0003f0 ad bd 30 3e fc 7b 5e 3e 83 7f 00 3e a3 57 18 be
       0.17259856 0.21726984 0.12548642 -0.14877181

gnn_layers.0.bn.weight f4 [64]
000000 8e ae d2 3e c5 5e b7 3e 88 1f 03 3f 55 c7 38 3f
       0.411488 0.3581449 0.5121999 0.72179157
000010 0c d3 c6 3e 04 ac d0 3e 60 1a d0 3e 47 cd 63 3f
       0.3883289 0.40756238 0.40645123 0.88985103
000020 fc 4a fc 3e 12 30 0b 3f 10 e6 44 3f 42 c1 0d 3f
       0.4927596 0.54370224 0.7691355 0.55373013
000030 25 e4 6c 3e 0e 45 2a 3f 31 62 1c 3f b7 0d c2 3e
       0.23133905 0.6651162 0.6108733 0.3790109
000040 ad 54 4c 3f 0b 4e c9 3e d6 9d 17 3e b3 3d c3 3e
       0.79816705 0.39317355 0.14806303 0.3813301
000050 07 fe 96 3e b9 f1 d1 3e 18 7a 0c 3f ef 9e 61 3f
       0.29490682 0.41004732 0.548738 0.8813314
000060 1c 20 ee 3e eb 65 4c 3e 48 52 15 3f 06 0b 28 3f
       0.46508873 0.19960754 0.58328676 0.6564182
000070 52 2e 6b 3e 7d 6c 89 3f 7f 5b 48 3f a9 bb 5f 3f
       0.22966889 1.0736233 0.7826461 0.8739572
000080 74 a1 d8 3e 04 f7 13 3f d7 56 bb 3e 33 d0 41 3f
       0.4231068 0.5779879 0.3658969 0.7570831
000090 45 90 fc 3d 27 d8 01 3f d9 93 22 3f 83 39 12 3f
       0.12332205 0.5072045 0.6350685 0.57119006
0000a0 40 b8 3c 3e fc 2c 0f 3f d9 5b 20 3e b0 50 91 3e
       0.18429661 0.55928016 0.15660037 0.28381872
0000b0 1d 2d 08 3f ea e6 8d 3e 0f 4a 45 3f 91 cf 3e 3f
       0.5319384 0.27715236 0.7706613 0.7453547
0000c0 f0 37 f4 3e d7 e9 ad 3e fa 41 d7 3e 21 0c 6e 3f
       0.47698927 0.33967468 0.42042524 0.9298726
0000d0 ea a4 e7 3e e9 e7 1c 3f 3b ec 54 3f 95 0f 3e be
       0.45243007 0.61291367 0.8317296 -0.18560632
0000e0 31 92 0e 3e 1d d4 5e 3f 3e 3e 43 3e f1 20 11 3f
       0.13922955 0.8704241 0.19066712 0.5669089
0000f0 0a dd ed 3e 89 28 e0 3d b1 e2 ce 3e d9 d0 29 3f
       0.46457702 0.109452315 0.40407327 0.663343

gnn_layers.0.bn.bias f4 [64]
000000 fa e0 80 be 06 75 8c be 1e 14 d7 3e 86 59 cf 3d
       -0.25171643 -0.27433032 0.42007536 0.10124497
000010 6f a6 c3 be 23 93 c5 be e6 13 d9 3e 24 1a 00 3d
       -0.38212916 -0.3858882 0.42397994 0.03127493
000020 90 00 ba be 39 ce ad be d3 32 a6 bd 6a bf c6 be
       -0.36328554 -0.33946398 -0.08115163 -0.38817912
000030 d0 77 dc 3e 83 e0 1f 3e ac ef 87 3e 84 39 89 3e
       0.4306016 0.15612988 0.26550043 0.26801693
000040 9a 71 38 3e f6 ab c2 3e d8 bc de be 6f ab de 3e
       0.18012086 0.3802182 -0.4350345 0.43490168
000050 25 41 cd 3e 7a 72 a5 be 25 99 19 be e5 08 17 3e
       0.40088764 -0.323139 -0.14999826 0.14749487
000060 fa 7a a9 3e a0 b4 06 3f 5b a4 13 3e 69 ec 7a 3e
       0.33101636 0.5261936 0.14418165 0.24504246
000070 98 4f 22 3f 01 e9 2f bd 28 7b 85 be d3 d5 cb bd
       0.634027 -0.04294682 -0.26070523 -0.09952893
000080 e4 50 b5 3e 07 e0 8e 3e af 6a e4 be 2f 2e f9 3d
       0.35413277 0.27905294 -0.44612643 0.12167012
000090 6a c9 22 3f 7d a1 e3 be 6d 3e 23 be 62 e3 a5 3e
       0.63588583 -0.44459143 -0.15941782 0.32400042
0000a0 8e cd cb 3e be c5 a1 3d 7b e7 0d 3f 8f 51 14 3f
       0.39805263 0.078990445 0.55431336 0.5793695
0000b0 66 a0 be 3e 14 32 04 3f db b5 23 be ba c4 22 be
       0.3723175 0.51638913 -0.15987341 -0.15895358
0000c0 92 60 cf 3e ac 39 ec 3e 84 1d ae 3e 54 86 ed 3d
       0.40503365 0.4613775 0.34006894 0.11597887
0000d0 b7 8a 81 be 48 89 04 3e 54 99 3e 3e 62 9d 9c 3e
       -0.25301144 0.12942994 0.18613178 0.30588824
0000e0 d6 1a 0f 3f 92 2d 83 bd b3 77 db 3e b4 f6 59 be
       0.55900323 -0.06405176 0.4286476 -0.21285516
0000f0 e7 03 cd 3e 83 91 18 3f 92 12 b6 be 5c 7a 07 be
       0.4004204 0.59597033 -0.35561043 -0.1323027

gnn_layers.0.bn.running_mean f4 [64]
000000 78 c3 89 3d 99 d1 32 3e f1 c0 bc 3e 44 7e 35 3e
       0.06726736 0.17462768 0.36865953 0.17723948
000010 f3 08 15 3e 4f a0 83 3e d1 7f 0d 3e 70 40 8f be
       0.14554195 0.25708243 0.1381829 -0.2797885
000020 4e 5f 66 bc 83 c7 25 be 9d ef 21 be 5a ea 8a 3e
       -0.014060808 -0.16189389 -0.15814061 0.2713192
000030 fe 2f 7a bd 51 af 9d be 49 bf d3 bc 13 86 c8 3e
       -0.061080925 -0.30797818 -0.025848048 0.3916479
000040 a1 56 f4 3d 4e 8a eb bd 70 4f b3 3e 5a c6 96 3e
       0.11930586 -0.11500989 0.35021544 0.29448205
000050 36 a1 57 be f2 dd 72 3e 05 fe f0 3d 54 d2 a0 3d
       -0.21057591 0.23717478 0.117672004 0.07852617
000060 fe cc 93 bd 36 f9 8d be 04 93 b3 be cb 6f 48 3e
       -0.072168335 -0.27729195 -0.35073102 0.19573896
000070 0e c7 80 be 56 22 3f 3c 69 88 74 bc 07 cb 84 3e
       -0.25151867 0.011665901 -0.014925101 0.25936148
000080 97 01 70 be 4b 84 fc be c1 2b f4 3e 4f af 1d 3d
       -0.23438106 -0.49319682 0.47689632 0.038497265
000090 e6 1f 28 bd af e2 46 bf 96 b1 cd 3d be 98 d8 3d
       -0.041046046 -0.7768964 0.100436375 0.10576008
0000a0 86 40 aa be fd 8e cf 3e 25 73 2c 3e 1d 2b 00 be
       -0.33252352 0.4053878 0.16840799 -0.12516446
0000b0 db 08 ab 3e 18 c7 96 3d 10 54 75 bd 2c 4b 88 3d
       0.33405194 0.07362193 -0.05989462 0.06654963
0000c0 3e 6d 29 bd 09 23 aa 3e 27 c4 0e be ca f7 09 3e
       -0.041363947 0.33229855 -0.13942014 0.1347343
0000d0 d3 81 55 3f b3 c3 8f be ab 7e 7e 3c 78 f7 1e be
       0.8340122 -0.28078994 0.01553313 -0.1552409
0000e0 5d c2 15 be 61 f7 9c 3d 17 f4 ad 3c 3e 49 d0 bd
       -0.14624925 0.07664371 0.021234555 -0.1017022
0000f0 8d 5a 9d 3a 64 b7 43 be ed 01 c3 be fe 0e 11 3e
       0.0012005136 -0.19112927 -0.38087407 0.14165875

gnn_layers.0.bn.running_var f4 [64]
000000 f5 30 96 3d 94 f1 36 3e 1e 25 16 3f 49 10 0b 3e
       0.073335566 0.17865592 0.58650386 0.13580431
000010 30 60 4a 3d 34 b8 97 3e c7 6c aa 3d ce 47 a2 3e
       0.049408138 0.29632723 0.08321529 0.31695408
000020 d4 a0 f8 3c 5e 3f c2 3d 4e c0 fa 3d 79 38 92 3e
       0.030350126 0.094847426 0.122437105 0.2855871
000030 7f bc 8f 3d 21 8a b0 3e 09 fd e1 3b 98 22 4e 3f
       0.07018375 0.34480384 0.006896619 0.80521536
000040 2f 3f 8f 3d be 85 33 3d b0 f5 a5 3e 67 cd c6 3e
       0.06994473 0.04382872 0.32414007 0.38828585
000050 5a 1b 4a 3e ec e4 d3 3e e5 e2 60 3d 05 47 28 3d
       0.19736996 0.4138559 0.054903883 0.041083355
000060 b3 1b 3e 3d 65 88 2c 3e ae ab 0e 3f 6e 26 39 3e
       0.046413135 0.16848905 0.5573071 0.18081066
000070 4f f4 66 3e c7 9f b6 3c 48 d5 0b 3d 7d 06 90 3e
       0.22554134 0.022292985 0.034138948 0.2812995
000080 8d 85 21 3e d2 db 76 3f 3f 8e 79 3f 18 85 ef 3c
       0.15773602 0.9642917 0.97482675 0.029238269
000090 1c 36 33 3d fe 3d 17 40 cb 09 b3 3d 94 f3 67 3d
       0.043752775 2.3631587 0.08742102 0.05662878
0000a0 fd f5 f9 3e 00 87 2e 3f 3f e0 1e 3e b1 f3 93 3d
       0.48820487 0.68174744 0.1551523 0.07224215
0000b0 29 b4 f3 3e a0 23 3f 3d e5 12 b7 3c 93 33 e2 3c
       0.4759839 0.046664834 0.022347877 0.027612483
0000c0 7d 37 c1 3b 25 56 f0 3e f9 62 91 3c 01 ea a6 3d
       0.0058965073 0.46940723 0.01774739 0.081501015
0000d0 d7 45 3f 40 70 17 b9 3e 92 92 c7 3c f7 98 bd 3d
       2.9886377 0.36150694 0.024361882 0.09257691
0000e0 d7 69 a2 3d 3d c4 dd 3c 5d ca e3 3c 1a b8 ea 3d
       0.079303436 0.027071113 0.027806455 0.11460896
0000f0 c9 0c dd 3b 22 7b 61 3e 5a 64 14 3f 3e c3 e4 3d
       0.006745909 0.22019628 0.57965624 0.11170052

out_layer.mlp.0.weight f4 [1, 64]
000000 7b 27 2b be 29 c0 48 be 71 be 60 3d f3 5f ce bd
       -0.1671428 -0.19604553 0.05486912 -0.100768946
000010 f8 38 12 3d b5 43 2a 3d 24 02 91 3d 5c c4 75 bd
       0.03569886 0.041568477 0.070804864 -0.060001716
000020 9a ee 30 3d 88 96 70 bd a9 86 5e 3d 45 53 8b bd
       0.0431963 -0.058737308 0.05432764 -0.06802992
000030 91 72 55 3e 37 1e b0 bd 9f ae 51 3d 0b 3a 5d be
       0.20844485 -0.08599513 0.051191922 -0.21604173
000040 d5 45 80 3d bf 61 51 bd 25 94 ef bd 31 74 c0 3d
       0.062633194 -0.05111861 -0.11698178 0.09397162
000050 0b e4 54 3e 53 23 a5 bd 17 de 9a bd 63 2e 4f 3d
       0.20790116 -0.08063378 -0.075618915 0.050581347
000060 e7 b3 60 bd 67 f7 bf bd 5f 9d 6a bd 3e 0a 9a 3d
       -0.05485907 -0.0937336 -0.057278987 0.07521485
000070 c4 94 cb bd f8 44 59 3d f3 03 af bd f1 c2 5b 3d
       -0.09940484 0.05304429 -0.08545675 0.053652707
000080 48 90 87 bd f0 ef 7e bd be 7b 21 3d f3 22 33 3d
       -0.06619316 -0.06224054 0.03942465 0.043734502
000090 6c 4c cb bd bb 1b 31 bd 4a 99 2a 3d a6 0f 8e 3d
       -0.09926686 -0.043239336 0.041650094 0.069365785
0000a0 b0 9c 65 3e 37 f3 1d be 84 db 0a 3e 6d 73 87 bd
       0.22423053 -0.1542481 0.13560301 -0.066138126
0000b0 4e fa 64 3d f9 5e c4 3d db ee 7e 3d 52 40 50 3d
       0.05590277 0.09588427 0.06223951 0.05084259
0000c0 7c 37 97 bd e5 70 8a 3d c5 82 94 bd 18 d7 6b 3d
       -0.0738363 0.06759814 -0.07251505 0.057578176
0000d0 de 7c bc bd a6 75 99 bd b6 6b 4e 3d 6d 5e ce 3c
       -0.09203504 -0.07493143 0.05039569 0.02519151
0000e0 52 3a a8 bd fd 5f 48 3d df 05 c3 3d 93 b5 25 3d
       -0.08214249 0.048919667 0.09522604 0.040456366
0000f0 ad d2 7a bd 6b 49 ba bd bc e2 05 3e c9 aa 3b 3d
       -0.061236072 -0.090960346 0.13074774 0.04581717
