pretrained/best_01_27-01_43_28.pt (torch_old, 17588 bytes, 16 tensors)

embedding.weight f4 [27, 64]
00000000: c733 e3bd 8722 98bd 1170 8c3d 1135 263d
00000010: 0110 293d 0104 f1bd c332 b03d 09c4 033c
00000020: a0bf 2b3d c650 5c3d a877 2abd 07a0 573d
00000030: cef3 b83d cf86 ce3c 9598 b7bb 4d82 333d
00000040: c449 cfbd 1686 523c 2344 6a3d b056 4f3d
00000050: 8b62 36bd 1e42 39be 04fb c93c 4d27 6ebc
00000060: 9245 f43d ccc6 29bb 9a1f 463d 707f 893d
00000070: f5d9 80bd f9dc 033d 515d 113d d664 cdbb
00000080: c932 b03d 0165 1dbe 30e2 8d3d 9804 113e
00000090: 22e2 81bd a9bb f5bd 06c9 d8bd c2f2 aebd
000000a0: ce2d 5a3d bdc3 ad3d ad7c a4bd 3768 fdbd
000000b0: bac1 5fbd 143d 35bc 5b6e 263d c076 a33d
000000c0: 381d 683d 1e7b 4c3b f635 dc3c c442 00bd
000000d0: 92ff 78bd 1732 8d3c c6bf 01bd d6ca adbd
000000e0: 1ed5 3b3d 2b6c ebbd a25b 37bd d756 9e3d
000000f0: f94f 46bd 0967 9e3c 7fcf 973d aa42 0cbd
00000100: d5ca e83c 6c33 1c3e 5998 12be cc4b 06be
00000110: 94e9 18bd aded 1cbd 60a0 8b3d 7293 933d
00000120: 9c68 51bd c628 b73c a48b 96bd eaad 0fbe
00000130: ad84 debd 5924 e5bd 88db 9c3d 02f7 fabd
00000140: c0d5 afbd f707 c23d a4b6 f7bd 1964 9a3c
00000150: 4f29 acbd 0c0a 2f3d 3355 4bbd 30b4 15bd
00000160: d7d4 7a3d e0df 023e 8a0b 0fbe 86b4 993d
00000170: 87e6 d63c 5de2 00bb 3749 06be c98a eb3d
00000180: 4d2b bb3d 89a3 eabd f04b b7bd 3d19 0bbe
00000190: 890e 9abd ed47 5b3c e133 7bbd 2a6b b33d
000001a0: 89b8 59bd eff0 02be 3c16 c43d edcc dbbc
000001b0: 7c37 3bbe f864 863d f27e fc3c 1825 0bbe
000001c0: bd19 133e b35c 933d ca73 bdbd b4de 103d
000001d0: 7edc 153d b252 09be 5f5d c2bd b99d dcbd
000001e0: 2620 923d a2a9 3f3d 6f85 743d 0366 8bbd
000001f0: 7f2e bf3c 56ae 0e3d 7be4 f3bc 0024 d43c
00000200: f313 9c3d adbe 9d3d b77b 12bd a4c4 b2bd
00000210: a100 e3bd b07d 0a3d 409d c8bd 4715 3e3d
00000220: ae7b 7ebc 7655 303d b1ca 5ebd 750f 99bd
00000230: b15e 8f3d bca8 22be 2404 de3c 8e2d eebd
00000240: 6462 82bb dc68 1cbe cfd9 b3bd af3e bcbd
00000250: d9af 81bd 56b2 98bb 57e1 d4bd 0b9f 26bd
00000260: ec13 e03d 6b70 433d 12f7 b83d f40d de3d
00000270: 5121 b2bc d2e4 31bd 9027 d33d 44b2 13bc
00000280: 15c5 253c 4e6b 893d 48a2 afbd bb8e b83d
00000290: 9f67 c53c e983 b2bd f582 ebbd bbf4 253e
000002a0: d003 063e 5014 1b3d 4271 7fbd d092 a13d
000002b0: 32a1 a8bd 97ca adbd e85f bd3d 8b96 823d
000002c0: 16e3 9a3d 834e bd3d 3475 e3bd 3594 e8bd
000002d0: e87a 963d 9b60 ea3c 853d 4dbd 3060 66bb
000002e0: 3782 943d e904 33be cd20 883d 01b1 08bd
000002f0: 5a92 05be b196 9bbd bdff 83bc 4594 9cbd
00000300: b37c 14be 20c8 423d 6933 b0bc 1be9 323d
00000310: 8e9a ef3d 448d e9bd ade7 d2bd c311 43be
00000320: eaf6 1f3d eba9 5bbd 6bf5 07bd 5bc4 7e3d
00000330: cb91 a83c 14fe 023d d761 d9bd dbdb 9fbd
00000340: 0f93 17be 6838 10bc 59f9 65bd d006 c93c
00000350: 8d98 0bbd 7f62 8b3c 951a 83bd 0d4a cabd
00000360: 22c3 973d 0a7e 13be edee 893d 205c d8bc
00000370: 2a92 743d dc46 4cbb 45d7 103d ed7d afbd
00000380: e9b0 8c3d 1629 cbbd 461d e5bd f82c 6c3d
00000390: 38f1 833c c8ae dabd 4d9d a0bc 2a24 003e
000003a0: da28 cdbd a44f 6a3d 6e1f a1bd bdee b03c
000003b0: ccbc 3bbd 0028 8cbd 4734 ba3d 7571 f7bd
000003c0: 5a5c e4bd cb0e 55bd df2d ad3d c2df 3f3d
000003d0: e0c2 d93d 5758 ea3d e624 c5bc e5c9 00be
000003e0: c444 85bd 717b 68bc 6fde e4bd 3e72 8d3d
000003f0: 87ef 24bc d8b2 7ebd 32b9 0fbe ad28 ad3d
-0.1109386 -0.074284606 0.068573125 0.04057795 0.04127503 -0.11768342 0.08603432 0.008042344
0.041930795 0.05378797 -0.04161802 0.05264285 0.09030877 0.025210766 -0.005602906 0.043825436
-0.101214916 0.012849351 0.057193886 0.05061978 -0.04452757 -0.18091628 0.024655826 -0.014535737
0.11927332 -0.0025905846 0.04836998 0.0671376 -0.06291572 0.032193158 0.035489384 -0.006268124
0.086034365 -0.15370561 0.069279075 0.14161909 -0.063419595 -0.11998684 -0.10585217 -0.08542396
0.05326634 0.084846 -0.080315925 -0.12373393 -0.05462811 -0.011061925 0.040632587 0.07981634
0.05666849 0.0031201313 0.0268812 -0.031313673 -0.060790606 0.017235799 -0.03167703 -0.084859535
0.04585754 -0.11495241 -0.044765122 0.07731407 -0.04841611 0.01933624 0.074126236 -0.034243263
0.02841703 0.15253991 -0.14315929 -0.13114852 -0.037332132 -0.038312603 0.068176985 0.07205857
-0.051125154 0.02235831 -0.07350853 -0.14031187 -0.1086515 -0.111885734 0.0765906 -0.12254144
-0.085856915 0.094741754 -0.12095383 0.018846558 -0.084063165 0.04273419 -0.0496418 -0.036548793
0.061238136 0.12780714 -0.13969246 0.07505135 0.02623297 -0.0019666173 -0.13113867 0.115010805
0.09139118 -0.11456973 -0.08950031 -0.13583846 -0.075223036 0.013383848 -0.061328772 0.08760674
-0.053154502 -0.12787221 0.09574553 -0.026831115 -0.18282884 0.06562227 0.030822251 -0.13588369
0.14365287 0.07195415 -0.09250601 0.035368636 0.03658723 -0.13410452 -0.094904654 -0.10772271
0.07135038 0.046792634 0.059697565 -0.068065666 0.0233376 0.03483423 -0.029772034 0.025896072
0.076209925 0.07702384 -0.035762515 -0.087289125 -0.11084104 0.03381127 -0.09795618 0.04640701
-0.015532417 0.043050252 -0.05439252 -0.07473651 0.07000483 -0.1588468 0.027101584 -0.116297826
-0.003979014 -0.15274376 -0.08781778 -0.091916434 -0.063323684 -0.004659931 -0.10394543 -0.04067902
0.109413 0.047714632 0.090315 0.10842505 -0.021744402 -0.04343111 0.1031028 -0.00901467
0.010117789 0.0670992 -0.085758746 0.09011599 0.024097262 -0.08716566 -0.114995874 0.16206639
0.13087392 0.03786117 -0.06236387 0.078893304 -0.082338706 -0.084859066 0.09246808 0.0637637
0.075628445 0.092434905 -0.11106339 -0.11356393 0.07347661 0.028610518 -0.050107498 -0.0035152547
0.07251399 -0.17482342 0.06646881 -0.03337193 -0.1304411 -0.075971015 -0.016113156 -0.07645468
-0.14500694 0.047554135 -0.02150889 0.043679338 0.11699401 -0.114038974 -0.10298095 -0.19049744
0.039053835 -0.053628843 -0.033193033 0.062198978 0.020577332 0.03198059 -0.106143646 -0.07805606
-0.14802192 -0.008802511 -0.056146 0.024539381 -0.03408103 0.01701474 -0.064015545 -0.09877405
0.074102655 -0.14403549 0.067350246 -0.026411116 0.059709705 -0.0031170165 0.035361547 -0.0856894
0.068696804 -0.09919946 -0.11187224 0.057660073 0.016106233 -0.10677868 -0.019606257 0.12513795
-0.100175574 0.057204857 -0.07867323 0.021598214 -0.045834348 -0.06843567 0.09092002 -0.12082187
-0.11150427 -0.05201606 0.08456015 0.04684425 0.106328726 0.11442631 -0.024065446 -0.12577017
-0.065072566 -0.014189587 -0.11175238 0.069065556 -0.010066873 -0.062182277 -0.1403549 0.08455024

bn_outlayer_in.weight f4 [64]
00000000: 78fd 723f 71b4 843f 351b 833f 6471 7e3f
00000010: b5cc 763f 1ca5 7f3f 0ae5 813f b003 703f
00000020: f22b 743f 14e1 763f ab30 933f 3455 783f
00000030: f303 733f 2040 743f 8b75 733f 4bfd 793f
00000040: 26fa 743f 0447 7b3f ecea 7c3f 3f12 8a3f
00000050: 7771 803f 6d37 743f 3791 7c3f d10d 753f
00000060: 4ed8 7a3f 3477 7c3f 0a36 7d3f 1548 783f
00000070: 48a5 763f 1935 7c3f 0af4 7e3f 0b30 783f
00000080: 6b33 793f d468 7a3f aa74 823f 39fd 7a3f
00000090: 7b98 893f 5c00 7d3f 4d76 7e3f 7d79 833f
000000a0: 962c 783f 96c4 703f 71b4 833f 08c3 793f
000000b0: 582c 983f 6f64 7d3f 515f 773f 099e 743f
000000c0: 369b 7f3f 556c 743f 58f4 723f f03d 783f
000000d0: 545f 763f aa0c 763f 683e 8f3f d8c1 7e3f
000000e0: 5e63 763f dc04 773f 1b07 763f 2a08 773f
000000f0: bacf 7b3f af24 843f 1663 7a3f 5058 813f
0.9491801 1.0367566 1.0242678 0.9939177 0.9640611 0.9986131 1.0148022 0.93755627
0.95379555 0.9643719 1.1499227 0.9700501 0.949279 0.95410347 0.9510123 0.9765212
0.95694196 0.98155236 0.9879596 1.0786818 1.0034627 0.95397073 0.9865908 0.9572421
0.97986305 0.9861939 0.9891058 0.9698499 0.9634595 0.9851852 0.99591124 0.9694831
0.9734408 0.97816205 1.0191853 0.9804264 1.0749658 0.98828673 0.9939926 1.027145
0.9694303 0.94049966 1.0289441 0.9756322 1.1888533 0.98981375 0.96629816 0.9555364
0.9984621 0.954778 0.9490409 0.9696951 0.9623921 0.96113074 1.119092 0.9951453
0.9624537 0.9649179 0.9610459 0.9649683 0.9836384 1.0323695 0.97807443 1.0105076

bn_outlayer_in.bias f4 [64]
00000000: ebf7 c2bd 261f 6e3d 94bd 423d ed73 1c3c
00000010: f668 a63d f9d8 023d 27f6 823d 6e3a 1cbd
00000020: 0e6c 0fbd 9601 f6bd 5ceb b73d 26e9 d83d
00000030: 01ff 9cbd a5e7 d7bc 8573 d9bc 543f 37bc
00000040: 2cdf 3c3c 0d4d 303d 131e 413d bec0 5b3e
00000050: 0e7c 393c 2781 943d 33a7 6d3d 1950 c13c
00000060: de12 e7bd 81f1 c73c f692 eb3d 8dac f0bc
00000070: 2682 b8bc 1288 843b f7cd fd3c 94a0 503d
00000080: 6e34 eebc c27a 9abc 331f babc 817e 66bd
00000090: 2b80 173e 34ff 083c dfa1 133c 5a51 ec3c
000000a0: 1d72 01bc 02c8 aebd 449f 763d 58a2 5dbd
000000b0: 427c e43d f23a 4f3d f56f ffbd 55c6 e0bc
000000c0: 966d e03c 4592 00be b3b7 1ebd c5e8 5c3d
000000d0: 658e 58bb f3d6 55bd 54ec a63d d60c 5e3c
000000e0: ea6c 46bd 98db d83c 07f7 55bd 3718 45bb
000000f0: 0c58 783d e03f 9c3d edbd d4bc 643d ee3a
-0.09519943 0.058135174 0.047544077 0.009549123 0.081254885 0.031945202 0.06394606 -0.03814166
-0.03501516 -0.12012021 0.08980438 0.105913445 -0.07665826 -0.026355574 -0.026544342 -0.011184532
0.011527818 0.04304223 0.04714782 0.21460244 0.011321081 0.07251196 0.05802078 0.023597764
-0.112828955 0.02440715 0.1150264 -0.029379154 -0.022522997 0.004044541 0.030982 0.05093439
-0.029077735 -0.018857364 -0.022719955 -0.056272987 0.14794986 0.008361626 0.009010761 0.028847385
-0.007900742 -0.08534242 0.06021048 -0.0541099 0.11156513 0.050593324 -0.12472526 -0.027438322
0.027396005 -0.12555797 -0.038749408 0.053932924 -0.0033043858 -0.052206945 0.08150545 0.013552865
-0.048443712 0.026471898 -0.052237537 -0.0030074248 0.060630843 0.07629371 -0.02596947 0.0018176255

bn_outlayer_in.running_mean f4 [64]
00000000: 5617 5e3b 3b27 ca3a 205a 643b 1896 813a
00000010: 09a1 9bbc 9945 c63a 63de 653b 8022 48bc
00000020: 1605 6eba 8ba0 2c3b e86c bbbc 86f3 79bc
00000030: 818a 1b3b c8c6 b4ba 8300 96ba c815 64b9
00000040: 7d97 1c3b 30ed 953b 1489 a6bb 7b3e 22bd
00000050: 9118 25bc c67e f23b 41b4 69bc 10c3 99bc
00000060: 103c ce3b 7f8b 483b 09e7 d2bc a840 f9ba
00000070: dbf0 18b9 871c dbb9 ac68 883a 6e87 87bc
00000080: 231b 543c 7809 d6b9 798c 31ba 50c9 9f3a
00000090: 9287 1cbd 51cf 9039 cfdd eabc 49a2 fc3a
000000a0: c62c b7bb 22ac 423a b8e9 26bc 1ca2 12bb
000000b0: 82c2 f4bc f47a 91bc 0826 ba3b aa16 84bc
000000c0: 3b21 4c3a dea8 ce3b 74d0 a5ba 2daa 94bc
000000d0: de6b 13b9 2c4a 1f3c f821 98bc b212 38bb
000000e0: 314a f1ba 451e 913a b317 faba 9902 493a
000000f0: 5de3 d5bc 1dbf d93b 5c0e c4ba 57f9 ce37
0.003388842 0.0015423069 0.0034843758 0.000988665 -0.018997686 0.0015126943 0.003507518 -0.012215257
-0.00090797374 0.0026340808 -0.022879079 -0.015255814 0.0023733678 -0.0013792152 -0.0011444244 -0.00021751889
0.0023894005 0.004575394 -0.005082259 -0.039610367 -0.010076658 0.0074003665 -0.014264167 -0.01876977
0.006293781 0.0030600724 -0.025744932 -0.0019016461 -0.00014585575 -0.0004179219 0.0010407171 -0.01654407
0.012945923 -0.00040824316 -0.0006772946 0.0012190733 -0.038215227 0.00027620283 -0.02867022 0.0019274439
-0.005590054 0.00074261625 -0.010187559 -0.0022374457 -0.029877905 -0.017758824 0.005680803 -0.016124088
0.0007786934 0.0063067516 -0.0012650625 -0.018147552 -0.00014059196 0.009722274 -0.018570885 -0.0028087315
-0.0018408952 0.0011071643 -0.0019080549 0.00076679286 -0.026109392 0.006645097 -0.0014957893 2.4673222e-05

bn_outlayer_in.running_var f4 [64]
00000000: 8c04 623b ee8c f73a 1919 053b 8631 d13a
00000010: 6962 bc3b 1a77 4b3b d956 183b e617 ff3a
00000020: e8bc 973a f0bc a83a 3973 f439 24a0 b23b
00000030: 64af a73a 9fb3 be3b e293 903b 3b70 3e3a
00000040: 066b 813b b2e7 a43b fe88 c53a 04d5 513c
00000050: 4cb9 433a 9847 5d3b 4942 2d3b b0a3 993a
00000060: 9537 4c3b 8cb4 463b f8c5 d73b 4458 ea3a
00000070: 9078 d23a a779 6e3b c72f 063b c805 4e3b
00000080: 5b9b c23a 199a a33b 6dc5 bc3a 0e13 313b
00000090: a8fc de3b cd6e 2a3b 9afe c93a 2769 2f3b
000000a0: cc60 da3a cf66 3b3b b858 903a 779a be3a
000000b0: 456d 473a 483a 733a c976 9a3a f73d be3b
000000c0: 93db f63a a3da f93a bcc6 bf3a e3e2 ce3a
000000d0: 0fdb 353b a3b1 b23a b111 d339 7e32 4f3b
000000e0: 191a 673a 233d 663b 0a87 a53a 0c9d e33a
000000f0: 5313 ba3a 6a84 843b 889c e53a ff96 fa3a
0.0034487573 0.0018886605 0.0020309149 0.0015960194 0.005749036 0.0031046332 0.0023245125 0.0019462078
0.0011576684 0.001287369 0.00046625154 0.005451219 0.0012793359 0.0058197523 0.0044121603 0.00072646484
0.0039495258 0.005032503 0.0015070734 0.012807135 0.0007466271 0.0033764597 0.0026437214 0.0011721756
0.003116106 0.0030320017 0.006584879 0.0017879088 0.0016057659 0.0036388428 0.0020475255 0.0031436551
0.0014847325 0.004992735 0.0014402099 0.0027019414 0.0068050213 0.0026005984 0.001541096 0.0026765557
0.0016660928 0.0028595214 0.0011012768 0.0014541884 0.000760753 0.0009278399 0.0011784668 0.0058057266
0.0018833749 0.0019062351 0.0014631371 0.001578417 0.0027748977 0.0013633262 0.00040258237 0.003161579
0.00088158395 0.0035131655 0.0012628746 0.0017365529 0.0014196433 0.0040441053 0.0017517963 0.0019118487

gnn_layers.0.gnn.att_i f4 [1, 1, 64]
00000000: c5da 153c f0e9 643e 1513 3e3e 0acc a7be
00000010: c3e2 d83e f24b 923d 0459 9abe 01ab 52be
00000020: 7deb 773e 740b 493d e932 d43d a019 e33d
00000030: adf7 efbd 0c5b 2dbc 7fbb 3abe f505 d13e
00000040: 5e14 64be bdcb 763e 8235 553d 076c c43d
00000050: c0a5 abbe a3b2 58bc 9589 643e de9b 543c
00000060: 7164 bc3d a057 d03d d78c 1fbe 8ee9 5d3c
00000070: 2dc4 43bc 3aa8 8d3e c2a7 263e 0afd b7bd
00000080: 4cbd 70bc dda6 12be 86e4 a0bd a80d 1fbe
00000090: b3fc 813e 552f e9bd 16da f53d 459f 033e
000000a0: 4bc6 81ba 36a6 373d 1f70 c33c 40fa 66be
000000b0: a581 6cbd dfaf 0e3d 1474 bbbe 000c f03e
000000c0: 1d3c babc abbe 5ebe 9477 babe 49c0 b0be
000000d0: 74b8 4e3e 2775 15be e3c5 50be fa5f 5abc
000000e0: 8e61 633e 6d94 4cbe 077c 403e e614 1a3e
000000f0: ae33 a5be b38e b43e 8a02 643d c54b 8e3e
0.009146397 0.22354865 0.18561967 -0.32772857 0.42360505 0.07143392 -0.3014604 -0.20573045
0.24210925 0.04908319 0.10361273 0.11088872 -0.11717162 -0.010580789 -0.18235587 0.40824857
-0.22273394 0.24101157 0.052052982 0.09590917 -0.33524895 -0.013226184 0.22318108 0.012976615
0.09198845 0.10172963 -0.1558107 0.013544453 -0.011948627 0.2766741 0.16274932 -0.0898381
-0.014693569 -0.14321466 -0.078560874 -0.15532553 0.25388107 -0.11385981 0.12004487 0.12853725
-0.0009901015 0.044836245 0.023857174 -0.225564 -0.057740826 0.034835692 -0.36611998 0.46884155
-0.022733742 -0.21752422 -0.36419356 -0.34521702 0.20187551 -0.14595471 -0.20387988 -0.013328547
0.22205183 -0.19978495 0.18797313 0.15047035 -0.3226599 0.3526512 0.055666484 0.27792183

gnn_layers.0.gnn.att_j f4 [1, 1, 64]
00000000: 0a03 2c3e 4be8 9bbe 1a9a 2f3d 9558 c23d
00000010: 605a bbbd 6848 763e a0b2 87be bed8 d2bd
00000020: f3e9 8d3e 40a9 993e 4944 0f3e e328 25be
00000030: eba8 8cbe 859b 6bbe 6ba4 8abd 8942 253e
00000040: 5aa6 c73d 5373 dbbc 6acb 943e 13cc 853e
00000050: a9dd 21be a39f eebd 7861 e83b 1f5e 593d
00000060: 4bad 9a3c 994b 0f3e d6f0 653e a22d 9dbd
00000070: c301 ed3d 7579 3a3d efc1 d53d b8d4 ea3d
00000080: c6e9 c2bd 8496 03be a389 ef3d 97f0 30be
00000090: 7026 2d3e 3dd6 4fbe 5707 493e dca0 e83d
000000a0: 2f9b 6cbd eac2 403e c768 88bd 9549 663d
000000b0: d708 a83d 20e8 9f3c 7ba8 9a3d 8fea 273a
000000c0: f99d 8cbd f1e3 383e 7e02 e13d 589a ca3d
000000d0: 291f 373e 9983 32be baa6 a9bd 1539 e43c
000000e0: bd2b 6f3e 0592 53be 96e3 36be 2c6c a5bd
000000f0: 2e29 8bbe 54b0 73be de15 323e 3b2c 453a
0.16798034 -0.30450663 0.042871572 0.09489552 -0.09148097 0.24051058 -0.26503468 -0.102952465
0.27717552 0.3001194 0.13990892 -0.16128878 -0.27472624 -0.23008545 -0.067696415 0.16138662
0.09748526 -0.02678839 0.29061443 0.2613226 -0.15807213 -0.11651542 0.0070916973 0.053068276
0.01888146 0.13993682 0.22455153 -0.076747194 0.11572602 0.045525987 0.104373805 0.11466354
-0.09517245 -0.12850386 0.11696174 -0.17279278 0.16909194 -0.20296569 0.19631706 0.113588065
-0.057765182 0.18824354 -0.0666061 0.056222517 0.08204811 0.019519866 0.07551666 0.00064054964
-0.068660684 0.18055703 0.109868035 0.0989272 0.1788298 -0.17433013 -0.08283754 0.02785925
0.23356529 -0.20661171 -0.17860255 -0.08077273 -0.27179855 -0.23797733 0.17391154 0.00075215445

gnn_layers.0.gnn.att_em_i f4 [1, 1, 64]
00000000: 0bf5 10be 4a92 75be 342e 1f3e 36d6 373e
00000010: 6252 ed3d a274 65be cb71 de3d 2721 a4bd
00000020: a5dd b43d e996 803d 9884 f53c 0832 2e3e
00000030: 2a1d 153e 0c3f ebbd 852f 52be 2329 d4bb
00000040: e214 c4bd a7ef d0bc bc23 263e ee23 fe3d
00000050: 7a2a ce3d c8db c5bd 1107 d33c 8369 b8bd
00000060: 0bbe 2abe 2015 5bbe 23dc 6e3d 617c b1bc
00000070: 10d7 b23d 4892 2abd 5be7 f03d 706f f7bd
00000080: a989 4f3e 8860 823c df85 bcbc 4b24 0a3d
00000090: e3a7 813e 5da2 91bc 6337 01be 9f5f a23c
000000a0: ff45 adbd c789 823d 7889 20bd e70b a0bd
000000b0: 748a 0a3e 27f4 f5bd 7b22 933d b6e5 863d
000000c0: 949d 41be 1020 1dbc 63e6 0c3d 7adb 25be
000000d0: a25f aabd 03ac 703e 635c 023e 5c89 f9bd
000000e0: 6086 b6bd 2d3e 0cbe 21d6 683d a5f3 0b3d
000000f0: bb2c 9f3b d918 9cbe 7dd5 67be 571a 17be
-0.14155976 -0.23981586 0.15544969 0.17952809 0.11587979 -0.22407773 0.10861548 -0.08014136
0.08831338 0.06278784 0.029970452 0.17011273 0.14561906 -0.114866346 -0.2052594 -0.0064746304
-0.095742956 -0.0255049 0.16224569 0.12409197 0.100666955 -0.096610606 0.025760205 -0.090045
-0.16674058 -0.21394777 0.058315407 -0.021665754 0.08732426 -0.04164341 0.117628776 -0.12081802
0.20267357 0.01591517 -0.023013053 0.033726018 0.253234 -0.017777616 -0.12618785 0.019820986
-0.08460616 0.06373935 -0.0391936 -0.0781477 0.13529378 -0.12009459 0.07184311 0.06586783
-0.18907768 -0.009590164 0.0343994 -0.16197005 -0.08319022 0.23503117 0.12730555 -0.12184402
-0.08912349 -0.13695593 0.056844834 0.034167904 0.004857627 -0.30487707 -0.22640033 -0.14756142

gnn_layers.0.gnn.att_em_j f4 [1, 1, 64]
00000000: 887f b0bd 49f3 12be 7814 283e 7250 25be
00000010: e78c a5bd d694 bd3d 1ce0 20be 869f 813d
00000020: 51e4 993d 3f86 b6bc e4ef 5c3d 92ed bebc
00000030: 627d bbbd 5ab4 9c3d 5395 0fbe 1ee9 febd
00000040: 09d8 2c3e 1249 f53d 68f1 5d3d e8ce 0ebe
00000050: d808 073e d9bc 16ba fa56 03be 1a13 2f3c
00000060: e72c 84bd 648f b7bb dd74 afbc c4ef b53d
00000070: 628f 0d3d bc8e a23c 7841 37bc 4044 103e
00000080: f569 d7bc b386 b13c 8c85 06bc 0b52 62bb
00000090: 013a dcbd 6ecf cdbd ccd3 743c 0bd8 25be
000000a0: 6ac5 36be e280 d03d 117e b93d 9359 fbbd
000000b0: 2408 183e 842c e73d cc9f 063e 7daa 1b3d
000000c0: 1609 e4bd 8794 c83b fad9 973d b309 a53d
000000d0: 9b25 1abe e6b4 02bd 1391 ee3d 6e34 973d
000000e0: d20d fa3a d2a6 02be 41d4 ba3d 78ac 80bd
000000f0: a024 d83d d40b b7bc 7b49 0a3b 6c5a 14be
-0.08618075 -0.14350618 0.16414058 -0.16143969 -0.080835156 0.09256904 -0.15710491 0.06329255
0.07514251 -0.02228081 0.053939715 -0.023306642 -0.09154774 0.07651587 -0.14021806 -0.12446807
0.16879286 0.11976828 0.0541853 -0.13946116 0.13186967 -0.00057501864 -0.12826148 0.0106857065
-0.06453877 -0.0056018103 -0.02141803 0.08883622 0.03456057 0.019843452 -0.011185043 0.14088535
-0.026295641 0.021670675 -0.008210551 -0.0034533765 -0.10753251 -0.1004933 0.014943074 -0.16195695
-0.17848745 0.101808324 0.090572484 -0.12272944 0.14846855 0.112877876 0.13146895 0.038004387
-0.111345455 0.0061212215 0.074146226 0.080584906 -0.15053408 -0.0319108 0.116487645 0.07383047
0.0019077605 -0.1275895 0.091225155 -0.06282896 0.10553861 -0.022344507 0.0021100927 -0.14487618

gnn_layers.0.gnn.bias f4 [64]
00000000: 3b1b db39 7107 3e3a ee80 823a 3689 2bba
00000010: c6fe 0b3b b5bf fdba b0dd 6bbb 8431 1eba
00000020: 6847 1c3b e1d2 bc3a 58c6 10bb 3e18 d338
00000030: edde 213b 53c7 a2ba b3dd d3b9 d16e deba
00000040: cbcc 4f3a 0ddd 93bb 091a 013b dab5 13b8
00000050: 8bc2 d23a bc4d 4c3a 88ac 47ba 3fbc d63a
00000060: eb47 2c3a 0bd5 17bb 8306 8bba 5879 783b
00000070: cc26 923b 998e 98bb 56fa b4bb a72c 74bb
00000080: 0881 23ba d2b3 b8bb fa15 8abb eb9c 1cb8
00000090: 2964 4239 4093 a33b 8ef4 5bbb 97c1 8cb9
000000a0: 599c 593a 18dc d43a 7a31 1eba 5f51 75ba
000000b0: 47f1 48bb 8538 823a 73ea 38ba 7876 003b
000000c0: 016c f639 f3c3 ae38 8ad6 21bb 7ca6 e939
000000d0: 54da 9b3b c991 a239 64a9 b6ba ae92 9fbb
000000e0: 379b 5cba 6467 9fbb 0964 93ba 83cb 32bb
000000f0: 3d7a 2aba 2232 80ba 62ce 1e3b 54fb 873a
0.00041791223 0.00072490337 0.0009956637 -0.00065435783 0.0021361574 -0.0019359501 -0.003599029 -0.00060346
0.0023846272 0.0014406109 -0.0022090878 0.000100657795 0.0024699525 -0.0012419022 -0.00040410235 -0.0016970282
0.000792694 -0.0045124353 0.0019699356 -3.5216894e-05 0.0016079707 0.0007793566 -0.0007616957 0.0016383006
0.0006571996 -0.0023167755 -0.0010606799 0.0037914123 0.0044601914 -0.004655671 -0.0055230064 -0.003725806
-0.00062371837 -0.0056366706 -0.0042140456 -3.733944e-05 0.00018538594 0.004991919 -0.0033562514 -0.00026847117
0.00083011907 0.001623991 -0.0006034594 -0.00093581335 -0.003066139 0.0009935057 -0.00070539786 0.0019601863
0.00047001246 8.333465e-05 -0.0024694526 0.00044565264 0.0047562514 0.00031007666 -0.001393598 -0.0048697805
-0.0008415463 -0.00486462 -0.0011245023 -0.0027281947 -0.00065032 -0.0009780566 0.00242319 0.0010374584

gnn_layers.0.gnn.lin.weight f4 [64, 15]
00000000: 4317 e03d edeb 81bd 70ad 8f3e cef4 323c
00000010: b20f 03be 1a5e b13d aaaf 1f3e b3fc d43c
00000020: 9a64 813e 3fe7 24be 0fe3 fd3d e7d2 233e
00000030: 4671 153e 8a3c 2c3c b38c 9a3d a920 6cbe
00000040: 9fc4 64be 915a 0abd 28f3 26bd 9dee 4b3e
00000050: 05f0 423e 14fa 373e bdbf 02be 13b3 5fbe
00000060: 7ee2 88be 52ad bf3d c396 6ebe d627 82be
00000070: de9b ffbd 7e2a 18be 0ae9 1dbe e1e2 50be
00000080: 21ed 34be 84c5 783e 7e92 5fbd 3474 5e3e
00000090: 5773 d7bc 6066 61bc d923 92bd 0591 4bbe
000000a0: 3766 7fbe 74c5 353e a3bf eabd 868e b7be
000000b0: a880 c83e 675b 143d dbba 28be 9032 48be
000000c0: 7e85 6fbe 96e6 75be 7612 803e ef54 413e
000000d0: 0e3a 6eba 8a18 7fbe be4c 74bd f24e 7abe
000000e0: f578 5d3d 0ee9 fcbd 31bd c1bd 1689 6dbe
000000f0: 7b74 b33d a87a f33d 1780 013d 4c19 35bd
00000100: 57a7 07bd e33a 28bb f3d7 4ebe 3482 973e
00000110: 2fc1 babd ba43 2c3e e6de 14be 85b3 5b3d
00000120: d487 1f3e d612 54be 4076 8c3e 7d8d 4bbe
00000130: c503 473d b6e6 22bd 81c7 313e 83d6 8f3e
00000140: 0bf3 9f3d c3d8 c03b e216 e4bd fa0e ef3d
00000150: 7296 f4bd 121e f43d f1e0 dbbd b85f 483e
00000160: 19eb 5b3e 8114 613e b15c 093c faea 0b3e
00000170: 7268 82be 5635 593e f2ea a7bd 2489 ac3d
00000180: 96d1 69bd 554f 05be e0ca 1ebe 018d 323e
00000190: 9b0c 10be 08a6 a7bd cc69 bf3d 0241 1cbb
000001a0: 32c0 b8be 5c64 88be 2662 08be 0433 803e
000001b0: 2c86 4bbe b341 163e 210c 493e 6e81 e5bd
000001c0: 895a 0fbe 5659 53be 3813 233d 0d2f 22bd
000001d0: 735c 483b d16c d83d 0b35 df3d 6cda 10be
000001e0: 761e adbc d03f be3c e9f5 c1bc d2c2 c93c
000001f0: 6705 0dbe ee0d 5b3e 28e8 3ebd 3721 e3bc
00000200: 5909 76be 9154 45be 54ee 263c 8f15 04bd
00000210: ec65 00be 63e5 153e 3f06 823d 577d b23d
00000220: c46c 613e 257f 00be 039b 07be 048e 39bd
00000230: 63bf 0ebc be57 05be 0dcd 0fbd 0242 633c
00000240: a340 0f3e b863 873e 92e9 603e f4a6 583d
00000250: 289b f53b aa78 d73d 6718 a23c d806 07bc
00000260: b70d ea3d d3a0 49be b68d 4ebe b481 103d
00000270: bf40 77bd 8ea6 cbbd 5ca8 73be 11cc 3f3e
00000280: 8b4e 2ebc 774d 04be 9c7e aabd 2065 b33d
00000290: bf09 e9bd 06a5 06bc fca6 9fbc f526 993d
000002a0: 81ea cf3d f1d2 32be 66ba f43d 6f5f 5b3e
000002b0: 1e7b 1d3d 41b1 233e d5df b7bd 42ec 943d
000002c0: e52d f43d e707 a7bd ed6b 5a3e c6c9 2dbe
000002d0: 9d7b e0bd d7b9 2abe 5f56 35be 0ac9 37be
000002e0: a165 8cbe 47d9 d93c 7826 8cbd 92a7 87be
000002f0: 4323 bcbc 4374 74bd 0c4b d53d b4a4 75be
00000300: c7d8 ddbd 62bc f83c d9de 3d3d 306e 453c
00000310: 48b5 933d 5800 853e 1962 dbbd 4cc5 303e
00000320: ef4a 603e cc3a 83be e181 383d 74c7 123e
00000330: 8101 5ebd a270 183e 00b0 7f3c ddb8 583e
00000340: 6748 163c 4f68 20be f411 7c3e daa9 f33d
00000350: 7d03 833e 6939 9c3d 39e1 143e 7e9c 253e
00000360: f2b0 5d3d d7d5 93bd 3ed7 803d 974b 2fbe
00000370: 46ca 1a3d 13e9 a8bd 0b26 773c a05a 54be
00000380: a459 d73d 173a 94be 2c3a a23d 9c50 0c3e
00000390: 07d4 94be e29a 613e f432 5cbe dd4c 92bd
000003a0: 9f20 203e 8217 a7bd 062b 733e a895 09be
000003b0: fc11 23bd 607a 3abe e951 19be b7dd a73e
000003c0: 4c2f 5e3e f45a d43c d5cc bf3c 6d7d 74be
000003d0: 7383 413e 4e1f 72bd cd01 06be 61e7 78be
000003e0: 32b3 523e 0fdc f63d 3507 253e d049 ba3c
000003f0: ff82 4dbe d442 d13d 08fa 1b3b 2789 8b3d
0.10941937 -0.063438274 0.2806201 0.010922624 -0.12798956 0.086605266 0.15594354 0.025999403
0.25272065 -0.16103838 0.123968236 0.15998422 0.14593992 0.0105124805 0.075463675 -0.23059334
-0.2234063 -0.033777777 -0.040759236 0.19915242 0.19036873 0.17966491 -0.12768455 -0.21845655
-0.267353 0.0935923 -0.23299699 -0.25421017 -0.12480901 -0.1485996 -0.15420929 -0.20399047
-0.17668582 0.24294096 -0.054583065 0.21724015 -0.026300116 -0.013757318 -0.07135744 -0.1987954
-0.24941336 0.17751104 -0.11462333 -0.35850924 0.39160657 0.03621998 -0.1647753 -0.19550538
-0.23390767 -0.24013743 0.25014085 0.18880056 -0.00090876303 -0.24911705 -0.0596435 -0.24444178
0.05407043 -0.12349139 -0.094599135 -0.23196825 0.08762451 0.11888629 0.031616297 -0.044213578
-0.033118572 -0.0025669865 -0.20199566 0.29591525 -0.09118878 0.1682271 -0.14538154 0.053638
0.15579158 -0.2071031 0.27433968 -0.19878192 0.04858758 -0.039770804 0.17361261 0.28093347
0.07810029 0.005885215 -0.11137177 0.116727784 -0.11942758 0.11919798 -0.107362635 0.19567764
0.21476401 0.21980478 0.008383916 0.13663855 -0.2547031 0.21211752 -0.08199109 0.08424595
-0.057084642 -0.13018544 -0.15507078 0.17436601 -0.14067309 -0.08185965 0.09346351 -0.0023842459
-0.36084133 -0.26639068 -0.1331869 0.25038922 -0.19875401 0.146735 0.19633533 -0.112063274
-0.1399938 -0.20639548 0.03981325 -0.039595652 0.0030572682 0.1056763 0.10898789 -0.14145821
-0.021132689 0.023223788 -0.02367683 0.02462903 -0.13771592 0.21392033 -0.04660812 -0.027725799
-0.24027003 -0.19270541 0.010188658 -0.032247122 -0.1253888 0.14638285 0.063488476 0.08715313
0.22014147 -0.12548502 -0.13242726 -0.045301452 -0.008712622 -0.13021752 -0.03510766 0.013870718
0.139895 0.26443267 0.219641 0.052893594 0.0074953027 0.10521062 0.019787027 -0.008241378
0.11428397 -0.19690256 -0.20171246 0.035279945 -0.06036448 -0.09943877 -0.23794693 0.18730189
-0.010638843 -0.12920175 -0.0832493 0.087595224 -0.11378812 -0.008218056 -0.019488804 0.074781336
0.1015215 -0.1746328 0.11949615 0.21423124 0.03844749 0.15985586 -0.089782394 0.07271625
0.11922816 -0.08155804 0.21330233 -0.16971502 -0.10961077 -0.16672455 -0.17708729 -0.17947784
-0.27421287 0.026592864 -0.06843275 -0.26495034 -0.022966033 -0.05968119 0.10414705 -0.2398861
-0.108323626 0.030363265 0.046355102 0.0120501965 0.07212311 0.25976825 -0.1071207 0.17262763
0.21903585 -0.25630796 0.045045737 0.14333898 -0.054200653 0.14886716 0.0156059265 0.2116427
0.0091725355 -0.1566479 0.24616224 0.11897631 0.255886 0.076281376 0.1453904 0.16172978
0.054123826 -0.07218521 0.06291054 -0.17118679 0.03779056 -0.082475804 0.015084754 -0.20737696
0.105151445 -0.2895057 0.07921252 0.13702625 -0.29068014 0.2203174 -0.21503812 -0.07143567
0.15637444 -0.08158781 0.23746881 -0.13435996 -0.039812073 -0.18210745 -0.14972652 0.32786343
0.2169773 0.025922276 0.023413101 -0.23875971 0.188978 -0.059111886 -0.13086624 -0.24307014
0.2057617 0.120536916 0.1611603 0.022740275 -0.20069502 0.102178246 0.0023800153 0.06813269

gnn_layers.0.bn.weight f4 [64]
00000000: 1bc6 663f ad07 583f 769d 4c3f 1a0a 553f
00000010: 7ff8 7c3f cfd1 4d3f 6464 473f 292a 523f
00000020: 92ae 723f a18d 383f 2a87 343f 6887 583f
00000030: fc08 673f c30a 583f 1f32 603f 59df 463f
00000040: 1921 503f 55bd 4b3f b45c 373f 6403 633f
00000050: d311 233f cad0 573f 8bab 493f 46f6 643f
00000060: 5d8c 383f 1c98 493f 6737 713f f918 563f
00000070: 41af 603f a8dc 4f3f d2c1 403f 252d 563f
00000080: 9491 773f 207c 593f 2f58 4c3f 0d04 543f
00000090: 1a0a 413f 8eeb 543f 16bc 5e3f 5971 573f
000000a0: 6773 703f fcd0 523f 00a8 1f3f 887d 443f
000000b0: 2122 2a3f f77d 7b3f 8a62 3b3f 803f 6d3f
000000c0: 8ee8 303f b4fd 373f 9644 563f 6899 783f
000000d0: e07d 593f f517 763f bbd0 4c3f 20af 463f
000000e0: 7e20 603f aa23 493f e557 563f bc5a 4e3f
000000f0: 5dd5 4d3f c0de 353f afb6 363f 1f47 4a3f
0.90146035 0.8438671 0.79927766 0.8321854 0.98816675 0.8039827 0.7788756 0.8209558
0.94797623 0.7209111 0.70518744 0.84581614 0.90248084 0.8439142 0.8757648 0.7768455
0.81300503 0.7958577 0.7162583 0.8867705 0.6369907 0.8430296 0.7877738 0.89438283
0.7208918 0.78747725 0.9422516 0.83631855 0.87767416 0.8119607 0.75295746 0.83662635
0.9670651 0.84955025 0.7982206 0.8281868 0.7540604 0.8317193 0.87005746 0.8415733
0.9392609 0.82350135 0.6236572 0.76754045 0.66458327 0.9823908 0.73197234 0.9267502
0.6910485 0.71871495 0.83698404 0.9710908 0.84957695 0.96130306 0.80006 0.7761097
0.8754958 0.78570044 0.83727866 0.806072 0.8040369 0.71043015 0.71372503 0.7901477

gnn_layers.0.bn.bias f4 [64]
00000000: 3988 66bd 3d19 293e 48d6 2e3e 9c9d 0f3e
00000010: 72c5 9a3c c23d f63d 2604 223e 8c5d a4bd
00000020: 263a 123d b010 f5bd d124 953e 97b9 a6bd
00000030: cf4d 66bd d13d b13d 7541 a73d dc05 1d3e
00000040: f4c2 c93d 39f4 f53d d08b f5bd 9c32 ca3d
00000050: 0bf1 5e3e 92b4 bb3d 596c 00be 2ae1 8c3d
00000060: ca9d f4bd fec7 f43d c78f 16bd de1b ef3d
00000070: 4870 b33d 1ae7 e03d de30 393e 7711 d53d
00000080: 1b0c 1bbd 4f1e ae3d ffb5 363e 80bc 9e3d
00000090: c2d5 393e 49b3 173e f67b a53d c496 123e
000000a0: 828f 1e3d 9b12 a2bd 0866 653e 486b 1e3e
000000b0: ae98 953e 2267 a0bc 251e 08be 919b 323d
000000c0: 5fb0 5b3e 6b2f 04be c0eb d63d 111b c9bc
000000d0: 22fa be3d 083f 56bc c771 693e b132 f93d
000000e0: 2594 a53d fd41 023e 0cee c43d 4fb6 ef3d
000000f0: a160 bb3d 0d8c 363e e859 353e 9baf 143e
-0.056282256 0.16513534 0.1707393 0.14024967 0.018892977 0.12023498 0.15821895 -0.08025655
0.035699986 -0.119660735 0.2912965 -0.08140867 -0.056226548 0.08654369 0.08166782 0.15334266
0.098516375 0.120094724 -0.11989558 0.09872934 0.21771638 0.091653004 -0.12541331 0.06878884
-0.119441584 0.11952208 -0.03675821 0.11675237 0.0876165 0.10981579 0.18085048 0.10403722
-0.03785334 0.08501875 0.17842864 0.07750797 0.18147948 0.14814486 0.08080284 0.14315325
0.03871108 -0.07913705 0.22402203 0.15470612 0.29218048 -0.019580428 -0.13292749 0.04360539
0.21453999 -0.12908714 0.104941845 -0.02454904 0.09325053 -0.013076551 0.22797309 0.12167872
0.08084897 0.12720485 0.09615716 0.117046945 0.0914929 0.17826863 0.17710078 0.14520113

gnn_layers.0.bn.running_mean f4 [64]
00000000: c37c a83e baed c4be 841d 31be 4f8c cdbe
00000010: 8610 113e f994 8c3e 660d 3dbe b392 e0bd
00000020: 12b2 e7bd 473d 4f3e 30c5 5bbe 57a1 323e
00000030: cbd9 d6be f165 5a3e 2b6e 3f3e 7c5d a2bd
00000040: 8022 633d e597 b63d 6975 843e e769 bc3d
00000050: 36c2 26bd d84d 513e 65b5 b13e da28 54be
00000060: 2931 063e 670d 893e 593a 793e 9672 15be
00000070: 78ad 58bd 5695 693d 2752 a1bd b24f b9bb
00000080: d5c9 22be 592a 203d 3669 78bd dd9e 2e3c
00000090: 94fe b33e e2f5 4ebe e90c 6abe 359a 0ebe
000000a0: 2ad9 9fbc 1acc a03e 2612 09bc f486 b6be
000000b0: e3da fabd 8294 00be 0c82 d33c 50eb 003e
000000c0: 8b13 c1bd 8570 073e db6a 58be 15cf 04bf
000000d0: e7bb 49be 5ac7 08bf 6116 98be ac15 5f3d
000000e0: 35e1 85be 7d52 e83d b689 9fbe 2a0d 42be
000000f0: 6f6c d7be 37cd 3b3d 52ea 03be aa37 04be
0.32907686 -0.3846262 -0.17296416 -0.4014611 0.1416646 0.27457407 -0.18462142 -0.10965481
-0.11313261 0.20238219 -0.2146194 0.17444359 -0.41963038 0.2132795 0.1869437 -0.07927987
0.055452824 0.0891569 0.25870827 0.09199887 -0.040712558 0.20439851 0.34708706 -0.20718709
0.1310469 0.26768038 0.24338664 -0.14594492 -0.052899808 0.057027183 -0.078769974 -0.0056552524
-0.15897305 0.039102886 -0.060647212 0.010657993 0.35155165 -0.20210984 -0.22856487 -0.13926013
-0.019512732 0.31405717 -0.008366143 -0.35649836 -0.122487806 -0.12556651 0.025818847 0.12589765
-0.09427556 0.13226517 -0.21134512 -0.5187848 -0.19700585 -0.53429186 -0.29704574 0.054464027
-0.26148382 0.113438584 -0.31159753 -0.18950334 -0.42074916 0.045850005 -0.12882355 -0.12911859

gnn_layers.0.bn.running_var f4 [64]
00000000: 9013 263f 5575 5b3f f3c4 3f3e 4080 753f
00000010: 912d f43d c6e9 e53e 0c79 3f3e 9d7e a13d
00000020: 410c a03d ec14 6c3e 5429 8d3e 4bbf 3a3e
00000030: d275 933f 77f4 963e 9ae9 943e 6d52 3d3d
00000040: 6f22 a93c 19e7 473d 9b9d ba3e 443c 763d
00000050: 451f d53c 368b 873e 8c84 3a3f 7593 993e
00000060: 7070 c93d be90 d83e dd01 bb3e 6087 1b3e
00000070: e8be a03c ed62 c83c 15e5 013d 29e9 013b
00000080: 56dd 293e 3228 6e3c cfcd 4b3d c300 283b
00000090: 2f08 483f ab60 773e 4ab7 9e3e 8e12 283e
000000a0: ba6c 4a3c 0544 183f e21b 043b 907d 4c3f
000000b0: 15da a73d ee73 e23d 2715 773c c3ec d63d
000000c0: 6911 563d eb9b d53d 563b 833e 4a03 c73f
000000d0: a252 913e 0fb2 e43f 1281 053f ac14 ba3c
000000e0: 7ae8 da3e 179e b13d 31fa 1c3f aad5 4d3e
000000f0: 949f 7c3f 992b e23c 12fc c73d 6b97 0f3e
0.648736 0.8572591 0.18727474 0.9589882 0.119227536 0.44904917 0.1869852 0.07885478
0.07814837 0.23054856 0.27570593 0.18237035 1.1520331 0.29483387 0.29084474 0.046221185
0.020646302 0.048804376 0.36448368 0.060116068 0.026015887 0.26473397 0.728585 0.29995313
0.09835899 0.4229793 0.3652486 0.1518836 0.019622281 0.024461234 0.03171261 0.0019822812
0.16588339 0.0145359505 0.04975682 0.002563522 0.7813749 0.2415797 0.30999213 0.16413328
0.012355024 0.5947879 0.002015822 0.79879093 0.08195893 0.11057268 0.015080727 0.104943775
0.052262697 0.104301296 0.25631207 1.5547879 0.28383356 1.7866839 0.5215007 0.022714935
0.4275549 0.08672731 0.6131926 0.20101038 0.98680997 0.02760868 0.097648755 0.14022605

out_layer.mlp.0.weight f4 [1, 64]
00000000: 957d 3cbd 5983 5dbd 53bc e0bc 5cd0 1bbd
00000010: 56af 8dbd 13f0 883d 5c27 0fbd a971 2e3d
00000020: 90ff 2abd 0107 19bd dac6 c33d 7a8a 84bd
00000030: f7c6 cd3c 3012 3b3d a951 473d bb7a 5ebd
00000040: 060c 183d cdcc 863d f8ec 27bd cb9b 94bd
00000050: ba48 833d a90a 1a3d 8796 dabd 2185 a13d
00000060: 7ca2 babc 387e 083d 3d34 a4bd 9978 81bd
00000070: 04e8 33bd 4447 723d ee54 70bd 0908 273d
00000080: f738 4fbc df0f 993c 3dc9 44bd d05e a8bc
00000090: 82b2 0abe e319 6bbd 5e35 df3d 430c d4bc
000000a0: f3f3 9bbc def4 45bd 2661 0d3d 0afc c9bd
000000b0: b7b9 c63d 97fb 903d 20ce 39bd faa6 233c
000000c0: a84c 27bd 9961 6abd 6cee 84bd 8024 df3c
000000d0: 3cdf 57bd 9b91 9c3b a7d4 e83d 716b 833d
000000e0: 963c 5dbd 81e9 893d f96f aabd 6fed 5dbd
000000f0: a98d 803d 5db9 173d fc58 46bd 0a08 1cbd
-0.0460182 -0.05408034 -0.02743355 -0.038040504 -0.06918208 0.066864155 -0.034949645 0.042588864
-0.04174763 -0.037360195 0.09559412 -0.06471725 0.025119288 0.04567164 0.04866186 -0.054316264
0.03712084 0.065820314 -0.040997475 -0.07256278 0.06410356 0.037607823 -0.10673242 0.078867204
-0.022782557 0.033323497 -0.08017776 -0.0632183 -0.04392244 0.059149995 -0.058674745 0.040779147
-0.012647859 0.018684326 -0.04804348 -0.020553023 -0.13544658 -0.057397734 0.10898851 -0.025884753
-0.019037222 -0.048329227 0.034516476 -0.09862526 0.09703391 0.07079237 -0.04536259 0.009988541
-0.04084459 -0.057221983 -0.06490788 0.027239084 -0.052703127 0.0047780997 0.11368685 0.06416977
-0.054012857 0.067339905 -0.08322138 -0.054181512 0.062770195 0.03704201 -0.048424706 -0.038093604
