pretrained/best_02_07-21_13_50.pt (torch_old, 30900 bytes, 16 tensors)

embedding.weight f4 [79, 64]
0	0xbd627282	-0.055284984
1	0xbd379206	-0.044816993
2	0xbd3901fd	-0.04516791
3	0x3dee76e0	0.11643767
4	0xbd32f4f4	-0.043690637
5	0xbd4c4175	-0.049867112
6	0xbd3e7019	-0.046493623
7	0xbd8aa51c	-0.06769773
8	0xbd6c463d	-0.057684172
9	0xbd9f0cdf	-0.07766127
10	0xbd5efa41	-0.05443788
11	0xbd9e80d8	-0.07739419
12	0xbd7beb44	-0.061503664
13	0xbd833c8f	-0.06408035
14	0xbd8ca5d6	-0.06867568
15	0xbd8ba719	-0.06818981
16	0xbdc73971	-0.09727753
17	0xbd4ee0e4	-0.05050744
18	0xbd761d52	-0.060086556
19	0xbd4fb2da	-0.050707676
20	0xbd9410db	-0.072297774
21	0xbd508433	-0.050907325
22	0xbd28835b	-0.041140895
23	0xbd81a056	-0.0632941
24	0xbe125f30	-0.14294124
25	0xbe2a16f4	-0.16610318
26	0xbd93381b	-0.07188436
27	0xbd56fc3b	-0.05248664
28	0xbd9a4431	-0.07532538
29	0xbd7c4f5d	-0.061599124
30	0xbda95342	-0.08267833
31	0xbd85bbc7	-0.06529956
32	0x3e3b76e0	0.18307066
33	0xbd81d09f	-0.063386194
34	0xbd70e277	-0.058809724
35	0xbd95c5ff	-0.073131554
36	0xbd963a2e	-0.07335316
37	0xbd6a37f0	-0.057182252
38	0xbd3f0d4d	-0.046643544
39	0xbd61c8e6	-0.055123232
40	0xbd99f960	-0.07518268
41	0xbcfe095e	-0.031010326
42	0xbd8072ae	-0.062718734
43	0xbdb3150d	-0.087442495
44	0xbd795bf2	-0.0608787
45	0xbd975379	-0.07388968
46	0xbd7ff2b4	-0.06248732
47	0xbd125008	-0.035720855
48	0xbd70cb02	-0.058787353
49	0xbd780273	-0.06054921
50	0xbef8ea41	-0.48616222
51	0xbd1fb528	-0.038991123
52	0xbd071124	-0.03297533
53	0xbd9febe2	-0.07808663
54	0xbd2c4a11	-0.042062823
55	0xbd948334	-0.072515875
56	0xbd68492e	-0.056710415
57	0xbd52880b	-0.051399272
58	0xbd2a8bf9	-0.041637395
59	0xbd683e04	-0.056699768
60	0xbdaa1198	-0.08304137
61	0xbd7b333a	-0.06132815
62	0xbd941e8a	-0.07232387
63	0xbd1b369c	-0.037893876
64	0xbd619a54	-0.05507882
65	0xbd35cf43	-0.044387113
66	0xbd39bed1	-0.045347992
67	0x3dfc4b38	0.12319034
68	0xbd324c0c	-0.043529555
69	0xbd4b48e9	-0.04963008
70	0xbd3f7200	-0.04673958
71	0xbd8a9f6c	-0.067686886
72	0xbd6d69a1	-0.057962064
73	0xbd9ec3c8	-0.07752186
74	0xbd614b34	-0.05500336
75	0xbd9e679e	-0.07734607
76	0xbd7bedcd	-0.06150608
77	0xbd8241eb	-0.06360229
78	0xbd8ad461	-0.06778789
79	0xbd8be0e1	-0.068300016
80	0xbdc72126	-0.097231194
81	0xbd4f341f	-0.050586816
82	0xbd753e27	-0.059873726
83	0xbd4f2ebb	-0.050581675
84	0xbd948aad	-0.07253013
85	0xbd505f21	-0.050871972
86	0xbd284eb2	-0.041090675
87	0xbd818a9e	-0.06325267
88	0xbe11e6fb	-0.14248268
89	0xbe2a7342	-0.1664553
90	0xbd92e0b5	-0.07171766
91	0xbd570fc6	-0.052505277
92	0xbd99b3fe	-0.07505034
93	0xbd7b4369	-0.061343584
94	0xbda92492	-0.08258928
95	0xbd84863f	-0.06470918
96	0x3e3e4c0a	0.18583694
97	0xbd821a4a	-0.063526705
98	0xbd70d867	-0.058800127
99	0xbd95c47e	-0.073128685
100	0xbd96e6e0	-0.07368255
101	0xbd67f705	-0.05663206
102	0xbd3fab2a	-0.046794094
103	0xbd615bc9	-0.055019174
104	0xbd99dd52	-0.075129166
105	0xbcfe7f96	-0.031066697
106	0xbd7e90f6	-0.062149964
107	0xbdb2c02a	-0.08728059
108	0xbd78033a	-0.060549952
109	0xbd975ab7	-0.07390349
110	0xbd805007	-0.06265264
111	0xbd11ffef	-0.035644468
112	0xbd702a78	-0.05863425
113	0xbd77ccea	-0.060498156
114	0x3e6900ed	0.2275426
115	0xbd1df36d	-0.038562227
116	0xbd070f7f	-0.032973763
117	0xbd9f6494	-0.07782856
118	0xbd2c86e5	-0.042120833
119	0xbd942f8a	-0.0723563
120	0xbd68a2e5	-0.056795973
121	0xbd5428f3	-0.051796865
122	0xbd2a9f97	-0.041656103
123	0xbd674833	-0.05646534
124	0xbdaa82bd	-0.083257176
125	0xbd7a8cdb	-0.061169486
126	0xbd938ed4	-0.07204977
127	0xbd1c32eb	-0.038134497
128	0xbd63277e	-0.055457585
129	0xbd38f83b	-0.045158606
130	0xbd39cd35	-0.045361716
131	0x3e0723a2	0.13197187
132	0xbd340322	-0.0439483
133	0xbd4c9996	-0.04995116
134	0xbd409594	-0.04701765
135	0xbd8afc5f	-0.06786417
136	0xbd6ecb53	-0.058299374
137	0xbda05d0d	-0.07830248
138	0xbd5fe254	-0.054659203
139	0xbd9ed750	-0.07755911
140	0xbd7c396a	-0.06157819
141	0xbd836735	-0.064161696
142	0xbd8c7f7c	-0.06860253
143	0xbd8c2edc	-0.06844875
144	0xbdc651bf	-0.096835606
145	0xbd4f08a1	-0.05054534
146	0xbd77da7f	-0.06051111
147	0xbd519680	-0.05116892
148	0xbd9503ac	-0.07276091
149	0xbd50c8b5	-0.05097266
150	0xbd2a8eb8	-0.041640013
151	0xbd82a30b	-0.06378754
152	0xbe125137	-0.14288794
153	0xbe2ab98e	-0.16672346
154	0xbd940915	-0.07228295
155	0xbd578571	-0.052617494
156	0xbd9a584a	-0.07536371
157	0xbd7dc580	-0.06195593
158	0xbda96b26	-0.0827239
159	0xbd84a367	-0.06476479
160	0x3e509ab8	0.2037152
161	0xbd822a8f	-0.06355774
162	0xbd6f3034	-0.05839558
163	0xbd96d89f	-0.07365536
164	0xbd9778d0	-0.0739609
165	0xbd6ad40a	-0.057331122
166	0xbd4122ad	-0.04715221
167	0xbd6273f2	-0.055286355
168	0xbd9ac5f8	-0.07557291
169	0xbcfc68a6	-0.030811619
170	0xbd80426a	-0.062626675
171	0xbdb395bc	-0.08768794
172	0xbd7bcdfb	-0.061475735
173	0xbd96fe28	-0.07372695
174	0xbd807b0d	-0.0627347
175	0xbd13dec1	-0.036101107
176	0xbd6feb25	-0.05857386
177	0xbd787925	-0.060662407
178	0xbef8ea4b	-0.4861625
179	0xbd1fd31e	-0.039019696
180	0xbd06aa6f	-0.032877382
181	0xbd9fd959	-0.07805128
182	0xbd2ca201	-0.042146686
183	0xbd955593	-0.072917126
184	0xbd684823	-0.05670942
185	0xbd53b1e3	-0.051683318
186	0xbd2989b9	-0.04139111
187	0xbd6827a5	-0.056678433
188	0xbdaaa485	-0.08332161
189	0xbd79d86f	-0.060997423
190	0xbd94e989	-0.07271106
191	0xbd1d35a3	-0.03838123
192	0xbd647c6d	-0.055782724
193	0xbd383fed	-0.04498284
194	0xbd3a646f	-0.045505937
195	0xbdf48d6c	-0.119410366
196	0xbd31df0c	-0.043425605
197	0xbd4e552b	-0.05037419
198	0xbd4048e6	-0.04694452
199	0xbd8b5749	-0.06803758
200	0xbd6eff85	-0.05834915
201	0xbd9f4e84	-0.077786475
202	0xbd5fe20b	-0.05465893
203	0xbd9f28b1	-0.07771433
204	0xbd7dbed0	-0.06194955
205	0xbd82b57f	-0.06382274
206	0xbd8bc50f	-0.06824695
207	0xbd8c79a7	-0.06859141
208	0xbdc729ad	-0.09724746
209	0xbd511303	-0.05104352
210	0xbd788a7c	-0.060678944
211	0xbd515701	-0.051108364
212	0xbd950126	-0.0727561
213	0xbd50a476	-0.050938092
214	0xbd296010	-0.041351378
215	0xbd8303a8	-0.06397182
216	0xbe128a74	-0.14310628
217	0xbe2ac33a	-0.16676036
218	0xbd93fb73	-0.072256945
219	0xbd58406d	-0.052795816
220	0xbd9ab134	-0.0755333
221	0xbd7e1396	-0.062030397
222	0xbdaa221f	-0.08307289
223	0xbd85c54c	-0.06531772
224	0xbdd0de33	-0.10198631
225	0xbd831a66	-0.064015195
226	0xbd70ffc6	-0.058837675
227	0xbd970449	-0.07373864
228	0xbd97c5fe	-0.07410811
229	0xbd6a38b7	-0.057182994
230	0xbd3e2f3e	-0.046431772
231	0xbd64aaf4	-0.055827096
232	0xbd9aba56	-0.07555072
233	0xbcfdfbdf	-0.03100389
234	0xbd80dd0c	-0.06292161
235	0xbdb344de	-0.0875337
236	0xbd7c1ddc	-0.061551914
237	0xbd988e99	-0.07449073
238	0xbd80a50f	-0.062814824
239	0xbd141f87	-0.03616288
240	0xbd700e27	-0.058607247
241	0xbd78f8d2	-0.06078417
242	0x3e914202	0.28370672
243	0xbd2047b4	-0.03913088
244	0xbd08437c	-0.033267483
245	0xbd9fa43a	-0.077949956
246	0xbd2e5708	-0.04256347
247	0xbd95c3b1	-0.07312716
248	0xbd6ad9e7	-0.057336714
249	0xbd568e59	-0.052381847
250	0xbd2aa526	-0.041661404
251	0xbd6885f7	-0.056768384
252	0xbdab9fc7	-0.083800845
253	0xbd7c160c	-0.061544463
254	0xbd951015	-0.07278458
255	0xbd1c83e7	-0.03821173

bn_outlayer_in.weight f4 [64]
0	0x4146b202	12.418459
1	0x4146ff6b	12.437358
2	0x4148388e	12.513807
3	0x414c856e	12.782576
4	0x41471f19	12.445092
5	0x41458dfc	12.347164
6	0x414718ad	12.443524
7	0x414faaac	12.979168
8	0x414fcc70	12.9874115
9	0x4150646d	13.024518
10	0x41508148	13.031563
11	0x4150b687	13.044562
12	0x414f331e	12.94998
13	0x4146b754	12.419758
14	0x415052af	13.020186
15	0x414662ed	12.399152
16	0x41560837	13.377006
17	0x4147352d	12.450482
18	0x414766bb	12.462581
19	0x41460c59	12.378015
20	0x414f251b	12.946559
21	0x41476eea	12.464579
22	0x41467f47	12.406074
23	0x4146cf66	12.425634
24	0x41440c2f	12.2529745
25	0x4142bbd6	12.170858
26	0x4150309a	13.011866
27	0x41446801	12.275392
28	0x41510ebe	13.066099
29	0x414774b2	12.46599
30	0x4146599a	12.396875
31	0x4146df28	12.4294815
32	0x414f9d75	12.975942
33	0x41504e7e	13.019163
34	0x41476720	12.462677
35	0x414fe532	12.993456
36	0x41507052	13.027422
37	0x4150d211	13.051286
38	0x414616ba	12.3805485
39	0x41471133	12.441699
40	0x414f6506	12.962164
41	0x414717de	12.443327
42	0x414650a2	12.394686
43	0x414bd13a	12.738581
44	0x4147a1b2	12.476976
45	0x41506997	13.025779
46	0x414fcda3	12.987704
47	0x4147e5b3	12.493579
48	0x4147b187	12.480842
49	0x414700f1	12.43773
50	0x4155e98c	13.369518
51	0x414688c8	12.408394
52	0x4147a9a8	12.47892
53	0x414fe6fb	12.993892
54	0x414775c6	12.466253
55	0x415087cc	13.033154
56	0x41478eac	12.472332
57	0x41462693	12.384418
58	0x41467aac	12.404949
59	0x4150cba6	13.049719
60	0x4153bf89	13.2342615
61	0x4146e086	12.429815
62	0x414f1e24	12.944859
63	0x4147c5c8	12.485786

bn_outlayer_in.bias f4 [64]
0	0x41310fc3	11.066348
1	0x4130bf8f	11.046767
2	0x41328d64	11.159519
3	0x41355f89	11.335824
4	0x41312afc	11.072994
5	0x4132aaeb	11.166728
6	0x41315381	11.082887
7	0x41308f24	11.034946
8	0x41305d9b	11.022853
9	0x4130fbe0	11.061493
10	0x41313ce4	11.077366
11	0x4131e743	11.11896
12	0x412fc46c	10.985455
13	0x41303b02	11.014406
14	0x41315a01	11.084474
15	0x411ea5c1	9.915467
16	0x413b91c0	11.7230835
17	0x41315d4e	11.085279
18	0x4130eae6	11.057348
19	0x412fbc34	10.983448
20	0x412f552c	10.958294
21	0x4131b070	11.105576
22	0x41307a6d	11.029889
23	0x4130f1e0	11.0590515
24	0x411cd900	9.8029785
25	0x411d32eb	9.824931
26	0x4130dee3	11.054416
27	0x41302580	11.009155
28	0x41326b8a	11.151255
29	0x41315402	11.08301
30	0x4129f667	10.622657
31	0x4130e90e	11.056898
32	0x41216cb8	10.089043
33	0x4131866a	11.095316
34	0x41315806	11.08399
35	0x41306ae0	11.026093
36	0x413216fd	11.130612
37	0x4131c1bc	11.109798
38	0x413021a8	11.008217
39	0x4130fca0	11.061676
40	0x412fb74c	10.98225
41	0x41314a59	11.080651
42	0x413067f7	11.025382
43	0x413aeddd	11.683072
44	0x4131f1b7	11.121512
45	0x4131d118	11.113548
46	0x41306b46	11.02619
47	0x41320e23	11.128451
48	0x41320929	11.127236
49	0x4130f458	11.059654
50	0x412b0399	10.688378
51	0x41307a91	11.029923
52	0x4131c561	11.110688
53	0x4131477d	11.079953
54	0x41316502	11.08716
55	0x4131635f	11.0867605
56	0x4131b3af	11.106368
57	0x41303ca2	11.014803
58	0x41308ecb	11.034862
59	0x41319a44	11.1001625
60	0x412a8ec2	10.659853
61	0x41307daa	11.03068
62	0x412f7aef	10.967513
63	0x41321b3a	11.131647

bn_outlayer_in.running_mean f4 [64]
0	0xbe0386fb	-0.1284446
1	0xbde604af	-0.11231362
2	0xbdf897cc	-0.12138328
3	0x3d7bb882	0.061455257
4	0xbde027dc	-0.109451026
5	0xbe22fea7	-0.15917455
6	0xbe00e6b2	-0.12588003
7	0xbe836eae	-0.2567038
8	0xbe506d56	-0.20354208
9	0xbeb9174c	-0.36150587
10	0xbe5207d1	-0.20510794
11	0xbea96088	-0.3308146
12	0xbe7b3b68	-0.2453438
13	0xbe1cdff2	-0.15319803
14	0xbe8a43c4	-0.27004826
15	0xbe38b6ff	-0.18038557
16	0xbe3fe089	-0.18737997
17	0xbdf92f34	-0.121672064
18	0xbe11f4ef	-0.14253591
19	0xbe0cd035	-0.137513
20	0xbe927d97	-0.28611442
21	0xbdfdfd81	-0.12401868
22	0xbdb646b3	-0.089002036
23	0xbe2f7475	-0.17134269
24	0xbee50b16	-0.4473502
25	0xbe99a0fa	-0.30005628
26	0xbe8e6974	-0.2781483
27	0xbe222f77	-0.15838419
28	0xbea58538	-0.323282
29	0xbe238cd0	-0.15971684
30	0xbebb671c	-0.36602104
31	0xbe473c7b	-0.19456665
32	0x3e0e9d64	0.13927227
33	0xbe5aa565	-0.21352156
34	0xbe1f48c4	-0.15555102
35	0xbe9b23be	-0.30300707
36	0xbea1ccba	-0.31601506
37	0xbe64b8dc	-0.22336143
38	0xbde2577c	-0.110518426
39	0xbe19b5a2	-0.15010694
40	0xbea60b84	-0.3243066
41	0xbd65791a	-0.056023695
42	0xbe15a863	-0.14615016
43	0xbe652970	-0.22379088
44	0xbe20f58d	-0.1571867
45	0xbe9d5bcf	-0.30734107
46	0xbe791132	-0.24322966
47	0xbd974250	-0.07385695
48	0xbe191a69	-0.14951481
49	0xbe1f8630	-0.15578532
50	0xbf29b4b4	-0.66291356
51	0xbdb14469	-0.08655626
52	0xbd87d896	-0.06633107
53	0xbeb19435	-0.34683385
54	0xbde93ab3	-0.11388149
55	0xbea42171	-0.32056764
56	0xbe162fc4	-0.14666659
57	0xbe1185b0	-0.14211154
58	0xbdcc9adf	-0.09990477
59	0xbe54cda0	-0.20781565
60	0xbe9b1eb1	-0.30296853
61	0xbe3498f8	-0.17636478
62	0xbe8eb9dc	-0.27876174
63	0xbdbec6e2	-0.09315278

bn_outlayer_in.running_var f4 [64]
0	0x3da981c1	0.08276702
1	0x3dd4295d	0.10359452
2	0x3dd24c8e	0.10268508
3	0x3ec0dc2b	0.37667975
4	0x3dca0c57	0.09865635
5	0x3e32bb37	0.1745423
6	0x3dc7be53	0.09753098
7	0x3dfa2419	0.12213916
8	0x3df63864	0.120224744
9	0x3e15d391	0.14631487
10	0x3e044a75	0.12919028
11	0x3e0b15fc	0.13582605
12	0x3df9856b	0.121836506
13	0x3da385c3	0.079844974
14	0x3e0b7684	0.13619429
15	0x3dd26cda	0.10274668
16	0x3d835e1f	0.064144365
17	0x3dc9a570	0.09846008
18	0x3db57230	0.0885967
19	0x3dc79819	0.09745807
20	0x3df369fe	0.11885451
21	0x3dd651eb	0.10464843
22	0x3dd2032d	0.10254512
23	0x3dacaacd	0.08431015
24	0x3e29c474	0.16578847
25	0x3dd5d65b	0.10441276
26	0x3e015fd2	0.12634209
27	0x3e022b2a	0.12711778
28	0x3e116e84	0.14202315
29	0x3dbb2e86	0.09139733
30	0x3e39068d	0.18068905
31	0x3dc751c9	0.09732396
32	0x3e3f7ce6	0.18699989
33	0x3de24f7a	0.11050315
34	0x3db1abf7	0.08675378
35	0x3df4f936	0.11961596
36	0x3e1145d8	0.141868
37	0x3de70ebe	0.11282109
38	0x3de6af27	0.112638764
39	0x3dc265c6	0.09492068
40	0x3e05e8fc	0.13077158
41	0x3dc83d07	0.09777265
42	0x3da3a96e	0.079913005
43	0x3dd3e33f	0.10346078
44	0x3dad91f4	0.08475104
45	0x3e188050	0.14892697
46	0x3df95e31	0.12176169
47	0x3dcc225b	0.0996749
48	0x3dad440f	0.08460247
49	0x3daa3c60	0.08312297
50	0x3fdd9587	1.7311257
51	0x3db5ad33	0.08870926
52	0x3dcd4bab	0.10024198
53	0x3e1732ac	0.14765424
54	0x3ddb26ca	0.10700758
55	0x3e0937fe	0.13400266
56	0x3dc36568	0.09540826
57	0x3dc28d0d	0.094995596
58	0x3dd4e67a	0.103955224
59	0x3deaf01f	0.11471581
60	0x3e11e8e0	0.14248991
61	0x3dc85c94	0.09783283
62	0x3e00336a	0.12519613
63	0x3dc1a5e9	0.09455473

gnn_layers.0.gnn.att_i f4 [1, 1, 64]
0	0x3ce539c9	0.027981656
1	0xbe2ec412	-0.17066982
2	0x3eb6a691	0.35673955
3	0x3e3b6fa2	0.18304303
4	0xbe2b82cd	-0.16749115
5	0x3e170742	0.14748862
6	0x3dd62aa2	0.1045735
7	0x3e4c243a	0.19935694
8	0x3c0456b5	0.008077313
9	0x3e16b096	0.147158
10	0x3e22823e	0.15869996
11	0x3eb844f3	0.35990104
12	0x3e0ab3af	0.13545106
13	0x3e65dfc6	0.22448644
14	0x3dbb3bd9	0.091422744
15	0x3e1b65ac	0.15175503
16	0x3d90362a	0.07041581
17	0x3cd9fff8	0.026611313
18	0xbe88b2d1	-0.26698926
19	0x3eb75d81	0.35813525
20	0xbde7894a	-0.11305483
21	0x3e63b73f	0.22237872
22	0x3dce6dff	0.10079574
23	0x3e1d4563	0.153585
24	0xbe7b9a3b	-0.24570553
25	0x3cd84bd8	0.026403353
26	0xbe7373d2	-0.2377465
27	0xbe672453	-0.2257245
28	0x3e19848a	0.14991966
29	0xbe1cf2ea	-0.1532704
30	0x3e75b2ec	0.23994035
31	0x3e5e7833	0.2172554
32	0x3d02d1f9	0.031938527
33	0xbd181762	-0.037131675
34	0x3ded5357	0.115881614
35	0x3ec0920c	0.37611425
36	0x3db6e4f5	0.08930389
37	0xbe363b4b	-0.17796056
38	0x3e1e9cb8	0.15489471
39	0xbc0605de	-0.00818011
40	0xbe200f1f	-0.15630768
41	0x3ddf08d2	0.10890354
42	0x3dc2990c	0.095018476
43	0x3e15f1e3	0.14643054
44	0x3e545f16	0.20739397
45	0x3e561e11	0.20909907
46	0x3e671d01	0.22569658
47	0x3d46efba	0.048568465
48	0x3c219ef4	0.009864558
49	0x3ce60a3d	0.028081054
50	0xbe277127	-0.16351758
51	0x3eb456e6	0.35222548
52	0x3d780bc5	0.0605581
53	0xbe49d9f9	-0.19712056
54	0xbda9a7ba	-0.082839444
55	0x3e4c1152	0.19928482
56	0x3e3f1b37	0.18662725
57	0x3e3b21ce	0.18274614
58	0xbe375e2a	-0.17907014
59	0x3d196acc	0.037455365
60	0x3e553737	0.20821844
61	0x3e656041	0.22399999
62	0x3d6093bd	0.054828394
63	0xbe93e10f	-0.28882644

gnn_layers.0.gnn.att_j f4 [1, 1, 64]
0	0x3e8029a2	0.25031763
1	0x3dd1b9b8	0.10240501
2	0x3e1154ac	0.14192456
3	0x3cfccd49	0.030859606
4	0x3e327cac	0.17430371
5	0x3d841bf4	0.06450644
6	0x3e514942	0.20438102
7	0x3d7c1772	0.061545797
8	0xbd7bc9d0	-0.06147176
9	0xbed080d5	-0.4072329
10	0x3da6afa7	0.08138972
11	0xbdec6954	-0.11543527
12	0x3d906297	0.070500545
13	0xbe7cab49	-0.24674715
14	0xbe2b63c6	-0.1673728
15	0xbe4ba8e3	-0.19888644
16	0xbe5577a3	-0.20846419
17	0xbd95d4cf	-0.07315981
18	0x3e3d95e0	0.18514204
19	0x3df5994f	0.11992132
20	0xbe4831ff	-0.19550322
21	0xbe2609eb	-0.16214721
22	0xbdce6d69	-0.10079462
23	0x3ef52d06	0.47885913
24	0xbdd28774	-0.10279742
25	0xbe549de6	-0.20763358
26	0xbdcbc446	-0.099495456
27	0x3ca65669	0.020304875
28	0xbe5f2f26	-0.2179533
29	0x3e52e4ef	0.20595144
30	0xbd8774c5	-0.06614069
31	0x3e9b52b2	0.3033653
32	0xbecb5538	-0.39713454
33	0xbbb9aa81	-0.0056660776
34	0x3e86e674	0.26347697
35	0x3d66a74f	0.0563119
36	0xbdbcf771	-0.09226883
37	0x3d801f51	0.06255973
38	0xbe0c7088	-0.13714802
39	0xbe159d9b	-0.14610903
40	0x3d4693af	0.048480686
41	0xbc7c9fa9	-0.015418925
42	0xbe77145b	-0.24128859
43	0x3d2c33ef	0.042041715
44	0x3ece30b9	0.40271547
45	0xbd0c5ada	-0.03426633
46	0xbe2a2b2a	-0.16618028
47	0xbb41a382	-0.002954692
48	0xbe2b149f	-0.16707085
49	0x3e0c54e9	0.13704266
50	0xbd17355d	-0.036916126
51	0xbda99aa8	-0.082814515
52	0xbbfcfd6e	-0.007720641
53	0x3b283bc0	0.002567038
54	0x3dbeb9e7	0.09312802
55	0xbe0695d1	-0.13143088
56	0xbe9cc4b2	-0.30618817
57	0x3e290aed	0.16508074
58	0x3d7bd971	0.061486665
59	0xbe3044a7	-0.17213689
60	0xbe2c184a	-0.1680614
61	0x3e4fd190	0.20294785
62	0xbeb17bab	-0.34664664
63	0xbcd20375	-0.025636414

gnn_layers.0.gnn.att_em_i f4 [1, 1, 64]
0	0x3d90f754	0.07078424
1	0x3d611b5e	0.05495774
2	0xbd7cd067	-0.061722185
3	0xbd94298c	-0.07234487
4	0xbd0a88bf	-0.033821817
5	0xbd46ef3f	-0.048568007
6	0xbd74dc77	-0.059780564
7	0xbd83a1c2	-0.06427337
8	0xbd46b0b5	-0.048508365
9	0xbd7c7d51	-0.06164295
10	0xbd7daea1	-0.061934117
11	0xbd420bff	-0.04737472
12	0xbd49fbf4	-0.049312547
13	0xbd274806	-0.04084017
14	0xbd3ce5a5	-0.046117444
15	0x3d230285	0.039797325
16	0xbd33907d	-0.043838967
17	0xbd286e1d	-0.041120637
18	0xbd3602bb	-0.044436198
19	0xbd7b6505	-0.061375637
20	0xbd43aa1f	-0.047769662
21	0xbd5ff2ab	-0.054674786
22	0x3cd9fefc	0.026610844
23	0xbcee950a	-0.029123802
24	0x3da624cd	0.08112488
25	0x3dfcb7af	0.12339722
26	0xbd8012a9	-0.06253559
27	0xbd494ca4	-0.049145356
28	0xbd4676c5	-0.04845311
29	0xbd0792b9	-0.03309891
30	0xbd77816b	-0.060426157
31	0xbd73226d	-0.059359003
32	0xbbc9debb	-0.0061605847
33	0xbd883408	-0.06650549
34	0xbd0d0b46	-0.03443458
35	0xbd43bba5	-0.047786374
36	0xbd43be20	-0.04778874
37	0xbd82e7b8	-0.06391853
38	0xbd55a144	-0.052155748
39	0xbd5d6344	-0.054049745
40	0xbd4522d4	-0.048128918
41	0xbd37ec35	-0.044903
42	0xbd258e24	-0.04041876
43	0xbd7c9b54	-0.06167157
44	0xbd29f637	-0.041494574
45	0xbd2dfd8b	-0.042478126
46	0xbd8220f5	-0.06353942
47	0xbd237d4f	-0.039914425
48	0xbd48a051	-0.048981015
49	0xbd61dac1	-0.05514026
50	0xbd4a02b6	-0.04931899
51	0xbd4fe556	-0.05075582
52	0xbd1001a8	-0.03515783
53	0xbd7b09e6	-0.061288737
54	0xbd37cb02	-0.044871338
55	0xbd38ff3a	-0.045165278
56	0xbd328583	-0.043584358
57	0xbd0f6614	-0.03500946
58	0x3cb7c8e8	0.022434667
59	0xbd85e488	-0.065377295
60	0xbd34911c	-0.0440837
61	0xbd3e8463	-0.046512973
62	0xbd49c43d	-0.049259413
63	0xbd3fa587	-0.04678872

gnn_layers.0.gnn.att_em_j f4 [1, 1, 64]
0	0xbe8bbe6f	-0.27293727
1	0xbe7a8304	-0.24464041
2	0xbe255dbd	-0.1614904
3	0xbf377bfa	-0.7167355
4	0xbe0b30a3	-0.13592772
5	0xbda2c784	-0.07948211
6	0xbe95937f	-0.29214093
7	0xbe1a116e	-0.15045711
8	0x3cf8f3e0	0.030389726
9	0xbe6226ef	-0.22085164
10	0xbdf4599c	-0.11931154
11	0xbe599e14	-0.21251708
12	0xbe2f0c17	-0.17094456
13	0xbe6f0d92	-0.2334502
14	0xbe249b58	-0.16074884
15	0xbe3abc83	-0.18235974
16	0xbe4295fd	-0.19002528
17	0xbc60df43	-0.013725105
18	0xbd119edb	-0.035551887
19	0xbd129e98	-0.035795778
20	0xbe6fbbe7	-0.23411523
21	0xbd12e85d	-0.03586613
22	0x3de99498	0.11405295
23	0xbe70c1fb	-0.23511498
24	0x3e2c8948	0.16849244
25	0xbea06d84	-0.31333554
26	0xbcdde42b	-0.027086338
27	0xbda3d8ae	-0.08000313
28	0xbe466e63	-0.19378047
29	0xbe83f309	-0.2577136
30	0xbe644299	-0.2229103
31	0xbd9ef3dc	-0.07761356
32	0x3c4796f8	0.01218199
33	0xbe004a14	-0.12528259
34	0xbcb9cd10	-0.02268079
35	0xbe3fc29b	-0.1872658
36	0xbd86108e	-0.06546126
37	0xbe363ced	-0.17796679
38	0xbdb6c7bf	-0.08924817
39	0xbe862b51	-0.26204923
40	0xbc099829	-0.008398094
41	0x3ddf6515	0.10907952
42	0x3e0ad2b1	0.13556935
43	0xbb80c8d4	-0.0039301906
44	0xbe1b37e6	-0.15158042
45	0xbd130faa	-0.03590361
46	0xbe0675c7	-0.13130866
47	0xbd0f2887	-0.03495076
48	0xbdd87278	-0.10568708
49	0x3d148afb	0.036265355
50	0x3e5b47f2	0.21414164
51	0x3bb1eb3c	0.0054296535
52	0x3a9fba53	0.0012186266
53	0xbc3c9d15	-0.011512061
54	0xbdf1ffb9	-0.11816353
55	0x3c502c5c	0.012705889
56	0xbe90ec97	-0.28305504
57	0x3c4d739e	0.012539772
58	0xbe20517f	-0.15656088
59	0xbdf4e2ab	-0.11957296
60	0xbd80da52	-0.06291641
61	0xbda41f51	-0.08013786
62	0x3c0e309e	0.008678583
63	0xbe79028e	-0.24317381

gnn_layers.0.gnn.bias f4 [64]
0	0x3cbfbee3	0.023406452
1	0xbdb2b525	-0.08725957
2	0xbde6924d	-0.112583734
3	0x3df82866	0.121170804
4	0xbc8e6162	-0.01738042
5	0x3d46b963	0.048516642
6	0x3d4e26d3	0.050329994
7	0xbe7a7821	-0.24459888
8	0x3d80f863	0.06297376
9	0x3c7ce2fd	0.015434978
10	0x3e3a07a7	0.18166982
11	0xbf135729	-0.5755487
12	0xbe1c3e95	-0.15258248
13	0xbeafd4f6	-0.34342164
14	0xbe462697	-0.19350658
15	0x3d9b797d	0.075915314
16	0x3db37154	0.0876185
17	0x3da6f6c6	0.08152537
18	0x3e5f0755	0.2178014
19	0x3db49bc7	0.08818775
20	0xbe139899	-0.1441368
21	0xbcb2b1c9	-0.02181329
22	0xbd5a4158	-0.053284973
23	0x3ce9ebbb	0.028554788
24	0xbe61ec78	-0.22062862
25	0x3d763ac2	0.06011463
26	0xbe7645c8	-0.24050057
27	0xbe561972	-0.20908144
28	0xbeb06d46	-0.3445837
29	0x3db30731	0.08741606
30	0x3df0737e	0.117407784
31	0x3c11e716	0.008905193
32	0xbd26442e	-0.040592365
33	0x3e1fd390	0.15608048
34	0x3daa47bd	0.08314464
35	0xbe946231	-0.28981164
36	0x3dcdf897	0.100571804
37	0x3e1c8219	0.15284003
38	0x3d84d23d	0.06485412
39	0x3ca2b896	0.019863408
40	0xbe853bce	-0.2602219
41	0x3e1feb43	0.15617089
42	0xbdc64e89	-0.09682948
43	0x3dac3bde	0.08409856
44	0x3daf38ab	0.085557304
45	0xbe001666	-0.12508544
46	0xbe944553	-0.2895914
47	0xbda62d99	-0.08114166
48	0x3da93420	0.08261895
49	0x3dd3fe89	0.10351283
50	0x3d04dceb	0.032437246
51	0xbe5f72dd	-0.2182116
52	0x3e15f690	0.14644837
53	0xbe9f9162	-0.31165606
54	0x3e182fab	0.14861934
55	0x3e3f6ebd	0.18694587
56	0x3dd490ca	0.10379179
57	0x3c0ae4b6	0.0084773805
58	0xbd2ef0f3	-0.042710256
59	0xbe45281c	-0.19253582
60	0x3d0fa7b8	0.03507206
61	0xbd62176d	-0.05519812
62	0xbd9f6c8f	-0.07784378
63	0x3e8e2dbf	0.27769276

gnn_layers.0.gnn.lin.weight f4 [64, 15]
0	0xbe179828	-0.14804137
1	0xbe914858	-0.28375506
2	0xbdbac2ac	-0.09119162
3	0x3da7b4a6	0.08188753
4	0xbe6f9e15	-0.23400147
5	0xbebd6aca	-0.36995536
6	0xbe285880	-0.1644001
7	0xbeadffbf	-0.3398418
8	0x3dc75747	0.09733444
9	0xbd3c3537	-0.045949187
10	0x3e32a88d	0.1744711
11	0x3d8b68e7	0.06807118
12	0x3d92ce0d	0.07168207
13	0x3db922a5	0.09039811
14	0x3e949560	0.29020214
15	0x3da87c17	0.08226793
16	0x3dc44d50	0.09585059
17	0x3efbe249	0.4919608
18	0x3e80d106	0.25159472
19	0x3eabd220	0.3355875
20	0x3d8e3b06	0.069448516
21	0xbaf402ae	-0.0018616521
22	0xbcad6ff7	-0.021171553
23	0xbd783576	-0.06059786
24	0xbdd8c579	-0.1058454
25	0xbede08a0	-0.43365955
26	0xbd261f71	-0.04055733
27	0xbe6b3360	-0.22968817
28	0x3cbe457e	0.023226496
29	0x3e16d7af	0.14730714
30	0x3de2c2f0	0.110723376
31	0x3ed4feda	0.41600686
32	0x3ec17b79	0.37789515
33	0x3e1a6667	0.15078126
34	0xbe204149	-0.15649904
35	0xbc80b5b2	-0.01571164
36	0x3dedde5c	0.11614677
37	0xbe000f8e	-0.12505934
38	0x3c814133	0.01577816
39	0xbe5e5429	-0.21711792
40	0xbeae0050	-0.33984613
41	0x3c8468bc	0.016163222
42	0xbac72e0b	-0.0015196217
43	0x3e16e2cf	0.14734958
44	0xbd7e25b8	-0.06204769
45	0xbe213f1a	-0.15746728
46	0x3e59df64	0.21276623
47	0x3d851dc0	0.06499815
48	0x3dc609ab	0.09669813
49	0xbeb945c1	-0.3618603
50	0xbe85b63d	-0.261156
51	0xbdf16aa5	-0.11787919
52	0xbe6bbdce	-0.23021623
53	0x3dd36e24	0.10323742
54	0x3e1c85d7	0.15285431
55	0x3e4096d8	0.18807542
56	0x3be70872	0.0070505673
57	0xbe8688bb	-0.26276192
58	0xbdb9f098	-0.09079093
59	0x3dcc3dcf	0.099727266
60	0x3dde0692	0.10841097
61	0x3e97787c	0.2958411
62	0x3de4697c	0.11152932
63	0x3e9ab753	0.3021799
64	0x3e8208af	0.2539725
65	0x3e6c9ba3	0.23106246
66	0xbca951b2	-0.020668838
67	0xbeb83548	-0.3597815
68	0xbe8056be	-0.2506618
69	0xbe9e11a1	-0.30872825
70	0x3b47f293	0.0030509576
71	0xbdd8d654	-0.10587755
72	0x3d75bdc8	0.059995443
73	0x3d8ae482	0.06781866
74	0xbd236e64	-0.0399002
75	0x3e21b47a	0.15791503
76	0x3dcd0a6d	0.10011754
77	0x3e36cd9a	0.17851868
78	0xbce4a4f8	-0.027910694
79	0x3df16974	0.11787692
80	0x3e8831a0	0.2660036
81	0x3d8a3963	0.06749227
82	0xbec55da8	-0.38548017
83	0xbd0ac8f1	-0.03388304
84	0xbe8e0fc0	-0.2774639
85	0x3ded47e4	0.11585978
86	0xbe35e34c	-0.17762488
87	0x3dd3d1a7	0.103427224
88	0x3cc93a20	0.024563849
89	0xbdb64d62	-0.08901478
90	0x3ed47f74	0.4150349
91	0x3edf9e21	0.4367533
92	0xbd4da8b3	-0.050209712
93	0x3ddc6905	0.107622184
94	0x3e3f4deb	0.18682067
95	0xbd90a9da	-0.070636466
96	0x3daf26ea	0.08552344
97	0x3da02481	0.078194626
98	0xbebd0682	-0.36919028
99	0xbadbbf96	-0.0016765471
100	0xbebab57c	-0.36466587
101	0x3de6b9ea	0.11265929
102	0xbe29cb9f	-0.16581582
103	0xbd88985a	-0.06669684
104	0x3df44c77	0.11928647
105	0xbd58cec2	-0.052931555
106	0x3e244aff	0.16044234
107	0x3d7976ea	0.06090442
108	0x3e64dbc4	0.22349459
109	0x3dfdd90e	0.123949155
110	0xbdbce278	-0.09222883
111	0x3d9e5b77	0.07732289
112	0x3dfde693	0.12397494
113	0x3e35acf0	0.17741752
114	0xbe180123	-0.14844184
115	0xbe306400	-0.17225647
116	0x3dc46e62	0.09591366
117	0xbe5259de	-0.20542094
118	0xbe0ce70b	-0.13760011
119	0xbe8c970b	-0.27458987
120	0xbe31f4aa	-0.17378488
121	0xbe9ef959	-0.31049612
122	0x3c9ea7fb	0.019367209
123	0x3e854dbb	0.26035866
124	0x3e346105	0.17615135
125	0xbe3954e4	-0.1809879
126	0x3e91d96d	0.28486195
127	0xbe5221b3	-0.20520668
128	0xbd82c9a2	-0.06386115
129	0x3e4c7475	0.199663
130	0x3e369f68	0.17834246
131	0x3e4c520d	0.19953175
132	0xbc9a54fc	-0.018839352
133	0xbe44664c	-0.19179648
134	0xbe4ebc32	-0.20188978
135	0xbc137a3a	-0.009001309
136	0xbe893ff8	-0.26806617
137	0xbe04deef	-0.12975667
138	0x3e93707f	0.28796765
139	0x3d995748	0.07487351
140	0x3e575e5f	0.21032093
141	0xbdf5cf93	-0.12002482
142	0x3df4c335	0.11951295
143	0x3ea1a27b	0.31569275
144	0x3e039542	0.12849906
145	0x3dff8ede	0.12478422
146	0xbdd5857e	-0.10425852
147	0xbe2b5e01	-0.16735078
148	0x3e13e512	0.14442852
149	0xbea774ad	-0.32706204
150	0x3e0ea9d7	0.13931976
151	0xbd0e4a9b	-0.034739118
152	0x3e73287e	0.23745915
153	0xbd5a0cc3	-0.053234827
154	0x3e845a3e	0.258501
155	0x3e28a651	0.16469695
156	0xbb29a9d0	-0.002588857
157	0x3d0dfccb	0.03466491
158	0xbce4fe52	-0.0279533
159	0xbdbccf39	-0.09219212
160	0xbda0efdb	-0.07858249
161	0x3baa9bce	0.0052065616
162	0xbe720e93	-0.23638372
163	0xbd0cfdc8	-0.034421712
164	0xbea84479	-0.3286474
165	0x3d2033f7	0.039112058
166	0xbe9f88b7	-0.31158993
167	0x3dbcdc89	0.09221751
168	0xbd936c56	-0.07198398
169	0x3cc47705	0.023982534
170	0x3e7784f0	0.24171805
171	0x3e08b530	0.13350368
172	0x3e437e51	0.19091155
173	0x3de0cb65	0.109762944
174	0x3dc598ad	0.09648261
175	0xbe00aa81	-0.12565042
176	0x3e7d12f1	0.24714257
177	0x3cb992d5	0.022653023
178	0xbeafa4ce	-0.34305423
179	0xbe2fdbf0	-0.17173743
180	0x3d7798c7	0.060448434
181	0xbd3dbf4f	-0.046325024
182	0x3e8e8334	0.27834475
183	0x3d9441ec	0.07239136
184	0x3ea0ff75	0.31444898
185	0x3c89c1aa	0.016815979
186	0xbe1cbd3c	-0.15306562
187	0x3e6eb217	0.23310123
188	0x3bf14868	0.007363368
189	0x3c5906ba	0.013246233
190	0xbdc6ae5a	-0.09701224
191	0xbe97e900	-0.29669952
192	0xbc69025f	-0.014221757
193	0xbdd450c2	-0.10366966
194	0xbe8a3fd1	-0.27001813
195	0x3d9cbef3	0.07653608
196	0xbea67a35	-0.32515112
197	0xbe46b9ec	-0.19406861
198	0xbd03cea4	-0.03217949
199	0xbe5390c4	-0.20660692
200	0xbe503fdc	-0.2033686
201	0xbd7be86f	-0.061500963
202	0xbcd0a20a	-0.025467891
203	0x3e80239d	0.2502717
204	0x3e3f5826	0.1868597
205	0x3ea55e29	0.322984
206	0x3e27f89c	0.1640343
207	0x3e01f17d	0.12689777
208	0x3d464f7e	0.048415653
209	0xbba87a38	-0.0051415227
210	0xbe515621	-0.20443012
211	0xbe4f7bf8	-0.20262134
212	0x3e3c29dc	0.18375343
213	0xbd365148	-0.04451111
214	0x3cea8796	0.028629106
215	0x3e963482	0.29336935
216	0xbaaf5a49	-0.0013378348
217	0x3e7c6707	0.24648677
218	0x3e07eee5	0.13274725
219	0x3e52177a	0.20516768
220	0x3bfa1c85	0.0076327943
221	0x3e8fed85	0.281109
222	0xbe676055	-0.22595342
223	0xbec96087	-0.39331457
224	0xbe08f45e	-0.13374469
225	0xbe9a2e50	-0.3011346
226	0x3e2c0f3a	0.16802683
227	0x3d8b54ea	0.068033054
228	0x3ddfbb58	0.10924405
229	0x3c6b0483	0.014344337
230	0x3dd228f3	0.10261717
231	0x3dcf45b3	0.10120716
232	0xbddbe048	-0.10736138
233	0x3e637211	0.22211482
234	0x3e403022	0.18768361
235	0x3ca5493e	0.020176526
236	0x3d797d9a	0.0609108
237	0xbd9edd78	-0.077570856
238	0xbe2b4b9e	-0.16728064
239	0xbea26565	-0.31717983
240	0xbe4a06c6	-0.19729146
241	0xbeaa0122	-0.3320399
242	0xbd9af7da	-0.07566805
243	0x3e8765ad	0.2644476
244	0x3ee0d4fd	0.43912497
245	0xbd69ed4e	-0.057111077
246	0xbd8d4331	-0.06897581
247	0x3ead0ecc	0.33800352
248	0xbc863678	-0.016383395
249	0x3d93f46f	0.072243564
250	0x3e6ad30a	0.22932068
251	0x3e93d688	0.28874612
252	0x3e0fb1c3	0.14032654
253	0x3dc425c7	0.09577518
254	0x3c44f1b9	0.012020522
255	0x3d9e7dda	0.07738848

gnn_layers.0.bn.weight f4 [64]
0	0xbc011f2c	-0.007880967
1	0xbb2c697e	-0.0026307995
2	0xbc5ed29f	-0.013600021
3	0xbbb498d1	-0.005511381
4	0x3af02f5b	0.001832466
5	0x3c951c03	0.018201834
6	0xbc609603	-0.013707641
7	0xbb633e34	-0.0034674527
8	0x3aa18c6e	0.0012325177
9	0x3b8b12e2	0.0042441944
10	0x38842ff7	6.303185e-05
11	0x3ba296e9	0.0049618375
12	0xb9830951	-0.00024993208
13	0x3c0db212	0.008648412
14	0x3aaa2d1e	0.0012983417
15	0x3b84de54	0.004054824
16	0xbbb70e35	-0.0055864104
17	0xbb754926	-0.0037427633
18	0x3c1dacb7	0.009623698
19	0xbb4fadd1	-0.0031689296
20	0x3b637cd2	0.003471185
21	0xba502b15	-0.000794099
22	0xbbec0de2	-0.0072038034
23	0x3b18c63e	0.002331152
24	0xbb8b1c6f	-0.004245333
25	0xbab7d3d6	-0.0014024924
26	0xb7b450ce	-2.14953e-05
27	0xbbe58a70	-0.0070050284
28	0x3ac30c6e	0.0014881024
29	0xbbbb2692	-0.005711385
30	0x38e81160	0.000110658584
31	0xbba75ee8	-0.0051077493
32	0xbb007d0d	-0.0019605786
33	0x3b460d6d	0.0030220405
34	0x38391358	4.4125452e-05
35	0x3b96f11f	0.0046063806
36	0xbb454ae0	-0.0030104443
37	0xbac62d55	-0.0015119711
38	0xbab71abc	-0.001396976
39	0x3ba6e4d8	0.0050931983
40	0x3c1cd7a6	0.009572899
41	0xbaea4d28	-0.0017875778
42	0x3a959f82	0.0011415335
43	0x3b332cd0	0.0027339943
44	0xbc1c70fd	-0.009548423
45	0xbc11b11f	-0.008892327
46	0xbc0a040e	-0.008423818
47	0xbbb3a1c1	-0.005481929
48	0xbb96b816	-0.0045995815
49	0xbb710250	-0.003677506
50	0x3b1d9c34	0.0024049403
51	0xba70bcb3	-0.0009183392
52	0xbc74e60c	-0.014947426
53	0xbb621311	-0.0034496228
54	0x3c3c9fb7	0.011512688
55	0xbb5db381	-0.0033828916
56	0x3bbc0cde	0.0057388386
57	0x3c0e95ab	0.008702676
58	0xbc147165	-0.0090602385
59	0xbb15e7e2	-0.0022873809
60	0xbb501d76	-0.0031755841
61	0xba1afa8e	-0.00059119693
62	0x3c495e93	0.012290615
63	0xbb8623d3	-0.004093626

gnn_layers.0.bn.bias f4 [64]
0	0x405124c3	3.2678688
1	0x4072ac65	3.7917721
2	0x407ef187	3.9834917
3	0x409eee44	4.966585
4	0x40749073	3.8213165
5	0x4096d3a8	4.713337
6	0x407a7a9d	3.9137337
7	0x40977df3	4.7341247
8	0x409373fd	4.6079087
9	0x40b1e19a	5.5587893
10	0x409eb0cf	4.959083
11	0x40a48b75	5.1420236
12	0x40a0e0a6	5.027423
13	0x404cae46	3.1981368
14	0x409e3d07	4.9449496
15	0x406054cd	3.5051758
16	0x401a29f7	2.4088113
17	0x406141cf	3.5196416
18	0x40504c7c	3.2546682
19	0x40744711	3.8168375
20	0x409a69c5	4.8254113
21	0x4066d599	3.606787
22	0x40641401	3.563721
23	0x4061fd04	3.5310678
24	0x4069d238	3.6534557
25	0x400a2f06	2.15912
26	0x4098652f	4.7623515
27	0x40884ce5	4.2593865
28	0x40a6c5b1	5.2116323
29	0x405efe9f	3.4842908
30	0x40abca59	5.3684506
31	0x40772a54	3.8619585
32	0x403bc275	2.9337437
33	0x4089e3b8	4.3090477
34	0x40648c38	3.5710583
35	0x409fca36	4.993434
36	0x40a75795	5.229441
37	0x409f4111	4.9766927
38	0x406ac57c	3.6683035
39	0x406e8560	3.7268906
40	0x40a5dc8a	5.1831713
41	0x406a9e79	3.6659224
42	0x404a7e0e	3.1639438
43	0x404edd1d	3.2322457
44	0x405cca09	3.4498312
45	0x40a3df76	5.121028
46	0x409cfc88	4.9058266
47	0x4069634a	3.6466851
48	0x405c815c	3.4453955
49	0x405bcb8d	3.4342988
50	0x4066db0c	3.6071196
51	0x4067f302	3.624207
52	0x4070c1d0	3.7618294
53	0x40aae955	5.340983
54	0x40837578	4.1080894
55	0x40aab83f	5.334991
56	0x40648d52	3.5711255
57	0x40766e1a	3.85047
58	0x40740925	3.8130581
59	0x4098e37c	4.777769
60	0x408f1c82	4.47223
61	0x40743a09	3.8160422
62	0x4097592e	4.729636
63	0x40792e15	3.8934376

gnn_layers.0.bn.running_mean f4 [64]
0	0xc18a614c	-17.297508
1	0x42883782	68.10841
2	0x428610a5	67.03251
3	0x3e4b9f5c	0.1988501
4	0x42849b98	66.303894
5	0x421c0db3	39.01338
6	0x429d9f99	78.811714
7	0x4064ad0a	3.5730615
8	0xc22d46d5	-43.31917
9	0xc2196153	-38.345043
10	0x415cb9de	13.795378
11	0xc21ab2cb	-38.674603
12	0x414c9987	12.787482
13	0xc245cc73	-49.449657
14	0xc24c8723	-51.13197
15	0xc202f8f7	-32.74313
16	0xc235eb4a	-45.479774
17	0xc08ed0fb	-4.4630103
18	0x41a796e9	20.948687
19	0x42ae6de7	87.21465
20	0xc27b9e7a	-62.904762
21	0x41519d7a	13.100946
22	0x417bf0b7	15.746268
23	0x428368ec	65.704926
24	0xc132a607	-11.165534
25	0xc1d2b9ce	-26.340725
26	0xc1e17c13	-28.185583
27	0x4194c0a0	18.594055
28	0xc20effc5	-35.749775
29	0x42181c7e	38.027824
30	0xc257f50c	-53.989304
31	0x4263d3ce	56.95684
32	0xc284783d	-66.23484
33	0x42140d1a	37.012794
34	0x42bda628	94.824524
35	0x4202ef3e	32.733635
36	0xc1f103f5	-30.126932
37	0x41f5b03a	30.711048
38	0x4110bbef	9.045882
39	0x40471fb7	3.1113107
40	0x409dd09a	4.931714
41	0xc1dc0b4a	-27.505512
42	0xc19bf319	-19.4937
43	0x42143322	37.049934
44	0x4299b7db	76.85909
45	0xc1ce9cfd	-25.826654
46	0xc239519d	-46.3297
47	0x4228bf17	42.18661
48	0x413d95b0	11.849045
49	0xc18d841f	-17.689512
50	0x419d85e9	19.690386
51	0x41b19e5a	22.20232
52	0x4245f827	49.492336
53	0xc1b3f258	-22.493332
54	0x428de96e	70.95592
55	0xc2481459	-50.01987
56	0xbf4bc3cd	-0.79595643
57	0x42b4e892	90.45424
58	0x4279cba7	62.44888
59	0xc2560316	-53.503014
60	0xc1092f61	-8.574067
61	0x42a4c454	82.38345
62	0xc21a232a	-38.53434
63	0x422b9608	42.896515

gnn_layers.0.bn.running_var f4 [64]
0	0x4864be02	234232.03
1	0x487a4616	256280.34
2	0x483a1683	190554.05
3	0x46b08ddf	22598.936
4	0x4833e728	184220.62
5	0x47831e7c	67132.97
6	0x486cdae1	242539.52
7	0x47a2328c	83045.09
8	0x46e0a84f	28756.154
9	0x46ba08b3	23812.35
10	0x47cb9ab1	104245.38
11	0x46e1879a	28867.8
12	0x47c2c5f5	99723.914
13	0x47c45ccc	100537.59
14	0x47387442	47220.258
15	0x47298398	43395.594
16	0x471b6516	39781.086
17	0x47d0f704	106990.03
18	0x47433a59	49978.348
19	0x48dcf882	452548.06
20	0x47871355	69158.664
21	0x46fdcbf3	32485.975
22	0x46da49ce	27940.902
23	0x46fd6ed0	32439.406
24	0x45c7aef9	6389.8716
25	0x4725d7c5	42455.77
26	0x475e4f83	56911.51
27	0x47551f78	54559.47
28	0x46b583c7	23233.889
29	0x478234bd	66665.48
30	0x4734a0ce	46240.805
31	0x47d1aaaa	107349.33
32	0x47191b0d	39195.05
33	0x47212788	41255.53
34	0x481221b6	149638.84
35	0x480b36d6	142555.34
36	0x46d7a390	27601.781
37	0x48319592	181846.28
38	0x45cf2376	6628.4326
39	0x47107874	36984.453
40	0x47d7307d	110176.98
41	0x469dc59e	20194.809
42	0x4800ab31	131756.77
43	0x47897c1c	70392.22
44	0x47d68150	109826.625
45	0x46f62311	31505.533
46	0x471199c1	37273.754
47	0x479e8ffe	81183.984
48	0x47ef1164	122402.78
49	0x4814e995	152486.33
50	0x488630d6	274822.7
51	0x46a76421	21426.064
52	0x477cd3e0	64723.875
53	0x472a1e69	43550.41
54	0x4834960c	184920.19
55	0x47689853	59544.324
56	0x47cfdeec	106429.84
57	0x489fb32a	327065.3
58	0x481209f6	149543.84
59	0x4762224d	57890.3
60	0x464b2202	13000.502
61	0x48789df6	254583.84
62	0x46ab7bde	21949.934
63	0x47432160	49953.375

out_layer.mlp.0.weight f4 [1, 64]
0	0x412e5b69	10.897317
1	0x412eb1e3	10.918429
2	0x412d1e4a	10.819895
3	0xc12f1bf2	-10.944323
4	0x412e51ab	10.894938
5	0x412b04f3	10.688708
6	0x412e2004	10.882816
7	0x413886cf	11.532912
8	0x4138c1a8	11.547279
9	0x413830cc	11.511913
10	0x413b7ceb	11.717998
11	0x4137b229	11.480996
12	0x413902e6	11.563208
13	0x4131783d	11.091855
14	0x4137bb86	11.483282
15	0x412b1cb0	10.694504
16	0x41405208	12.020027
17	0x412e3892	10.888811
18	0x412de520	10.868439
19	0x412f9902	10.974855
20	0x4139df5d	11.617032
21	0x412d4a34	10.830616
22	0x412e56cd	10.896192
23	0x412e78b8	10.904472
24	0x4124ca83	10.299441
25	0x4127c6fd	10.486081
26	0x413ad07e	11.675901
27	0x412e6aaf	10.901046
28	0x4136ffd2	11.437456
29	0x412e2527	10.88407
30	0x41305de4	11.0229225
31	0x412e146b	10.879985
32	0xc13ac98a	-11.674204
33	0x4138d59f	11.552154
34	0x412e915b	10.910487
35	0x41396e5b	11.589442
36	0x41371d6f	11.444686
37	0x41390f31	11.566209
38	0x412e24db	10.883998
39	0x412ef986	10.935919
40	0x41392e8c	11.573864
41	0x412dcc33	10.862353
42	0x412e9324	10.910923
43	0x41363de5	11.390111
44	0x412d823c	10.8442955
45	0x41372e3c	11.448788
46	0x413b62ad	11.711591
47	0x412d77c3	10.841739
48	0x412d7091	10.839982
49	0x412e2b54	10.885578
50	0xc1378467	-11.469825
51	0x412e985f	10.9122
52	0x412dc359	10.860192
53	0x413808e3	11.50217
54	0x412df2da	10.87179
55	0x4137d87f	11.4903555
56	0x412d3420	10.825226
57	0x412f37c7	10.9511175
58	0x412e76c3	10.903995
59	0x41399d64	11.600925
60	0x4138bf5d	11.54672
61	0x412f61db	10.9613905
62	0x4139799c	11.59219
63	0x412d8aca	10.846384
