pretrained/best_01_26-19_45_30.pt (torch_old, 17588 bytes, 16 tensors)

embedding.weight f4 [27, 64]
-0.111079365 -0.06927494 0.066522755 0.038531963 0.04245991 -0.11442488 0.08380702 0.010126483
0.040218975 0.054974016 -0.039846174 0.0552243 0.09219998 0.025540272 -0.0056620105 0.042960614
-0.10158418 0.012809444 0.059493262 0.053648196 -0.04183265 -0.17917787 0.026431682 -0.0126146935
0.121700324 -0.004015863 0.05108901 0.065979384 -0.059366077 0.032039236 0.034325723 -0.0063470774
0.08520663 -0.15317275 0.067422464 0.1430748 -0.059410546 -0.115244046 -0.109815374 -0.08243567
0.05211911 0.08532901 -0.07356635 -0.11874212 -0.05217532 -0.009014973 0.04185211 0.079837926
0.05108928 0.0032603387 0.024592156 -0.028724635 -0.061076228 0.01720602 -0.02806085 -0.088210225
0.043518666 -0.11432089 -0.044781215 0.07547481 -0.046129353 0.018655479 0.07241267 -0.03539858
0.027711177 0.151977 -0.13052501 -0.12648088 -0.036349088 -0.04264487 0.07029644 0.07128643
-0.048428718 0.019632103 -0.06959163 -0.13675758 -0.10773606 -0.113457136 0.07602713 -0.12283168
-0.08757009 0.09693335 -0.1185397 0.026505731 -0.0814487 0.0426994 -0.049445685 -0.036751453
0.057473004 0.12765211 -0.13756894 0.07595053 0.028149147 -0.006228324 -0.12774828 0.11366963
0.093646176 -0.11430507 -0.09123142 -0.13363865 -0.07494448 -0.0036756012 -0.06313936 0.09043805
-0.053454716 -0.12727642 0.09322138 -0.026962597 -0.18807812 0.06311164 0.030963656 -0.13429506
0.1435871 0.071819805 -0.09176532 0.034204606 0.038233034 -0.13086885 -0.09369575 -0.111213885
0.072646104 0.046092223 0.06121454 -0.06747868 0.022512792 0.034939673 -0.038797736 0.020132674
0.07503154 0.07930643 -0.04106374 -0.0872146 -0.10997772 0.036846336 -0.0985023 0.046502754
-0.015480568 0.03975752 -0.05039057 -0.07444601 0.06923633 -0.1579422 0.027609045 -0.11622725
-0.004393914 -0.15187503 -0.08958045 -0.09591843 -0.064170316 -0.0044337604 -0.104069896 -0.038333293
0.10780194 0.049590196 0.08847448 0.10921532 -0.022045989 -0.04574128 0.104882985 -0.011380728
0.003741551 0.068393946 -0.08553883 0.09183879 0.022520551 -0.086347915 -0.11825921 0.16269554
0.13794522 0.03546821 -0.06912725 0.08104572 -0.08253152 -0.08484364 0.09227056 0.06488324
0.07648593 0.09118322 -0.11091491 -0.11284188 0.0730377 0.02813221 -0.051224135 -0.0049526785
0.07238224 -0.17382109 0.06719665 -0.033674452 -0.13058026 -0.06484724 -0.017406113 -0.07578102
-0.1434964 0.048532415 -0.03367192 0.044081803 0.11938195 -0.10896972 -0.10406702 -0.18982048
0.039944775 -0.055894833 -0.031225592 0.06313242 0.02036986 0.03359519 -0.10056304 -0.07794655
-0.14674807 -0.008754691 -0.059120003 0.023482494 -0.03485262 0.017831009 -0.06352296 -0.09910072
0.0758093 -0.13782758 0.069901645 -0.02906126 0.058844008 -0.0036593964 0.03426414 -0.08357156
0.06540738 -0.099451706 -0.110101536 0.06262299 0.013594938 -0.10312937 -0.018835992 0.12482132
-0.088084996 0.057297785 -0.07743204 0.024414549 -0.043199122 -0.06902089 0.09058637 -0.12229466
-0.10505933 -0.05463386 0.08717275 0.04700233 0.10663022 0.11227605 -0.02449501 -0.126802
-0.06653001 -0.01393272 -0.110538185 0.06937003 -0.009454941 -0.05383765 -0.13927217 0.08605324
00000000: 947d e3bd 05e0 8dbd 153d 883d b1d3 1d3d
00000010: 71ea 2d3d 9757 eabd 04a3 ab3d 8ce9 253c
00000020: a7bc 243d 6f2c 613d be35 23bd e032 623d
00000030: 58d3 bc3d d539 d13c 6388 b9bb 78f7 2f3d
00000040: 5e0b d0bd b4de 513c 35af 733d 36be 5b3d
00000050: b658 2bbd 677a 37be 4187 d83c dcad 4ebc
00000060: 053e f93d 8097 83bb b642 513d 3320 873d
00000070: d829 73bd 933b 033d 2199 0c3d 25fb cfbb
00000080: d080 ae3d 51d9 1cbe ca14 8a3d 3382 123e
00000090: 7958 73bd 1205 ecbd e2e6 e0bd 08d4 a8bd
000000a0: d97a 553d fac0 ae3d f4a9 96bd 122f f3bd
000000b0: cab5 55bd 8ab3 13bc 1e6d 2b3d 1182 a33d
000000c0: fe42 513d 68ab 553b 7d75 c93c ed4f ebbc
000000d0: 112b 7abd a4f3 8c3c dedf e5bc 90a7 b4bd
000000e0: a140 323d 1221 eabd 826c 37bd 8a92 9a3d
000000f0: 22f2 3cbd 60d3 983c 184d 943d 1afe 10bd
00000100: 8d02 e33c dc9f 1b3e 59a8 05be 3484 01be
00000110: c8e2 14bd 63ac 2ebd 94f7 8f3d 9ffe 913d
00000120: 315d 46bd 81d3 a03c 0e86 8ebd 2e0a 0cbe
00000130: b9a4 dcbd 375c e8bd 1db4 9b3d 2d8f fbbd
00000140: f357 b3bd fe84 c63d f1c4 f2bd 8c22 d93c
00000150: 93ce a6bd 91e5 2e3d 8f87 4abd b188 16bd
00000160: d068 6b3d 3cb7 023e dfde 0cbe f48b 9b3d
00000170: 0a99 e63c f816 ccbb 72d0 02be 9fcb e83d
00000180: 91c9 bf3d c718 eabd 8ad7 babd 92d8 08be
00000190: 7e7c 99bd 5be2 70bb 354f 81bd 9637 b93d
000001a0: 55f3 5abd c054 02be daea be3d aae0 dcbc
000001b0: 8d97 40be ad40 813d 7ea7 fd3c a584 09be
000001c0: 7f08 133e 4316 933d 75ef bbbd 211a 0c3d
000001d0: 3e9a 1c3d 7c02 06be 8fe3 bfbd 1bc4 e3bd
000001e0: 7bc7 943d 33cb 3c3d 19bc 7a3d 4332 8abd
000001f0: bf6c b83c e71c 0f3d 60ea 1ebd 47ed a43c
00000200: 23aa 993d 696b a23d 7432 28bd 919d b2bd
00000210: 003c e1bd 2fec 163d 93bb c9bd ac79 3e3d
00000220: 35a2 7dbc c8d8 223d 5866 4ebd 2677 98bd
00000230: c7cb 8d3d 9abb 21be 5d2c e23c 8d08 eebd
00000240: d2fa 8fbb 2185 1bbe f475 b7bd e270 c4bd
00000250: ba6b 83bd 1449 91bb 9922 d5bd 5f03 1dbd
00000260: 43c7 dc3d 171f 4b3d 1c32 b53d 48ac df3d
00000270: ca99 b4bc 355b 3bbd e4cc d63d 3c76 3abc
00000280: cf34 753b 2012 8c3d fb2e afbd fa15 bc3d
00000290: 057d b83c 2dd7 b0bd e231 f2bd a999 263e
000002a0: 8341 0d3e 1d47 113d 9692 8dbd 4cfb a53d
000002b0: 4906 a9bd 81c2 adbd 59f8 bc3d 81e1 843d
000002c0: a8a4 9c3d 45be ba3d 5b27 e3bd a519 e7bd
000002d0: ca94 953d 8575 e63c 66d0 51bd 144a a2bb
000002e0: 243d 943d 28fe 31be 669e 893d 39ee 09bd
000002f0: d5b6 05be a1ce 84bd 4497 8ebc 1433 9bbd
00000300: b8f0 12be edc9 463d 91eb 09bd 1f8f 343d
00000310: 867e f43d 842b dfbd 1721 d5bd 4d60 42be
00000320: 229d 233d fbf1 64bd d0cc ffbc 924b 813d
00000330: b1de a63c 1c9b 093d fff3 cdbd 71a2 9fbd
00000340: 2045 16be d66f 0fbc d127 72bd 5c5e c03c
00000350: 9fc1 0ebd 5612 923c 5318 82bd 51f5 cabd
00000360: e841 9b3d ac22 0dbe 9828 8f3d e111 eebc
00000370: 6a06 713d 7cd2 6fbb 8e58 0c3d 9127 abbd
00000380: 4ef4 853d 56ad cbbd ea7c e1bd 7b40 803d
00000390: 4ebd 5e3c 7e35 d3bd f04d 9abc 52a2 ff3d
000003a0: e865 b4bd 15b1 6a3d b094 9ebd 0501 c83c
000003b0: 90f1 30bd d35a 8dbd 5985 b93d 9f75 fabd
000003c0: 5929 d7bd c1c7 5fbd a087 b23d 8485 403d
000003d0: f260 da3d fcf0 e53d c2a9 c8bc 62d8 01be
000003e0: e340 88bd 1046 64bc d861 e2bd e011 8e3d
000003f0: e6e8 1abc de84 5cbd 5d9d 0ebe ae3c b03d

bn_outlayer_in.weight f4 [64]
0.95061105 1.0396909 1.0216045 0.99414724 0.96489954 0.99912614 1.0152826 0.9378368
0.9544963 0.9654009 1.1469686 0.97134197 0.9501828 0.9543466 0.95270485 0.97684693
0.95724356 0.98206455 0.9883476 1.075004 1.0023272 0.95404303 0.9866627 0.95830953
0.9803492 0.9874425 0.99009174 0.9701283 0.96577215 0.9851066 0.99647045 0.97048825
0.9724966 0.9778506 1.0195745 0.9817515 1.0745143 0.98990875 0.995512 1.0279499
0.97031516 0.9412053 1.0313505 0.9786925 1.181081 0.9901925 0.96820897 0.95553035
1.0005544 0.9558351 0.9501792 0.97064185 0.9636335 0.96127236 1.1179174 0.9942283
0.9624388 0.9656906 0.9621227 0.9661045 0.98346883 1.0318679 0.9768581 1.0119413
00000000: 3f5b 733f 9714 853f f0c3 823f 6f80 7e3f
00000010: a803 773f bbc6 7f3f c8f4 813f 1316 703f
00000020: df59 743f 8324 773f decf 923f dea9 783f
00000030: 2e3f 733f 0f50 743f 77e4 733f a412 7a3f
00000040: ea0d 753f 9568 7b3f 5904 7d3f bb99 893f
00000050: 424c 803f 2a3c 743f ed95 7c3f c653 753f
00000060: 2af8 7a3f 08c9 7c3f a776 7d3f 545a 783f
00000070: d83c 773f f22f 7c3f b018 7f3f eb71 783f
00000080: 8af5 783f 6b54 7a3f 6b81 823f 1154 7b3f
00000090: af89 893f a96a 7d3f e0d9 7e3f dd93 833f
000000a0: 9366 783f d5f2 703f 4b03 843f 978b 7a3f
000000b0: aa2d 973f 417d 7d3f 8bdc 773f a39d 743f
000000c0: 2b12 803f 9cb1 743f f23e 733f fc7b 783f
000000d0: afb0 763f f215 763f eb17 8f3f bf85 7e3f
000000e0: 6462 763f 8037 773f ac4d 763f a052 773f
000000f0: 9dc4 7b3f 3f14 843f 5f13 7a3f 4b87 813f

bn_outlayer_in.bias f4 [64]
-0.09305486 0.06239016 0.045228597 0.0081016105 0.07657871 0.034155626 0.06301456 -0.03786211
-0.035102222 -0.11592108 0.08810961 0.10208321 -0.075570434 -0.02448122 -0.025906209 -0.010748504
0.014042177 0.04198183 0.04559134 0.20770319 0.011584639 0.072101615 0.05606525 0.02511552
-0.10686579 0.024594016 0.1106649 -0.027406303 -0.021950917 0.007571428 0.031743053 0.050828986
-0.030510083 -0.018751703 -0.023286832 -0.058437265 0.1469684 0.008897307 0.012238241 0.026767619
-0.017589102 -0.08292256 0.06305576 -0.056202527 0.11351326 0.05128273 -0.120958775 -0.02723902
0.0344792 -0.12112169 -0.038131695 0.0539125 -0.0010245676 -0.051301897 0.08142712 0.01629305
-0.047198333 0.028883375 -0.051355273 -0.0023080984 0.060024675 0.07411945 -0.023537066 0.0031519695
00000000: 8c93 bebd d38c 7f3d 9f41 393d 9ebc 043c
00000010: 4cd5 9c3d c5e6 0b3d c70d 813d 4d15 1bbd
00000020: 59c7 0fbd 0868 edbd d072 b43d 0111 d13d
00000030: acc4 9abd d78c c8bc 4239 d4bc 7e1a 30bc
00000040: 2911 663c 24f5 2b3d fcbd 3a3d 25b0 543e
00000050: 7fcd 3d3c 03aa 933d ada4 653d 10bf cd3c
00000060: 74dc dabd 6479 c93c 47a4 e23d 2f83 e0bc
00000070: 69d2 b3bc be19 f83b 0105 023d 0e32 503d
00000080: 48f0 f9bc 2c9d 99bc 07c4 bebc ea5b 6fbd
00000090: e27e 163e 03c6 113c e782 483c c447 db3c
000000a0: 0517 90bc 4ed3 a9bd 6123 813d 9f34 66bd
000000b0: a479 e83d d70d 523d 3cb9 f7bd 5e24 dfbc
000000c0: 103a 0d3d a60e f8bd fb2f 1cbd 5bd3 5c3d
000000d0: c94a 86ba f021 52bd 43c3 a63d 0179 853c
000000e0: 0a53 41bd d49c ec3c e859 52bd 7743 17bb
000000f0: 6fdc 753d f0cb 973d ced0 c0bc 4691 4e3b

bn_outlayer_in.running_mean f4 [64]
0.0037593248 0.0020919605 0.0026586049 0.0016856346 -0.018098775 0.00093205745 0.003205583 -0.011542981
-0.0009299308 0.0028715224 -0.02293766 -0.0141124725 0.003212994 -0.0022858859 -0.0014489949 -0.00025138468
0.0019400251 0.0041488055 -0.0049887598 -0.03738567 -0.0093061915 0.007076465 -0.013756286 -0.018595595
0.006659645 0.0025122035 -0.024522386 -0.0011467428 -0.00031380064 -0.0008955221 0.0013761101 -0.013208384
0.012506437 -0.0004340307 -0.0005739454 0.0019148152 -0.036755424 0.00031462786 -0.0286569 0.002540793
-0.0020933123 0.0010208782 -0.012547294 -0.002065826 -0.030362502 -0.017612902 0.0058045485 -0.015999597
0.0010095292 0.006172437 -0.001017383 -0.017669156 -0.0002381005 0.009259852 -0.018747857 -0.0036304363
-0.0016572315 0.0007107427 -0.0014533296 0.00030196298 -0.02598261 0.006462254 -0.0016479632 0.0001700716
00000000: 015f 763b 4619 093b fd3b 2e3b 83f0 dc3a
00000010: e243 94bc 5155 743a c214 523b c51e 3dbc
00000020: 99c6 73ba 2730 3c3b c2e7 bbbc 0038 67bc
00000030: 1891 523b cdce 15bb 33ec bdba 48cc 83b9
00000040: 7148 fe3a b4f2 873b c078 a3bb b721 19bd
00000050: ff78 18bc b1e1 e73b 0c62 61bc ca55 98bc
00000060: 2739 da3b c8a3 243b 2ce3 c8bc 4e4e 96ba
00000070: 9c85 a4b9 79c1 6aba 985e b43a fa67 58bc
00000080: cce7 4c3c 9d8e e3b9 d374 16ba 89fa fa3a
00000090: db8c 16bd a3f4 a439 e0c1 eabc 6f83 263b
000000a0: f42f 09bb fdce 853a 2a93 4dbc cf62 07bb
000000b0: c8ba f8bc ef48 90bc 1534 be3b 9611 83bc
000000c0: 2e52 843a 2842 ca3b b559 85ba e8be 90bc
000000d0: 9eaa 79b9 a2b6 173c 1b95 99bc 9dec 6dbb
000000e0: 7637 d9ba 2351 3a3a a67d beba c950 9e39
000000f0: 7cd9 d4bc 51c1 d33b 7800 d8ba 3f55 3239

bn_outlayer_in.running_var f4 [64]
0.003497994 0.0018011054 0.0019877688 0.0015048275 0.0056163585 0.0031703308 0.0022644883 0.0017764943
0.0011315498 0.001405261 0.0004525382 0.0054243426 0.0011784534 0.0059824353 0.0042890683 0.00070015574
0.0039825295 0.0051358975 0.001509994 0.0124400975 0.00083040015 0.0036266062 0.00268111 0.0011567705
0.0031802047 0.0031201309 0.0065824413 0.0017307305 0.0015467019 0.0034536484 0.002030608 0.0037489994
0.0014090544 0.0051222015 0.0013878322 0.0028467125 0.006549986 0.0025056691 0.001613246 0.0024817449
0.0019352589 0.0030111715 0.0011085343 0.0013664507 0.00079317886 0.0008957315 0.0011773643 0.0057300245
0.0018524287 0.0019885525 0.0014501367 0.0015408092 0.0026778386 0.0012641116 0.00039436857 0.003257579
0.00084590155 0.0035046248 0.0011973471 0.0017456585 0.0014469984 0.003954105 0.0017774602 0.0017744568
00000000: 9a3e 653b 1213 ec3a 3a45 023b a23d c53a
00000010: 6e09 b83b 53c5 4f3b cf67 143b 42d9 e83a
00000020: 8350 943a bc30 b83a a642 ed39 afbe b13b
00000030: 5676 9a3a 4e08 c43b 508b 8c3b a88a 373a
00000040: e17f 823b 084b a83b feea c53a 8dd1 4b3c
00000050: 36af 593a 5bac 6d3b 90b5 2f3b c79e 973a
00000060: fb6a 503b 1c7b 4c3b 85b1 d73b aed9 e23a
00000070: b4ba ca3a 9b56 623b f313 053b c6b1 753b
00000080: 05b0 b83a 24d8 a73b ece7 b53a e98f 3a3b
00000090: 44a1 d63b 2736 243b 8e73 d33a c5a4 223b
000000a0: 83a8 fd3a 1357 453b 3d4c 913a 7a1a b33a
000000b0: 55ed 4f3a 86cf 6a3a ca51 9a3a eec2 bb3b
000000c0: 31cd f23a 6052 023b 8312 be3a faf4 c93a
000000d0: ad7e 2f3b 8cb0 a53a 41c3 ce39 1b7d 553b
000000e0: 7ebf 5d3a d9ad 653b 4df0 9c3a 94ce e43a
000000f0: 36a9 bd3a 7091 813b abf9 e83a e494 e83a

gnn_layers.0.gnn.att_i f4 [1, 1, 64]
0.009676496 0.22341383 0.1778337 -0.32746017 0.41588727 0.072583444 -0.2989082 -0.2014162
0.24545252 0.04991663 0.10481476 0.117045216 -0.117547326 -0.008685019 -0.1854162 0.4018133
-0.2215407 0.24039623 0.055512235 0.09650148 -0.33524603 -0.008883331 0.22248188 0.01349538
0.08845707 0.10456443 -0.15493047 0.0076439627 -0.010921907 0.27744353 0.16388054 -0.08724292
-0.011136098 -0.14387122 -0.07412873 -0.15655176 0.2519651 -0.11194122 0.11986024 0.12956612
-5.310734e-06 0.044755317 0.025885424 -0.22701547 -0.05865085 0.032816794 -0.3646987 0.46657857
-0.027512824 -0.2119729 -0.36699453 -0.3458712 0.19945367 -0.14779502 -0.20400493 -0.014845682
0.22335854 -0.19155265 0.1882817 0.15073478 -0.32300258 0.34420112 0.05096254 0.27974457
00000000: 2a8a 1e3c 98c6 643e 0a1a 363e dca8 a7be
00000010: 2def d43e a1a6 943d 7f0a 99be 0c40 4ebe
00000020: e857 7b3e 6175 4c3d 1fa9 d63d 67b5 ef3d
00000030: a7bc f0bd 9c4b 0ebc bfdd 3dbe 79ba cd3e
00000040: 91db 62be 6e2a 763e cc60 633d 91a2 c53d
00000050: 5ea5 abbe 648b 11bc 4ad2 633e ba1b 5d3c
00000060: fb28 b53d e025 d63d 18a6 1ebe 357a fa3b
00000070: ccf1 32bc 140d 8e3e 4dd0 273e 6bac b2bd
00000080: 2e74 36bc fa52 13be ced0 97bd 1b4f 20be
00000090: 9201 813e 7041 e5bd 4979 f53d fbac 043e
000000a0: dc32 b2b6 5a51 373d ab0d d43c be76 68be
000000b0: e03b 70bd e76a 063d cab9 babe 63e3 ee3e
000000c0: 9362 e1bc 6d0f 59be b5e6 bbbe 0816 b1be
000000d0: 953d 4c3e 9457 17be abe6 50be 4e3b 73bc
000000e0: 1ab8 643e 6126 44be ebcc 403e 385a 1a3e
000000f0: 9860 a5be 213b b03e 19be 503d ae3a 8f3e

gnn_layers.0.gnn.att_j f4 [1, 1, 64]
0.16705763 -0.30385518 0.04320769 0.095433235 -0.09281766 0.23973449 -0.26334387 -0.103287324
0.2767018 0.2991555 0.14014308 -0.16174561 -0.2742459 -0.23085712 -0.06882739 0.16129036
0.097312815 -0.026678385 0.29035735 0.26244923 -0.15802646 -0.11719427 0.0062065506 0.053166464
0.018399654 0.14006786 0.22393706 -0.07639218 0.11581272 0.043673124 0.10609758 0.11567611
-0.094116315 -0.12928115 0.11715041 -0.17105849 0.16835514 -0.20201701 0.1964757 0.11447534
-0.057438903 0.18765713 -0.068227015 0.05700049 0.0839647 0.019178072 0.07712777 -0.0019547555
-0.06883876 0.18050471 0.11132761 0.09955559 0.17899963 -0.17371619 -0.08185263 0.025486019
0.23382482 -0.20653129 -0.17826727 -0.079346545 -0.2709269 -0.23872176 0.17327428 0.00091905723
00000000: 2811 2b3e e892 9bbe 8cfa 303d 8072 c33d
00000010: 2f17 bebd f57c 753e 02d5 86be 4e88 d3bd
00000020: dcab 8d3e e92a 993e ab81 0f3e a4a0 25be
00000030: f569 8cbe cf65 6cbe 60f5 8cbd 4d29 253e
00000040: f14b c73d a18c dabc b8a9 943e bf5f 863e
00000050: b0d1 21be 8d03 f0bd 5260 cb3b 14c5 593d
00000060: dfba 963c f36d 0f3e c24f 653e 8173 9cbd
00000070: 382f ed3d 97e2 323d b049 d93d 99e7 ec3d
00000080: 0ec0 c0bd 4762 04be 8eec ef3d f529 2fbe
00000090: 4a65 2c3e 8cdd 4ebe ed30 493e 0c72 ea3d
000000a0: 0e45 6bbd 3129 403e 9bba 8bbd 5979 693d
000000b0: aff5 ab3d 551b 9d3c 2af5 9d3d 5b1b 00bb
000000c0: 56fb 8cbd 3ad6 383e bbff e33d cde3 cb3d
000000d0: ae4b 373e a8e2 31be 5aa2 a7bd 0ec8 d03c
000000e0: c66f 6f3e f07c 53be b28b 36be 7180 a2bd
000000f0: eeb6 8abe 7a73 74be d06e 313e e3ec 703a

gnn_layers.0.gnn.att_em_i f4 [1, 1, 64]
-0.13811222 -0.22689512 0.14274491 0.1669098 0.110173754 -0.21021868 0.10075708 -0.07450302
0.08125341 0.0568336 0.027997287 0.15700236 0.13772564 -0.10566196 -0.19493827 -0.003383534
-0.09223205 -0.022046061 0.15699561 0.116620354 0.0954027 -0.09361419 0.022569546 -0.085245185
-0.15906143 -0.19535404 0.048900913 -0.010581147 0.07812002 -0.033146597 0.108296685 -0.110186405
0.18979684 0.0119154705 -0.024205638 0.029948525 0.24126047 -0.022493683 -0.12049771 0.014879687
-0.07544262 0.05935355 -0.037409786 -0.07855594 0.13514629 -0.114185624 0.06763528 0.06881612
-0.18142067 -0.0060850717 0.030973505 -0.14852852 -0.08235467 0.22249253 0.12188993 -0.11440639
-0.08235688 -0.12525125 0.05576693 0.025652582 0.0065070475 -0.2887821 -0.20849851 -0.13403694
00000000: 4a6d 0dbe 3257 68be b92b 123e 67ea 2a3e
00000010: c7a2 e13d 9143 57be ba59 ce3d 0a95 98bd
00000020: 3068 a63d 59ca 683d 915a e53c 3ac5 203e
00000030: f307 0d3e 4c65 d8bd e69d 47be 48be 5dbb
00000040: 28e4 bcbd f199 b4bc 75c3 203e a7d6 ee3d
00000050: 7e62 c33d ccb8 bfbd c5e3 b83c 0795 aebd
00000060: 00e1 22be e40a 48be 534c 483d 8c5c 2dbc
00000070: 64fd 9f3d bac4 07bd a7ca dd3d 69a9 e1bd
00000080: 1a5a 423e 1b39 433c e74a c6bc 9c56 f53c
00000090: fc0c 773e ac44 b8bc 81c7 f6bd eec9 733c
000000a0: a981 9abd b51c 733d 013b 19bd f0e1 a0bd
000000b0: ca63 0a3e 27da e9bd 5e84 8a3d 77ef 8c3d
000000c0: 57c6 39be 4865 c7bb 26bc fd3c dc17 18be
000000d0: 91a9 a8bd 15d5 633e 6da1 f93d e64d eabd
000000e0: b9aa a8bd dd41 00be dd6b 643d 5d25 d23c
000000f0: 1239 d53b 3fdb 93be a280 55be fb40 09be

gnn_layers.0.gnn.att_em_j f4 [1, 1, 64]
-0.08638596 -0.13669701 0.15551986 -0.15741841 -0.07815081 0.091963165 -0.14802352 0.05811446
0.07224354 -0.024982693 0.047384966 -0.018308442 -0.08806782 0.07940802 -0.13699122 -0.11693309
0.16443136 0.121943325 0.050455574 -0.13421053 0.1295468 0.0071693202 -0.11356196 0.00890215
-0.070774466 -0.0024184566 -0.022214828 0.08723497 0.032222178 0.02000397 -0.011544365 0.14014952
-0.019757189 0.026578072 -0.008075233 -0.00232177 -0.10078175 -0.10056608 0.0129219815 -0.14873046
-0.17316806 0.093265116 0.09069829 -0.1207975 0.14187449 0.11098681 0.1337908 0.038733505
-0.10769081 0.0063891727 0.060975198 0.07454469 -0.14624001 -0.03023715 0.10940227 0.07146495
0.0018765683 -0.12881617 0.089941025 -0.05523712 0.10519955 -0.024387982 0.00053415634 -0.13919906
00000000: 1feb b0bd 4dfa 0bbe 9940 1f3e 4b32 21be
00000010: 880d a0bd 2f57 bc3d 7a93 17be 6e09 6e3d
00000020: 6cf4 933d 81a8 ccbc bd16 423d 96fb 95bc
00000030: e75c b4bd aca0 a23d 6d47 0cbe 9e7a efbd
00000040: b260 283e 6cbd f93d 81aa 4e3d 7c6e 09be
00000050: eba7 043e 9eec ea3b 2c93 e8bd 53da 113c
00000060: 34f2 90bd f87e 1ebb dffb b5bc 3fa8 b23d
00000070: 67fb 033d 5edf a33c 9424 3dbc 5b83 0f3e
00000080: d4d9 a1bc 42ba d93c fb4d 04bc d628 18bb
00000090: aa66 cebd 97f5 cdbd b8b6 533c cc4c 18be
000000a0: f852 31be c801 bf3d 06c0 b93d ae64 f7bd
000000b0: 8c47 113e 0d4d e33d 7500 093e 06a7 1e3d
000000c0: 008d dcbd 445c d13b 21c1 793d e3aa 983d
000000d0: f1bf 15be e6b3 f7bc 4c0e e03d 375c 923d
000000e0: 2ff7 f53a 63e8 03be 0033 b83d 5140 62bd
000000f0: dd72 d73d 4ec9 c7bc a006 0c3a 338a 0ebe

gnn_layers.0.gnn.bias f4 [64]
0.00044640634 -0.0006716223 -0.00041956382 -0.0015995832 0.004311296 -0.002033041 -0.0007856808 -0.002867191
-0.00050226913 0.00032756606 0.00019473837 0.0005183335 0.0008918802 -0.0019427405 -0.0029473265 0.0028301796
-0.0015953616 -0.0022060028 0.0006728387 -0.001452924 -0.0011273318 0.0025658421 0.0012072977 -0.001135258
0.00106551 -0.0011605362 0.00043268807 0.003713765 -0.0009024513 -0.003041788 -0.0040952833 -0.0039151018
-0.0019033217 -0.00413376 -0.0020585917 0.0047574867 -0.0003308903 0.0030754618 -0.00036878177 -0.00025810904
-8.729579e-05 0.0003975453 -0.0048527108 -0.0011733411 -0.0037384983 -0.0017497552 -0.00070218433 0.0029635068
-0.0010923708 0.00055376475 -0.002829659 -4.517764e-05 0.00074208376 -0.0002697814 -0.0013604574 -0.0016241283
-0.0012515457 -0.008266279 0.0030409542 0.0017307488 -0.0018470294 -0.0004280953 0.0042107883 -0.00031363286
00000000: a50b ea39 cf0f 30ba e7f8 dbb9 1ba9 d1ba
00000010: c645 8d3b c53c 05bb 25f6 4dba 7ce7 3bbb
00000020: b6aa 03ba 2cbd ab39 af32 4c39 c6e0 073a
00000030: 11cd 693a 8ea3 feba ef27 41bb 897a 393b
00000040: 741b d1ba 9692 10bb 7161 303a 0a70 beba
00000050: fac2 93ba b027 283b 303e 9e3a f0cc 94ba
00000060: 95a8 8b3a 221d 98ba 69da e239 a362 733b
00000070: 7b92 6cba bc58 47bb ba31 86bb 414a 80bb
00000080: e178 f9ba 7e74 87bb 70e9 06bb b1e4 9b3b
00000090: 587b adb9 b08d 493b 0d59 c1b9 cf52 87b9
000000a0: 9212 b7b8 a06d d039 7d03 9fbb cbca 99ba
000000b0: 9801 75bb 0b58 e5ba cb12 38ba 6537 423b
000000c0: e22d 8fba 862a 113a cd71 39bb 1f7d 3db8
000000d0: 6688 423a 7271 8db9 6051 b2ba b4e0 d4ba
000000e0: e80a a4ba 496f 07bc bf4a 473b 4bda e23a
000000f0: 0618 f2ba fb71 e0b9 a7fa 893b 176f a4b9

gnn_layers.0.gnn.lin.weight f4 [64, 15]
0.108505696 -0.06461048 0.2791802 0.010621628 -0.12822811 0.0859656 0.15567623 0.025398025
0.25270036 -0.1608028 0.123713456 0.15944062 0.1449784 0.010276412 0.07418795 -0.23052946
-0.22222024 -0.032481875 -0.040879525 0.19929197 0.19175673 0.18088177 -0.12707312 -0.21862039
-0.26773787 0.094559245 -0.23173577 -0.252851 -0.12144115 -0.14871262 -0.15514275 -0.2030317
-0.17624936 0.2443171 -0.055159245 0.21896523 -0.022049991 -0.0125084 -0.072220884 -0.1978593
-0.24468996 0.18008707 -0.11149316 -0.34434414 0.38297287 0.036026653 -0.16633844 -0.19612455
-0.23333551 -0.24015799 0.24871409 0.1876033 -0.0014244402 -0.24833088 -0.059366204 -0.24640258
0.052856296 -0.12453963 -0.100055225 -0.23004057 0.088019274 0.12093615 0.032685548 -0.044339135
-0.033173952 -0.0014288451 -0.20107636 0.29617438 -0.09210371 0.16757365 -0.14402324 0.054510847
0.15637255 -0.20219733 0.2715723 -0.19870842 0.04876397 -0.040071703 0.17427495 0.2812163
0.07794434 0.0062386445 -0.11142941 0.11641965 -0.119447306 0.119165175 -0.10822765 0.19476382
0.21510619 0.21699344 0.008691524 0.13622083 -0.2538072 0.21188518 -0.08225908 0.08400579
-0.057728842 -0.13049842 -0.15467136 0.17404468 -0.14199586 -0.08211397 0.09363726 -0.0066401884
-0.3572173 -0.26573107 -0.13312629 0.25066128 -0.19883226 0.14698279 0.19598617 -0.11315296
-0.14064446 -0.20628141 0.0399652 -0.04017417 0.0028062777 0.105394684 0.10694132 -0.13974136
-0.02216413 0.023048662 -0.024466865 0.02464166 -0.13836008 0.21332917 -0.04640026 -0.02743447
-0.24058075 -0.1931584 0.010361477 -0.03233948 -0.12543583 0.14950697 0.060539786 0.08670902
0.21949239 -0.12655723 -0.13243562 -0.045660347 -0.0092207715 -0.13033482 -0.035564024 0.013680159
0.14001417 0.264131 0.21881592 0.051731873 0.0073816823 0.102947295 0.014336843 -0.012361984
0.11145614 -0.19871742 -0.20419718 0.033203196 -0.06186613 -0.10017265 -0.23818888 0.18897669
-0.007202658 -0.12593566 -0.0803908 0.09336519 -0.1108109 -0.007705316 -0.018259408 0.07568173
0.10136998 -0.17474738 0.12073349 0.21505077 0.03840687 0.15930656 -0.09033071 0.07313477
0.11943524 -0.08167432 0.21450542 -0.17055301 -0.108835205 -0.16610003 -0.17605048 -0.17963499
-0.27398717 0.027122872 -0.06845655 -0.2648638 -0.022665674 -0.059710182 0.10395577 -0.23939992
-0.10771185 0.02910958 0.048839636 0.012514301 0.07291261 0.26103485 -0.107166976 0.17294565
0.21992902 -0.2558931 0.0452663 0.1431625 -0.05463546 0.14886697 0.0158358 0.21207489
0.009326907 -0.1557911 0.24673153 0.118435904 0.25613445 0.07612344 0.1453434 0.16100927
0.052987956 -0.072596215 0.06300283 -0.17128642 0.036619414 -0.08341553 0.014398605 -0.21113026
0.106598526 -0.29057133 0.07957093 0.1374202 -0.29019496 0.22041172 -0.21349576 -0.06805112
0.15813483 -0.08067371 0.2389681 -0.13141067 -0.037523717 -0.17970489 -0.14342883 0.32689202
0.21724184 0.025683034 0.023195174 -0.23869766 0.18894675 -0.059927117 -0.13161631 -0.24351858
0.20563437 0.12026792 0.16004771 0.021599792 -0.20155266 0.100303374 0.0022662827 0.06852395
00000000: 3c38 de3d 8052 84bd b5f0 8e3e 5606 2e3c
00000010: 3b4e 03be bc0e b03d 9769 1f3e 850f d03c
00000020: f161 813e 7da9 24be 7b5d fd3d 6744 233e
00000030: 3875 143e 655e 283c daef 973d ea0f 6cbe
00000040: b48d 63be b70b 05bd 4a71 27bd 3213 4c3e
00000050: e05b 443e 1239 393e 751f 02be 06de 5fbe
00000060: f014 89be 47a8 c13d 244c 6dbe b075 81be
00000070: 23b6 f8bd 1f48 18be bedd 1ebe 8be7 4fbe
00000080: b67a 34be 432e 7a3e a9ee 61bd 6c38 603e
00000090: 2fa2 b4bc 08f0 4cbc 8be8 93bd a19b 4abe
000000a0: 0190 7abe bf68 383e 8756 e4bd e04d b0be
000000b0: 0515 c43e af90 133d a054 2abe e0d4 48be
000000c0: 81ef 6ebe faeb 75be e8ae 7e3e 141b 403e
000000d0: 48b4 baba 734a 7ebe fa29 73bd f550 7cbe
000000e0: d87f 583d a20e ffbd c1e9 ccbd c18f 6bbe
000000f0: 7343 b43d 5fad f73d 48e1 053d f49c 35bd
00000100: 69e1 07bd 1648 bbba f6e6 4dbe 2ba4 973e
00000110: dfa0 bcbd 6d98 2b3e d47a 13be c446 5f3d
00000120: 2020 203e d10c 4fbe 860b 8b3e 387a 4bbe
00000130: bbbc 473d 3a22 24bd 2275 323e 95fb 8f3e
00000140: 48a1 9f3d 8b6d cc3b 1a35 e4bd 6d6d ee3d
00000150: caa0 f4bd df0c f43d 75a6 ddbd 2b70 473e
00000160: cc44 5c3e 8733 5e3e e566 0e3c 797d 0b3e
00000170: 04f3 81be 6ef8 583e 7377 a8bd 3a0b ac3d
00000180: 1475 6cbd 61a1 05be 2b62 1ebe c538 323e
00000190: 5d67 11be 5e2b a8bd e4c4 bf3d f095 d9bb
000001a0: 30e5 b6be e70d 88be 4252 08be ad56 803e
000001b0: af9a 4bbe a882 163e 99b0 483e bdbc e7bd
000001c0: 1a05 10be 6f3b 53be 8db2 233d ac8d 24bd
000001d0: 87e9 373b 2bd9 d73d 0d04 db3d 5c18 0fbe
000001e0: 8d91 b5bc 8cd0 bc3c bc6e c8bc 4edd c93c
000001f0: 44ae 0dbe f672 5a3e 330e 3ebd 41be e0bc
00000200: cd5a 76be 51cb 45be 2fc3 293c 6776 04bd
00000210: 4072 00be 5b18 193e 91f8 773d 8094 b13d
00000220: 9dc2 603e 3898 01be 349d 07be 5806 3bbd
00000230: b812 17bc 7e76 05be 95ab 11bd bf22 603c
00000240: e05f 0f3e 2e3c 873e 4811 603e cde4 533d
00000250: 0ae2 f13b 08d6 d23d 14e5 6a3c eb89 4abc
00000260: 1e43 e43d 947c 4bbe 1119 51be 1300 083d
00000270: 5767 7dbd 5127 cdbd c9e7 73be 1b83 413e
00000280: 4604 ecbb 47f5 00be efa3 a4bd 4036 bf3d
00000290: d3f0 e2bd e07c fcbb c194 95bc 06ff 9a3d
000002a0: 109b cf3d faf0 32be 1f43 f73d 4536 5c3e
000002b0: 8650 1d3d 4221 233e 4fff b8bd afc7 953d
000002c0: 779a f43d de44 a7bd 4fa7 5b3e 73a5 2ebe
000002d0: fee4 debd 2016 2abe 9446 34be 3cf2 37be
000002e0: 0c48 8cbe c930 de3c f332 8cbd 3a9c 87be
000002f0: 5dad b9bc aa92 74bd c3e6 d43d 4125 75be
00000300: 0898 dcbd 3777 ee3c 120c 483d c808 4d3c
00000310: 3553 953d 5ca6 853e 5c7a dbbd aa18 313e
00000320: 1335 613e 6c04 83be 2869 393d 3199 123e
00000330: 6fc9 5fbd 9570 183e 14ba 813c 292a 593e
00000340: e2cf 183c b487 1fbe 31a7 7c3e 868e f23d
00000350: 0e24 833e 9be6 9b3d e6d4 143e 9ddf 243e
00000360: e609 593d 53ad 94bd a107 813d b565 2fbe
00000370: 3dfe 153d c3d5 aabd 20e8 6b3c 8832 58be
00000380: 5450 da3d c4c5 94be 15f6 a23d e2b7 0c3e
00000390: 6f94 94be 9cb3 613e a29e 5abe 635e 8bbd
000003a0: 19ee 213e 4238 a5bd 0eb4 743e 8590 06be
000003b0: 78b2 19bd 8f04 38be 02df 12be 645e a73e
000003c0: a574 5e3e 3a65 d23c ce03 be3c 296d 74be
000003d0: 427b 413e 2376 75bd 6dc6 06be ef5c 79be
000003e0: d191 523e 074f f63d 8ce3 233e 0cf2 b03c
000003f0: d263 4ebe db6b cd3d ea85 143b 4956 8c3d

gnn_layers.0.bn.weight f4 [64]
0.90364844 0.8546094 0.8047106 0.83671093 0.9898443 0.8083345 0.78166705 0.818231
0.94693166 0.739759 0.71533215 0.8597862 0.9028886 0.8453127 0.87604725 0.7842269
0.81550884 0.7997452 0.72501683 0.89844286 0.6504254 0.8465288 0.7921752 0.8963323
0.73835087 0.7935073 0.95940804 0.84137285 0.88307565 0.80939776 0.76035696 0.8396002
0.9650177 0.852575 0.80267924 0.85000145 0.7571568 0.83492476 0.8764242 0.8437015
0.92066264 0.83022654 0.63665676 0.77398455 0.66978276 0.98196584 0.7440778 0.9312587
0.6993534 0.73429394 0.84209496 0.9740697 0.849361 0.96153575 0.8128675 0.7697661
0.8768093 0.7890525 0.8413031 0.8107506 0.8181416 0.723151 0.7250216 0.7972354
00000000: 8155 673f aec7 5a3f 8401 4e3f b032 563f
00000010: 7066 7d3f 03ef 4e3f 551b 483f 9677 513f
00000020: 1d6a 723f d960 3d3f 0220 373f f31a 5c3f
00000030: b523 673f 6a66 583f a244 603f 18c3 483f
00000040: 30c5 503f 1abc 4c3f b49a 393f 5a00 663f
00000050: 4782 263f 1db6 583f fecb 4a3f 0976 653f
00000060: 9004 3d3f 4b23 4b3f c49b 753f 3664 573f
00000070: 3f11 623f b134 4f3f c1a6 423f 0af0 563f
00000080: 660b 773f 5b42 5a3f 637c 4d3f b299 593f
00000090: 07d5 413f a1bd 553f 565d 603f d2fc 573f
000000a0: 8cb0 6b3f ba89 543f f0fb 223f da23 463f
000000b0: e276 2b3f 1d62 7b3f e27b 3e3f f866 6e3f
000000c0: d308 333f b0fa 3b3f 8993 573f a25c 793f
000000d0: b96f 593f 3527 763f 1618 503f 640f 453f
000000e0: 9376 603f 58ff 493f a45f 573f 5a8d 4f3f
000000f0: ba71 513f 6d20 393f 049b 393f 9f17 4c3f

gnn_layers.0.bn.bias f4 [64]
-0.055534232 0.15806852 0.16783147 0.13773936 0.016864683 0.118662976 0.15619104 -0.0814218
0.036107976 -0.1130072 0.28345966 -0.076786794 -0.056383844 0.086055465 0.081624165 0.14957555
0.0976484 0.11870947 -0.11651252 0.09063271 0.21134071 0.090417415 -0.12301895 0.06734874
-0.112933844 0.11743419 -0.030181281 0.11388863 0.08458058 0.11061849 0.17697981 0.10283027
-0.038880683 0.08412836 0.17600946 0.07029652 0.17981406 0.14638638 0.077464305 0.14150105
0.052026764 -0.07734857 0.22945634 0.15204863 0.2879276 -0.019927079 -0.12891018 0.042281818
0.20885083 -0.12385842 0.10207544 -0.022909123 0.09300246 -0.012968247 0.21987234 0.12395834
0.080078356 0.12602027 0.09476435 0.11506143 0.08729551 0.17272913 0.17153345 0.1401846
00000000: dd77 63bd b7dc 213e 03dc 2b3e 8c0b 0d3e
00000010: ce27 8a3c 9305 f33d 8bf0 1f3e 79c0 a6bd
00000020: f5e5 133d 5270 e7bd a021 913e 6542 9dbd
00000030: bff2 66bd d93d b03d 922a a73d 552a 193e
00000040: e2fb c73d f31d f33d 1e9e eebd a49d b93d
00000050: b369 583e c42c b93d 5cf1 fbbd 23ee 893d
00000060: dc49 e7bd 5681 f03d bc3e f7bc 713e e93d
00000070: 9538 ad3d f28b e23d 323a 353e ad98 d23d
00000080: 5a41 1fbd 7d4b ac3d d33b 343e 9ff7 8f3d
00000090: 2d21 383e 50e6 153e 9ba5 9e3d a7e5 103e
000000a0: 041a 553d ed68 9ebd 9af6 6a3e a3b2 1b3e
000000b0: 3f6b 933e 1d3e a3bc 0801 04be b32f 2d3d
000000c0: fedc 553e 7ca9 fdbd ee0c d13d eaab bbbc
000000d0: 1378 be3d c578 54bc 3726 613e dfdd fd3d
000000e0: 1f00 a43d 750b 013e d013 c23d 54a5 eb3d
000000f0: fdc7 b23d e8df 303e 77a6 2f3e 8d8c 0f3e

gnn_layers.0.bn.running_mean f4 [64]
0.34383166 -0.39799425 -0.17599715 -0.41847235 0.14730085 0.28522718 -0.18936501 -0.118837096
-0.12114043 0.20642695 -0.22067082 0.18092681 -0.4451319 0.22106342 0.19687377 -0.07616176
0.05368123 0.09231903 0.2679566 0.102386 -0.03654209 0.21154843 0.36296174 -0.21627463
0.14864074 0.28256628 0.25715706 -0.15488926 -0.065123215 0.056877036 -0.07351675 0.0019871104
-0.16850401 0.03888752 -0.06328567 0.01919156 0.36669022 -0.21124926 -0.23233983 -0.14621283
-0.038322423 0.328818 -0.015776336 -0.3706571 -0.12377755 -0.13820982 0.024475012 0.13142893
-0.094067395 0.14096604 -0.21249661 -0.53534645 -0.2134993 -0.56181383 -0.31129262 0.060315058
-0.27501553 0.1158439 -0.32156605 -0.19018398 -0.43365178 0.044354558 -0.13147545 -0.14265032
00000000: b40a b03e e7c5 cbbe 9938 34be 0242 d6be
00000010: 09d6 163e 4c09 923e e7e8 41be dd60 f3bd
00000020: 7918 f8bd 9661 533e 88f7 61be e144 393e
00000030: 54e8 e3be 735e 623e 4799 493e b2fa 9bbd
00000040: d9e0 5b3d c211 bd3d 9c31 893e c0af d13d
00000050: 29ad 15bd 27a0 583e 1fd6 b93e 1977 5dbe
00000060: 4735 183e 87ac 903e 17aa 833e 4a9b 1ebe
00000070: 525f 85bd e5f7 683d f38f 96bd 2e3a 023b
00000080: 518c 2cbe 8548 1f3d eb9b 81bd 9e37 9d3c
00000090: d2be bb3e ba51 58be 7eea 6dbe d1b8 15be
000000a0: f9f7 1cbd d55a a83e 603d 81bc c4c6 bdbe
000000b0: 167f fdbd e086 0dbe d27f c83c 4e95 063e
000000c0: 68a6 c0bd 6759 103e b698 59be 770c 09bf
000000d0: 8f9f 5abe 08d3 0fbf bf61 9fbe ec0c 773d
000000e0: d6ce 8cbe 913f ed3d 4ea4 a4be 97bf 42be
000000f0: 9b07 debe 20ad 353d 80a1 06be ed12 12be

gnn_layers.0.bn.running_var f4 [64]
0.7223175 0.9454188 0.19910397 1.0548853 0.12961814 0.4919365 0.20643044 0.08953208
0.08544286 0.25390342 0.29835853 0.19749324 1.29109 0.32283872 0.31875867 0.048075657
0.022317866 0.05045066 0.4018878 0.0718153 0.01773959 0.28805196 0.8078611 0.31616482
0.12189843 0.46860638 0.40633973 0.171009 0.023589278 0.023419391 0.028173864 0.0016458718
0.18464656 0.0144500015 0.047976367 0.0029497233 0.8696227 0.263034 0.3347625 0.1794042
0.012512086 0.663662 0.0023918708 0.8838792 0.08447995 0.12707013 0.01059583 0.116767704
0.049836818 0.120183036 0.272164 1.6805235 0.31373033 1.9914627 0.58710617 0.02346754
0.47166958 0.09385823 0.6826953 0.2194982 1.0667065 0.02525253 0.10246013 0.15775229
00000000: cde9 383f f706 723f e9e1 4b3e 7b06 873f
00000010: 9eba 043e 1adf fb3e 8062 533e 985c b73d
00000020: abfc ae3d a1ff 813e 73c2 983e ab3b 4a3e
00000030: 7042 a53f 1e4b a53e 5634 a33e fbea 443d
00000040: f5d3 b63c 5aa5 4e3d 3dc4 cd3e e613 933d
00000050: 9e52 913c 8c7b 933e fccf 4e3f 5be0 a13e
00000060: e2a5 f93d 2ded ef3e c30b d03e fc1c 2f3e
00000070: 4d3e c13c 06da bf3c e0cc e63c 4bba d73a
00000080: fd13 3d3e b3bf 6c3c de82 443d 2550 413b
00000090: 989f 5e3f 64ac 863e fe65 ab3e bcb5 373e
000000a0: 7eff 4c3c c1e5 293f efc0 1c3b e845 623f
000000b0: d303 ad3d ac1e 023e 229a 2d3c e823 ef3d
000000c0: b121 4c3d 8622 f63d 1459 8b3e 651b d73f
000000d0: 43a1 a03e 40e8 fe3f 974c 163f 003f c03c
000000e0: ad7e f13e be38 c03d 1fc5 2e3f 23c4 603e
000000f0: d789 883f 65de ce3c 9ed6 d13d d189 213e

out_layer.mlp.0.weight f4 [1, 64]
-0.048007816 -0.0560351 -0.02572814 -0.03873362 -0.06982619 0.06759396 -0.035130937 0.043236487
-0.042852983 -0.038119394 0.09408185 -0.0655675 0.027470833 0.045954432 0.05197733 -0.05459274
0.037882667 0.06642139 -0.04126271 -0.06957241 0.06303716 0.037650738 -0.106576465 0.08032021
-0.022596259 0.035289727 -0.08014761 -0.06361754 -0.047002185 0.059108738 -0.059388116 0.04221475
-0.010758676 0.017890489 -0.048331056 -0.022785774 -0.13484673 -0.059356894 0.11078974 -0.026632847
-0.021201428 -0.049183033 0.03631747 -0.102816015 0.09417173 0.07121865 -0.047206867 0.0099111805
-0.042531453 -0.0577122 -0.06650833 0.028485008 -0.05446454 0.005792878 0.11300515 0.063324034
-0.05374811 0.06868573 -0.084561214 -0.055694215 0.06249053 0.03661142 -0.04691942 -0.03936431
00000000: d8a3 44bd 1085 65bd d2c3 d2bc 25a7 1ebd
00000010: 0901 8fbd b46e 8a3d 75e5 0fbd be18 313d
00000020: 9c86 2fbd 1523 1cbd fcad c03d 4148 86bd
00000030: 830a e13c b73a 3c3d 2ee6 543d a39c 5fbd
00000040: db2a 1b3d f007 883d 1603 29bd fb7b 8ebd
00000050: a019 813d a937 1a3d c344 dabd ec7e a43d
00000060: ca1b b9bc f68b 103d 6e24 a4bd ea49 82bd
00000070: 5d85 40bd 011c 723d f440 73bd 60e9 2c3d
00000080: 2845 30bc 138f 923c c9f6 45bd 3ba9 babc
00000090: 4315 0abe 3720 73bd bbe5 e23d 212d dabc
000000a0: 9eae adbc 2674 49bd a1c1 143d 3491 d2bd
000000b0: 1cdd c03d 15db 913d fd5b 41bd 8162 223c
000000c0: 7635 2ebd a163 6cbd 8535 88bd 6459 e93c
000000d0: 3616 5fbd 2fd2 bd3b 3e6f e73d 08b0 813d
000000e0: fa26 5cbd 1bab 8c3d 6e2e adbd 9e1f 64bd
000000f0: 12f6 7f3d dbf5 153d 942e 40bd 793c 21bd
