pretrained/best_02_16-11_52_07.pt (torch_old, 39860 bytes, 16 tensors)

embedding.weight f4 [79, 64]
00000000: a1bc 89bd 71ac 8ebd 1b21 72be c41e 913d
00000010: 6bfa 303e 9a4b eb3d cac9 a3bd 6cd7 b03d
00000020: 08ef 8f3e a574 4bbd ae4a 033e 03af 3b3d
00000030: 4a39 043e c45a 7cbd e864 20bd 7e4a 3dbe
00000040: b207 c4bc f373 f03d 49d7 6f3d b9e3 b73d
00000050: e72e 9a3d 4f66 cd3d 61e8 193e 8215 72be
00000060: 618a 233d d0e6 163e 2918 5f3e 0514 c0be
00000070: af1c 013d 803f 003e 041f 9e3d 2dcd 8c3d
00000080: a1b6 09bd 46fc 203e 84e2 ec3d bf14 993d
00000090: f223 7abe 6e76 eb3d 2491 cd3d c159 bcbc
000000a0: 3a44 943c e2f7 4a3d 0b68 cebc bc21 003e
000000b0: 20cd fd3d f811 ed3d 851f d5be a1ab 2a3e
000000c0: c19c 8a3b 9e96 4ebe 2a60 8ebd e1d3 91bc
000000d0: 3a57 c63d da41 aabd 6b03 0c3e c081 63bb
000000e0: 61e3 103e a6c7 28b9 a02f 55be c219 0c3e
000000f0: 8e38 0c3e 9651 9ebd fcc5 1f3e 9c4c 9c3c
00000100: 9679 11bd 35ad aa3e c39e 7bbe 3acc 79bf
00000110: b7ac 53bd 6cb6 4dbd bf66 3bbd 9f7c e7bc
00000120: 1331 f53c 2e05 07bc a247 3bbc f7ea a7bd
00000130: 7b38 69be db50 25be c554 e7be 47a4 c4bd
00000140: 72e1 3cbb 89eb f5bc d6d9 acbd a69b c83d
00000150: 053a fbba b406 c03c 5d08 963b 9aec dcbc
00000160: 806e 12bd 2ecc 35bc 2e9f 17be 4623 773e
00000170: 296b 17be 48d1 88bd a3ba 1c3d 967a 93bd
00000180: 0ccd 8e3d b3b6 14bf cbb3 29bb 3edd 4abe
00000190: a436 c03d 2359 77bd 2cc8 28be d97c b53e
000001a0: 4762 ddbd dac8 063d 1756 5fbe 1f9e 49be
000001b0: 6d11 8abb 24b6 49be 759d dc3d aa66 85bd
000001c0: c3cc 563c c1a7 8b3d db0b 9ebf 7548 debe
000001d0: 0741 07bc ee0a 1abd 202e 0ebb 766e 403e
000001e0: ef44 343c de94 46be 6d23 0ebd d7c1 4abc
000001f0: c5ad a8bc 4392 1cbd 8b05 3bbe e54d cdbc
00000200: cc08 cebc ea6c ba3d 821d 5d3c 9929 95bd
00000210: 5457 acbb 5a79 98bb 071a 25be fa1e 03bc
00000220: a800 c93c d5dd 42bc 3095 9e3a b09f 0cbc
00000230: 8acc 57bd 730b 093c 48bc f23c 5924 433d
00000240: 8be6 70bb bcdd 15bb a1b2 883b f48a f1bc
00000250: 5ecb aabc f8d1 ca3b 53b0 7e3b f38c bbbc
00000260: bbe7 df3b cbb1 0ebd 7aef d03c 6614 9cbd
00000270: c505 ba3c cc8f 36bd 4297 143c 71a8 0dbd
00000280: d967 153d 1e75 f0bd 846e 11bb d072 5a3c
00000290: 14db b13c b464 f83a 1feb 32bb 7338 fa3d
000002a0: 61df d63c 4b9d edbb 0536 7aba 759d ecb9
000002b0: 90a1 5bbd 8305 c53c 4153 fb3c 8caf 113b
000002c0: fe4b 93bb d38f 883c 9b04 2fbf 4f68 9ebc
000002d0: 70d1 e8bb 98cf 10bd 4c9b b9bb 1b51 35bd
000002e0: 9df3 41bd d0a6 883c d2a3 5d3c 7d23 5cbb
000002f0: 9074 8bbc d3cc dbbc 64f0 1a3b e32e 75be
00000300: 2244 5fbe b217 943d ef10 233e 0f0b 6dbe
00000310: df73 2e3e 273d ac3d d9fb aabb ef24 a83d
00000320: c95e a33d d39d abbd 821a df3d 4f35 cb3d
00000330: c9ba 613c ed9b b83d 5b98 83bd 61c4 353e
00000340: 7d22 cabd 298f 213e e97e 393e 76ce 0fbd
00000350: 6a82 08be 4cdf 193e 50d9 a9b9 e728 0bbe
00000360: 92ce 953d cc13 753d 9d2d 7cbb 210b 23be
00000370: 695a f63c 69b7 0d3e 522f ba3d ffb3 39be
00000380: b517 9cbd 64f3 183e a41c 153d 9e06 163e
00000390: a6f6 603e 6cb1 9e3d 8b0a 973d fe6c eebc
000003a0: b869 abbd f8da 5c3b 8eea b6bc 365b 2dbd
000003b0: cb97 05be 63ef 81bc 7f75 a9bd a7ff a3bb
000003c0: fa4a 5cbe a46c 7bbd c71f e3bd 042e 793d
000003d0: ecc3 6e3d 9a12 6dbd 7c8a 9cbd 11d3 48bc
000003e0: 5bec 7fba 1ac8 313e 7f62 e73d 99f8 e23c
000003f0: eb42 2e3d a253 3cbe f824 163e b301 043e
-0.06725431 -0.06966484 -0.23645441 0.07085946 0.17283027 0.11489029 -0.079974726 0.086348385
0.28112054 -0.049671788 0.12821457 0.0458212 0.12912479 -0.06161 -0.03915873 -0.18485448
-0.02392945 0.117408656 0.05855492 0.089789815 0.07528477 0.100292794 0.15030052 -0.23641017
0.03992689 0.14736485 0.2178656 -0.37515274 0.031521495 0.12524223 0.077207595 0.06875072
-0.033621434 0.15721235 0.11566642 0.0747466 -0.24427775 0.11497198 0.10037449 -0.022992017
0.01809894 0.049552806 -0.025196096 0.12512869 0.1239264 0.11575693 -0.4162561 0.16667034
0.0042301123 -0.20174643 -0.069519356 -0.017801227 0.09684606 -0.083133414 0.13673179 -0.0034714788
0.14149238 -0.00016096103 -0.20818949 0.13681701 0.13693449 -0.07730405 0.15602869 0.019079499
-0.035516344 0.3333527 -0.24572282 -0.9757725 -0.051678386 -0.0502228 -0.045752283 -0.028257666
0.029930627 -0.008240981 -0.011430653 -0.08199113 -0.22775452 -0.16144125 -0.45181862 -0.09601646
-0.00288209 -0.030019538 -0.084399864 0.097953126 -0.0019167071 0.023440696 0.0045786337 -0.02696829
-0.035749912 -0.0110960435 -0.14806816 0.2413455 -0.14786972 -0.06680542 0.03826393 -0.07201116
0.06972703 -0.58091277 -0.0025894518 -0.1981096 0.09385422 -0.06038774 -0.1648261 0.35446814
-0.108097605 0.03290639 -0.21810184 -0.19689225 -0.004213503 -0.19698387 0.1077222 -0.06513722
0.013110342 0.06819106 -1.2347368 -0.43414655 -0.00825525 -0.03760808 -0.0021694973 0.18792138
0.011002763 -0.19392726 -0.034701753 -0.012375317 -0.020590672 -0.038225424 -0.18263833 -0.025061557
-0.025150679 0.09102805 0.013495805 -0.07283325 -0.0052594338 -0.004653138 -0.1612321 -0.008002991
0.024536446 -0.011893709 0.0012098905 -0.008582994 -0.052685298 0.008364546 0.029630795 0.047642086
-0.0036758508 -0.002286776 0.004171685 -0.029485203 -0.020848926 0.006189581 0.0038862422 -0.022894358
0.0068330443 -0.034837525 0.025504816 -0.07621078 0.02270783 -0.04457073 0.009069266 -0.034584466
0.03647599 -0.11741088 -0.0022191117 0.0133330375 0.02171091 0.001895091 -0.0027300788 0.12217798
0.026229562 -0.007251417 -0.00095447927 -0.00045130742 -0.053620875 0.02405048 0.030679347 0.0022229878
-0.004495143 0.016670143 -0.683664 -0.019336848 -0.007105045 -0.035354227 -0.005664265 -0.0442668
-0.04735147 0.016681105 0.013527827 -0.0033590489 -0.017023355 -0.026831066 0.002364182 -0.23943667
-0.21803334 0.07231082 0.15924428 -0.2314875 0.17036389 0.084101014 -0.005218011 0.082101695
0.07977063 -0.08379712 0.10893728 0.09922277 0.013777443 0.090141155 -0.06425544 0.17750694
-0.09869859 0.15777268 0.18114819 -0.035109006 -0.13330999 0.15026587 -0.00032396102 -0.13589822
0.07314791 0.059833333 -0.0038479336 -0.15922214 0.030072408 0.13839497 0.09091057 -0.1813507
-0.07621709 0.14936596 0.036404267 0.14650962 0.21969089 0.07748684 0.07375058 -0.029104706
-0.083697736 0.0033699851 -0.022328641 -0.042323314 -0.13046186 -0.015861219 -0.08274364 -0.0050048414
-0.21512976 -0.061382905 -0.110900454 0.0608349 0.058292314 -0.057879068 -0.07643601 -0.012257353
-0.0009762698 0.17361489 0.112980835 0.027706431 0.042544287 -0.18391278 0.1466254 0.12891273

bn_outlayer_in.weight f4 [64]
00000000: 501f 8a3f 4ec2 6c3f 7595 7c3f 5281 7c3f
00000010: c32b 813f 2291 7a3f 035d 6c3f f090 833f
00000020: 48ae 5a3f 96ea 7e3f 644c 713f 37ea 823f
00000030: fa4c 6b3f 0ded 713f 401a 823f 41dd 7a3f
00000040: ea2d 6d3f e6f0 6b3f abeb 763f 6847 6a3f
00000050: 8862 6b3f ccb4 6e3f a5eb 763f bf7d 6c3f
00000060: 344e 713f 2aaf 773f 0947 713f 9900 713f
00000070: 53e1 6d3f f7bc 6a3f 5edb 693f f745 803f
00000080: aa46 7a3f 09f3 853f 8c95 703f 3e9a 6d3f
00000090: 8ba3 753f f8de 693f 8f6a 6e3f a1e6 5f3f
000000a0: d4bf 5c3f a06f 733f f342 693f 00e5 6d3f
000000b0: d1b6 7c3f d233 803f 4edd 913f f864 7a3f
000000c0: 0ff1 7e3f d9b4 753f 3bb8 833f 8f7a 753f
000000d0: 348e 743f d38f 823f 9b00 763f 8fe9 6c3f
000000e0: d04a 6b3f b0ac 793f 290d 783f 5370 703f
000000f0: 9c93 833f 5d6c 843f 961e 723f ee01 753f
1.0790806 0.92483985 0.98665553 0.9863483 1.009148 0.97877705 0.92329425 1.0278606
0.8542218 0.995767 0.9425719 1.0227727 0.9191433 0.94502336 1.0164261 0.97993857
0.92648184 0.92164457 0.9645335 0.9151521 0.9194722 0.93244624 0.96453315 0.92379373
0.94259953 0.96751654 0.94249016 0.94141537 0.9292194 0.9169459 0.9135035 1.0021352
0.97764075 1.0464793 0.9397819 0.9281348 0.9595267 0.9135585 0.93131346 0.87461287
0.86230206 0.950922 0.9111778 0.9292755 0.98716456 1.0015814 1.1395662 0.97810316
0.99586576 0.95979077 1.0290598 0.95890135 0.95529485 1.0200142 0.96094674 0.9254388
0.9191103 0.97529125 0.9689508 0.93921393 1.0279422 1.034557 0.9457792 0.9570607

bn_outlayer_in.bias f4 [64]
00000000: 5b85 b0bd 4a86 a5bb fbfe b5bc ef1c a5bd
00000010: dfa5 85be 2323 09be b0b2 3fbe 0a65 aabd
00000020: 44fa d9be 132e 363d 5a67 e3bd ef1d 30bf
00000030: 48be 7cbd 0868 4ebd 849c abbb 7756 b63c
00000040: 301d f5bd 2fa5 abbd 0776 55bd 0582 24be
00000050: 8e73 82bd ff1f e1bd e667 44be 3377 bebd
00000060: 275a a9bd 0d2f a7bd 7170 a6be f49d d3bd
00000070: a5d4 bbbe 3591 2cbd 5e06 24be 69c8 91bc
00000080: f664 c73d 9e8d d8bc d30a f4bd dd2f 00be
00000090: 0672 86be 5b8c 36be 05b1 1cbe c1f7 94be
000000a0: ba14 57bf e4c9 28be 6116 6cbe d04f b6bd
000000b0: 8df4 26be fcbb c6bd 014e fe3b d42a 0cbe
000000c0: c621 13be 9092 823d fb23 f33d 86b8 69bf
000000d0: 4834 e9bd 3f36 26be a067 92bc ccde 02be
000000e0: 68f4 02be d50f a8bd ceae b1bd cb5f dbbd
000000f0: 1108 adbd f09a 3abe 90ac adbd 3ae4 9cbd
-0.086191855 -0.005051409 -0.02221631 -0.08062159 -0.26103112 -0.1339231 -0.18720508 -0.08320053
-0.4257375 0.044477534 -0.11103697 -0.68795675 -0.061704904 -0.05039218 -0.005237164 0.022258027
-0.11968458 -0.08381116 -0.052114513 -0.16065224 -0.063696966 -0.10992431 -0.19180259 -0.09300079
-0.08269148 -0.08163271 -0.3250766 -0.103328615 -0.36685672 -0.042130668 -0.16018054 -0.017795758
0.09736054 -0.026434716 -0.11916127 -0.12518258 -0.26258868 -0.17826979 -0.15301903 -0.2909527
-0.84016 -0.16483265 -0.23055412 -0.08901942 -0.16304226 -0.09703824 0.0077607636 -0.13688213
-0.14368352 0.06375611 0.11872097 -0.91297185 -0.11386925 -0.1623163 -0.017871678 -0.12780303
-0.12788546 -0.08206145 -0.086759195 -0.107116304 -0.08448804 -0.18223166 -0.08480179 -0.07660718

bn_outlayer_in.running_mean f4 [64]
00000000: 198a 14bd 1b9c 953d 003c f33c 4118 d5bb
00000010: ee3b eebc efb7 abbb 2876 7e3a 0aa1 4cbb
00000020: 8a0a 2c3c d0d3 5a3b ff68 96bb d64a 06ba
00000030: 4309 4339 c561 a13c 4ee4 27bd 4f3c 9dbc
00000040: eaad 99bb 21d5 cd3a c619 533c 98cb adbb
00000050: e622 f4ba 3c23 723b fa21 fe3a f20f c73b
00000060: 0438 d03a dfdd 38bb 1ca7 94bb c637 7aba
00000070: 172b db3b fd38 403c feda 903b a125 3c39
00000080: aff9 b4bc a664 243c 0f41 84bb 6d85 3b3c
00000090: 7051 0fb9 e588 7d3c 3d00 0bbc 4028 05ba
000000a0: 9c3d d23b 970b 44bc d7aa 9e3b 3532 92bb
000000b0: dc81 30bc 7de5 df3c 1e8b 53bd 3bf5 53bb
000000c0: 043f abbb 8026 3bbc 442f c3bc 74f5 b13a
000000d0: 5c9e 96bb e6f5 1abd 75d6 92b9 9462 6f3b
000000e0: 4ad2 85ba d175 e53c 22ef b63c ddcd 81bb
000000f0: 1d6d 4abb 1a9c 1ebd 429c 3a3c 5efa 94bc
-0.036264513 0.073051654 0.029691696 -0.0065031354 -0.029081311 -0.0052404325 0.00097069377 -0.0031223916
0.01050056 0.003339041 -0.004590153 -0.0005122846 0.000186001 0.01969994 -0.040989213 -0.019193796
-0.0046899216 0.0015703776 0.012884563 -0.0053038113 -0.0018626123 0.003694727 0.0019388788 0.006074899
0.0015885835 -0.0028208417 -0.0045365226 -0.0009545054 0.0066884863 0.011732337 0.004420637 0.00017943095
-0.022091715 0.010033762 -0.004036076 0.011445385 -0.0001366788 0.015474533 -0.0084839435 -0.0005079545
0.006416036 -0.011965654 0.004842143 -0.0044615516 -0.010773148 0.027331108 -0.051646344 -0.0032342214
-0.005226018 -0.011422753 -0.023826249 0.0013577179 -0.0045965146 -0.037832163 -0.00028007073 0.0036527263
-0.0010209766 0.02801028 0.022330824 -0.0039613084 -0.003088779 -0.03872309 0.011389794 -0.01818579

bn_outlayer_in.running_var f4 [64]
00000000: 767d 323b 28b7 723c 0127 2f3c 38a0 653c
00000010: 8e87 6b3c 5aaf 203b 1c76 f53b 9ec6 133b
00000020: 7d15 223a 44e2 1b3b 421a 863b 67fd fc38
00000030: 12e2 d43b 52b0 9d3b 1947 903c 2f26 2c3c
00000040: 0a85 c63a c685 993b f1b7 493c 9e3e 093c
00000050: 1ce6 b43a e43e fa3b 51af aa39 4b34 b73b
00000060: 6dc3 033b e3cc b53a b461 6839 24ff 203c
00000070: 56d7 653b 97c7 9a3b e23e 223b a4ef 8f3b
00000080: ea7f 243b 645a e43c 6d05 743a c8ba 833b
00000090: 8b61 953c 0bac bf3b a96b 293b e897 b33b
000000a0: b1f6 9e3a 8ebe 253c 9862 443b 01fd 533b
000000b0: 7da8 813b 0682 063c d7df 723c b468 253a
000000c0: c614 1f3a 8ba7 e43a a066 133c cd21 e83a
000000d0: 1616 c93a 2333 e23a 2716 103a df51 8339
000000e0: 6c96 a739 7134 3c3c 33f3 d23b bcda 9f3a
000000f0: e58f 8b3a 8fb0 163b 7a5f ec3b b5f8 bc3b
0.0027235425 0.014814176 0.010690452 0.01401525 0.0143755805 0.002451858 0.0074908864 0.0022548805
0.00061830116 0.0023785988 0.0040924856 0.00012063496 0.0064966762 0.004812279 0.017612027 0.010507151
0.001514585 0.0046851365 0.012311921 0.0083767455 0.0013801488 0.0076368917 0.00032555548 0.0055909506
0.0020105497 0.0013870265 0.00022161641 0.009826455 0.0035070977 0.0047235 0.002475672 0.004392581
0.0025100657 0.027875133 0.000930867 0.004020069 0.018234989 0.0058493665 0.0025851524 0.005480755
0.0012127963 0.010116233 0.0029965993 0.0032346847 0.003956853 0.008209711 0.014823875 0.00063098525
0.0006068464 0.0017444951 0.008996636 0.0017710269 0.0015341665 0.0017257672 0.0005496465 0.00025047266
0.00031964795 0.011487112 0.006437683 0.0012195925 0.0010647742 0.002299342 0.00721353 0.005766953

gnn_layers.0.gnn.att_i f4 [1, 1, 64]
00000000: 1450 bbbe 3f92 333d f274 093e b291 ff3d
00000010: 1018 16bf 411a 713d 00a0 e43e 5d74 283d
00000020: 5477 fb3d df46 3ebf 5cd4 713e 6947 e33e
00000030: 164e 7fbe fde3 823e dcac 073e c754 b13c
00000040: 1135 993c 9dc7 a93e b50c fbbe ea63 3fbe
00000050: e97d 14be af1a 8b3e 2402 a0be 15ef af3e
00000060: cfcc 70be e9b5 aa3e b489 a5be 5a35 9abd
00000070: 18ba 173e 7706 1a3f f7f9 3dbe 12f4 6fbe
00000080: 90f9 c8be a7aa f73e 8e0f 503e 80df d2bb
00000090: 3d0c 5f3e 4a6a 12be a9d8 39bc ee81 82bd
000000a0: 984a a8be 7e97 0f3b e3f9 583f e0a8 61be
000000b0: db02 5d3e c0a8 173e 099a 18bf 0027 76be
000000c0: b3fa 04bf c5ac e0bb 509d ce3e 72b3 7c3e
000000d0: b7f4 a0be 9e70 e6bc 0184 33be e7aa 62be
000000e0: 9cd7 703e 3428 613e c0dd 2f3d d108 15be
000000f0: 2263 083d 01b2 c1be 786b c53d cb71 9fbe
-0.36584532 0.043840643 0.13423517 0.12478961 -0.58630466 0.05886293 0.4465332 0.041126598
0.122786194 -0.7432689 0.23616165 0.4439042 -0.24932131 0.25564566 0.13249534 0.02164687
0.018702062 0.33160105 -0.49033132 -0.18690458 -0.14501156 0.27168795 -0.31251633 0.34362093
-0.23515628 0.3334191 -0.32331622 -0.07529707 0.14817083 0.60166115 -0.18552385 -0.23432949
-0.392529 0.48372385 0.20318434 -0.0064353347 0.21782012 -0.14298359 -0.01134316 -0.06372438
-0.3286941 0.0021910365 0.84756297 -0.22037077 0.2158312 0.14810467 -0.5961004 -0.24038315
-0.51945037 -0.0068565332 0.40354395 0.24677828 -0.31436703 -0.028129872 -0.17530824 -0.22135507
0.23519748 0.21987993 0.042936087 -0.14554144 0.033297665 -0.3783112 0.09639639 -0.31141505

gnn_layers.0.gnn.att_j f4 [1, 1, 64]
00000000: 7704 d3bd 5660 74be eff9 ab3d 3eb5 e3bd
00000010: 8310 493c 9d4d 28be 330f a03d 4d32 58be
00000020: 1f36 5bbe c5e6 55be 803b 383e c8c0 0b3e
00000030: 3780 05be 0dae 79bc 02cc 4c3e 8c88 693d
00000040: 7520 683e 71a3 d8bc c51e 16bc dc01 243e
00000050: 1fb7 cabb 1c2d 5fbe 8d8f 9cbd e113 303e
00000060: 2c07 b43d 2be8 99bc 277d 6ebe dd18 283e
00000070: b12f e23b d49a 233b 62de 383e 70e1 a73d
00000080: 479a 0b3d 2c18 a33d cbf2 d53b 5962 b8ba
00000090: dcfa 09be 4368 ca3d c4de fe3d dedc f23d
000000a0: 6186 f9bd d6a4 143d 27e5 9c3d 1b1c 28be
000000b0: 8018 203d 1ba8 133e e707 b23b 6c5c 09be
000000c0: 0c95 5a3e 8d6f 0ebe c48d ee3d f8df 0a3b
000000d0: a790 4c3d 7761 bc3d 8d31 79be 0b9f 3e3d
000000e0: ee4e 9b3b 18b4 49be 35fe 163e 3df2 27bb
000000f0: d00f 94bd 7df8 aabc a24f 1a3e 99ba 8bbd
-0.10303586 -0.23864874 0.083972804 -0.111185536 0.012272003 -0.16435857 0.07815399 -0.21112938
-0.21407364 -0.20888813 0.17991447 0.13647759 -0.13037191 -0.015239251 0.19999698 0.057014987
0.22668631 -0.026445122 -0.009162609 0.16016334 -0.0061863805 -0.21794552 -0.07644568 0.17195083
0.087904304 -0.018787464 -0.2328993 0.16415735 0.006902658 0.002496411 0.18053582 0.08197296
0.034082677 0.07963595 0.0065291873 -0.0014067396 -0.13474602 0.098831676 0.12444833 0.11858533
-0.12183834 0.036290012 0.07660895 -0.16416971 0.039085865 0.14419596 0.005433071 -0.13414162
0.2134592 -0.13909741 0.116481334 0.0021190625 0.04994264 0.091982774 -0.24335308 0.046538394
0.0047396338 -0.19697607 0.1474541 -0.0025626563 -0.072295785 -0.020870442 0.1506944 -0.068227

gnn_layers.0.gnn.att_em_i f4 [1, 1, 64]
00000000: 20b0 6b3f e03e e83d eeec 48bf 6aba e03e
00000010: 5d1e abbd 6698 963e 63a6 a83e cc25 dabd
00000020: 1629 623e cb56 54be 961d 22bf ddc8 783e
00000030: edbc 403b adca 29bf db07 4b3f 898c 8dbe
00000040: 1379 623e 9a1c 423d 6d55 46be f3af 193f
00000050: 0de0 d8be 0591 e5be e134 ca3e c5bc 3fbc
00000060: 088a 38bf bca6 ddbd 363a 29bd fa37 313e
00000070: 88ef 4bbe 01b4 02bf e90a 01bf 02a0 e33e
00000080: 7266 6a3e 63b5 e93e 8095 d73d 0471 22bf
00000090: 4aca 1ebf 0321 d4be dd51 c2be 30ec 2ebe
000000a0: a2f8 33bf 050c 0d3f 3ecd 82bd d363 28bf
000000b0: e299 6e3f b3e2 c9be f372 503f b83b a93c
000000c0: 478a 453f 972c e03e 5981 d83e 19d4 d03e
000000d0: 34e0 a53d a55a 283f 56b3 bdbe f88b 08be
000000e0: 2a1b ad3e a584 2cbf b6d7 1dbf 0d41 f7bc
000000f0: 6861 afbd 3866 403f 767e 83be a03d 873f
0.9206562 0.113401175 -0.78486526 0.43892223 -0.08355401 0.29413146 0.32939443 -0.106517404
0.22085986 -0.20736234 -0.63326395 0.24295373 0.0029409484 -0.66324884 0.7930886 -0.27646282
0.22116499 0.047390558 -0.19368525 0.600341 -0.42358437 -0.44837204 0.39493468 -0.011702721
-0.7208562 -0.10822818 -0.04131528 0.1730651 -0.19915593 -0.51055914 -0.5040727 0.44458014
0.22890642 0.456462 0.10526562 -0.634537 -0.6202742 -0.41431436 -0.37953082 -0.17082286
-0.7030126 0.55096465 -0.06386803 -0.6577732 0.93203557 -0.3943077 0.814254 0.020658359
0.7716412 0.4378402 0.42286184 0.40786818 0.08099404 0.6576331 -0.37050885 -0.13334644
0.33809787 -0.673899 -0.61657274 -0.030182386 -0.08563501 0.75155973 -0.2568242 1.0565681

gnn_layers.0.gnn.att_em_j f4 [1, 1, 64]
00000000: aed5 3a3c 7ef2 80bf 4cd9 333f ce60 4a3f
00000010: dc52 413f eb75 eb3e aab3 123f 8b59 cd3e
00000020: aed5 77bd caba afbe e7b3 053f bdb8 e53e
00000030: fe42 2a3f 2bd9 c53e 86d5 293f b144 e7be
00000040: 666c d33e 2ddd 0b3f cbcd 393f 1efb c3be
00000050: 5864 99be 0bec c5be 8b5f 9dbe dde0 063f
00000060: 2f51 143f be7b b13e 3d20 0e3f cb11 21bf
00000070: 4125 053f 9687 073f 77ae 1abe 1fdf 383f
00000080: e4bd 96be 9cad 2a3f 6922 a63e 46ef f13e
00000090: 4063 0abf 7ac8 eb3e 4ef9 e23e b4c4 26bf
000000a0: 7bb3 d53e 2f76 c43e b383 fd3e ea19 f53e
000000b0: fa33 49be 4d24 1c3f a9b8 96be 5c0a cb3e
000000c0: 2db4 113f 24b7 f93e fe20 7b3f 5f9d e23e
000000d0: c3d5 de3e 6ee8 fa3e 31d0 09be df8e 1dbf
000000e0: b146 66be 06ce 173f 8697 ed3e 7e0e d63e
000000f0: 7157 bb3e 980c 133f 3ec0 153f 594d 963d
0.011403484 -1.0074003 0.70253444 0.7905396 0.7551706 0.45988402 0.57305396 0.40107378
-0.060506515 -0.34322196 0.52227634 0.44867507 0.6650847 0.3864225 0.66341436 -0.45169595
0.4129364 0.5463436 0.7257964 -0.38277525 -0.2995937 -0.3865665 -0.30736956 0.52686864
0.57936376 0.3466472 0.5551794 -0.62917775 0.5200997 0.5294126 -0.15105616 0.72215456
-0.2944175 0.66671157 0.32448128 0.47252864 -0.54057693 0.4605139 0.4433083 -0.65143895
0.41738495 0.38371417 0.4951454 0.47871333 -0.19648734 0.6099289 -0.2943776 0.3965634
0.5691555 0.48772538 0.9809722 0.4426069 0.43522462 0.49005455 -0.13458325 -0.6154613
-0.22487904 0.5929874 0.46404666 0.41807932 0.3659015 0.5744109 0.58496463 0.07338972

gnn_layers.0.gnn.bias f4 [64]
00000000: 3343 283c 8630 0939 ca46 5eb6 7694 5138
00000010: 0dbe bb3c 106d a2ba 7eff 313b bfe9 fd3a
00000020: ccf6 d239 0555 c2bb cd4d d13b 2d55 573a
00000030: 4efe 0cbb 2608 4ebb c8c7 163b 6021 f63a
00000040: b297 ffbb 7b75 7dba d079 9739 2804 893a
00000050: f75f a4bc 5bc7 52bb 307a c83a 1d2b 3a3a
00000060: 472a 6c3b dfce 73bb 7f65 58b7 0329 57ba
00000070: 99f6 81bb d9c4 61bb 761b d0ba 527a ef3a
00000080: 0797 883b cce4 533b dea2 33bb e274 5bb7
00000090: fc01 18b8 25ed 9f3b 7c03 62bc 9398 18b9
000000a0: 697f 4f3b ef70 873a 8bdb 97bb 61a4 4dbb
000000b0: d8fc bbba 89ff f13a f083 c03a 2f8a 223a
000000c0: af27 363b f146 b83b 543e 83ba 21c4 633c
000000d0: 786d d1bc b913 f1bc a07b c63b 2391 2abb
000000e0: 1de1 3839 4316 cd3a 3d02 5c3b f82d 4c3c
000000f0: d80e 12bc 6773 bd3b 13b5 283b 39bf 98ba
0.010269928 0.00013083415 -3.3121783e-06 4.9967748e-05 0.022917772 -0.0012392122 0.0027160342 0.001937203
0.000402382 -0.0059305453 0.0063874484 0.00082142913 -0.0021513882 -0.0031437962 0.0023007262 0.0018778257
-0.007800066 -0.000966869 0.00028891722 0.0010453509 -0.02006529 -0.0032162282 0.0015295204 0.00071017613
0.0036035941 -0.0037202162 -1.2898235e-05 -0.00082077103 -0.0039661643 -0.0034449606 -0.0015877325 0.0018270707
0.0041683945 0.0032332418 -0.0027410309 -1.3080631e-05 -3.6241472e-05 0.0048805648 -0.013794776 -0.00014552688
0.0031661636 0.001033334 -0.004634326 -0.0031378495 -0.0014342321 0.0018462996 0.0014687758 0.00062004005
0.002779465 0.0056236912 -0.0010013082 0.013901741 -0.025564894 -0.02942835 0.0060572177 -0.002602645
0.00017631469 0.0015646893 0.003357067 0.012462132 -0.008914672 0.0057815793 0.0025742694 -0.0011653668

gnn_layers.0.gnn.lin.weight f4 [64, 50]
00000000: de43 52be 765c 9d3d 7e7f 113e ba53 0ebd
00000010: b3cc 98bc f9a6 49bd ff53 7f3d f8c9 f23c
00000020: b076 03be b881 923d 1568 7cbc 88e1 b13d
00000030: ed54 983d de42 30be d222 233e 692f 9a3c
00000040: f76b 23be 7941 2b3e 91cb efbd dfdb 5abd
00000050: 8cec 493d 5f61 053e b1c5 d839 d2e7 2cbe
00000060: f2bc cbbd e5ef ca3d ef4d dabd a770 523b
00000070: a7dc 183e e18d 03be ddb8 00be 0aeb 54bd
00000080: adb2 cabc c286 efbd 37b7 323e 9767 30be
00000090: 9d64 c73d 1ce9 4f3d 0ce4 223e 7ab0 5fbe
000000a0: e748 273e e7be 153c b058 b1bd 1dfd 59bd
000000b0: e45a bb3d c966 193e da75 7cbd 88b9 e23d
000000c0: 7f09 133e 9d00 2a3f 1804 8b3c 8700 26bd
000000d0: 0deb fe3d 3b9d 2f3e 92e8 0b3e 6b4e a5bd
000000e0: 5fe9 8abb d508 ff3c 5cc5 0abe 1f33 453e
000000f0: 3a68 eb3d 5729 f63d 12b4 413e 0ef5 abbc
00000100: 6e13 293e 5817 d8bc c859 423e b62a f8bd
00000110: e9bd 56be 9994 e23d e486 923d 6cb2 46be
00000120: b4e3 5c3d cc52 75bd e8cf ef3d 9652 4e3e
00000130: d6ea 203e de53 d53b 7cff 9a3d 3849 64be
00000140: 4a7b 3fbc 1ba8 693d ec49 bc3d 3a30 bc3d
00000150: bbad 283e c591 71bc eda6 7e3d bb9b 66be
00000160: d1e0 e4bd 6e87 b43d 55bf 0b3d 88b9 d73d
00000170: 9f36 633d dd01 8abe 0130 0c3d 6d3d 8dbd
00000180: d67f 95bd 44db 25bd 6921 3c3e 8833 263e
00000190: 7cfd e23c 429a 0ebe aef2 9a3c 5a94 383d
000001a0: 2655 083e c973 36bc a71a 3fbe 4bf6 f03d
000001b0: 342f 29be 221e 3a3c ba11 d03d b6cf 8d3a
000001c0: c41c f43d a742 0b3e 3022 82be db6f 67bb
000001d0: 8ae7 ec3d 29b3 a93c 805c 59bd 097d 643e
000001e0: ed35 67bd 934b fbbd 7ba4 9bbd 8758 f4bc
000001f0: 6857 6d3d d270 3d3e 2785 d03c a544 21be
00000200: 4c06 5d3e ccef 163d 2407 58bd e57c 633c
00000210: 511d bd3d cb1b 0cbd b026 3e3d aded 853d
00000220: cdb0 3cbe 66c2 363e ca99 073e 8982 d8b7
00000230: af1c 453e 89e7 bcbd 676b 17bd 2706 1e3e
00000240: eddc 08be 7dc6 d3bd 8cb7 64be f2bd c0bd
00000250: 3099 5ebe d8bd f3be 2ce0 c1bc d307 4b3e
00000260: 2928 a33d c1e6 6fbe e806 09be 13bb b2bc
00000270: c06c a53d cffd 0a3e 5693 5f3e 356b 13be
00000280: a2a1 6e3e a4e0 403e 7c1a 49be b93a 24be
00000290: 325f 34be 5027 2c3c f7d3 0cbd d078 46be
000002a0: b157 0bbd f4d2 133e fcc8 f4bb a21d 0fbe
000002b0: 83d3 39be 83e7 a93d 86bf cb3d 5bcb cbbd
000002c0: ada9 4ebe aea0 da3d 0ecb 18be f3b8 4fbe
000002d0: 1d9c 3d3e b4cb b83d de58 57bd 6751 743d
000002e0: d249 513e 9981 65be a698 54bd c970 a0bd
000002f0: badb 6bbe 4694 2c3e 8cc8 88be 9ab6 bcbd
00000300: 68aa a63d c7e3 0e3e 0f35 c0bd b9b5 3c3e
00000310: 1b79 06bd dcec 5cbe 8759 5fbe ceef 81be
00000320: ddaf 9abc 21f6 1e3e af6a d5bd c0d1 82bd
00000330: be11 e53d 924a 76bc 3bd3 1e3d 0420 9c3c
00000340: d6d7 f1bc f716 dabd 1d38 1a3e e801 10be
00000350: 33ca 223d 73e4 ea36 d6c4 313c 6839 723c
00000360: 0347 00bc c66c b7bd b2f7 f23b c67f 69bc
00000370: 55df de3c e376 143d 1281 963d d469 cebc
00000380: 0f64 77bd 61f8 af3c fadb 143d 045d 94bd
00000390: 858f c63d eaa3 2d3c a153 eabd 2841 f03d
000003a0: 90df b4bd c85f abbd ce16 683e 520a bdbd
000003b0: 5f3a 823a 5756 55be 26c6 103d 1e68 843d
000003c0: 1771 ef3d b9e9 59bd 7b11 febd 2992 563e
000003d0: cf15 09bd 5780 c13d f941 37be a8b5 55be
000003e0: 936e bfbe 5a8a 3d3f ab07 59bc b974 183c
000003f0: 001d efbd 5f8f 373e e9ae 61be d591 6dbd
-0.20533702 0.07683651 0.1420879 -0.034747817 -0.018652296 -0.049231503 0.062335964 0.029637322
-0.12838244 0.07153648 -0.015405674 0.08685595 0.07438073 -0.17213008 0.15931252 0.018821435
-0.15959154 0.16724195 -0.11708749 -0.05343234 0.049297854 0.13025425 0.00041346022 -0.16885307
-0.09948148 0.099090375 -0.10659396 0.0032110603 0.14927922 -0.12847091 -0.1257052 -0.051981963
-0.024743402 -0.11695625 0.17452703 -0.17227016 0.09735987 0.05075942 0.15907305 -0.21844664
0.16336404 0.009139753 -0.08659494 -0.053219903 0.091481954 0.14980616 -0.06163583 0.110705435
0.14359091 0.66407186 0.016969725 -0.040527847 0.12447176 0.17149822 0.13662937 -0.08071598
-0.004239246 0.031132141 -0.13551849 0.19257782 0.11494489 0.12019604 0.18916348 -0.020990875
0.16511318 -0.026378319 0.18979561 -0.121175215 -0.20970882 0.11063499 0.071546346 -0.19404
0.053928092 -0.059893414 0.11709577 0.20148692 0.15714583 0.006510242 0.07568261 -0.22293556
-0.011687109 0.057045083 0.09193787 0.09188886 0.16472523 -0.014744227 0.06217091 -0.22520344
-0.11175693 0.08814894 0.034118015 0.10533434 0.055472013 -0.26954547 0.034225468 -0.06896482
-0.072997734 -0.04049231 0.1837212 0.16230595 0.027708761 -0.13926032 0.018914547 0.045063354
0.13313732 -0.011136004 -0.18662511 0.11765727 -0.16521913 0.011359723 0.10159631 0.0010819349
0.11919549 0.13599645 -0.25416708 -0.0035314474 0.115676 0.020715313 -0.05306673 0.22313322
-0.056447912 -0.12270274 -0.075997315 -0.02982737 0.057944685 0.18500069 0.025454117 -0.15748842
0.21584433 0.036849782 -0.052741185 0.013884758 0.09234107 -0.034206193 0.046423614 0.06539474
-0.18426819 0.17847595 0.1324226 -2.5809992e-05 0.19249223 -0.09223849 -0.03696766 0.15432034
-0.13365526 -0.10340593 -0.22335643 -0.09411229 -0.21738124 -0.47605777 -0.023666464 0.19827203
0.07966644 -0.2342787 -0.13381541 -0.02181772 0.08077383 0.13573383 0.21833548 -0.14396365
0.23303846 0.18835694 -0.19639009 -0.16038026 -0.17614439 0.01050742 -0.034381833 -0.19382024
-0.034019176 0.14435941 -0.0074702483 -0.13976148 -0.18147092 0.082961105 0.099486396 -0.09950896
-0.20181914 0.106751785 -0.14921209 -0.20285396 0.18516584 0.09023228 -0.052574985 0.059647944
0.20438316 -0.22412719 -0.05190339 -0.07834012 -0.23033038 0.16853437 -0.26715505 -0.09214516
0.08137971 0.13954078 -0.0938512 0.18428697 -0.03283034 -0.2157473 -0.21811496 -0.2537827
-0.018882686 0.15523578 -0.10420739 -0.06387663 0.11185025 -0.015032427 0.038775664 0.019058235
-0.029521864 -0.106489114 0.15060468 -0.14063227 0.039743613 7.0003384e-06 0.010850152 0.0147841945
-0.0078294305 -0.08956294 0.0074147815 -0.014251655 0.027206102 0.03624619 0.07348837 -0.025196947
-0.060398158 0.021480741 0.0363426 -0.07244304 0.09695343 0.010598162 -0.11441732 0.117311776
-0.08831704 -0.08367878 0.2266495 -0.09230484 0.0009935609 -0.20833717 0.03534522 0.06465171
0.11691492 -0.05320141 -0.12405678 0.20954193 -0.033468064 0.09448307 -0.1789626 -0.20870078
-0.3738905 0.7403923 -0.013246457 0.009305173 -0.11675453 0.17925785 -0.22039379 -0.058000404

gnn_layers.0.bn.weight f4 [64]
00000000: 0593 023f 3d8f ad3e bdb2 513f e2e6 3e3f
00000010: 9116 033f 654b d83e af50 643f 9d8d dd3e
00000020: f8ea 3e3f e342 c83e 33b1 973e 29cd 5a3e
00000030: be40 443f 63d0 613f 6b0c 483f 5840 053f
00000040: acfe dd3e 0c11 1d3f 7778 5f3f f1ad 183f
00000050: cea2 c33e 5135 443f 737f 2c3f ad29 423f
00000060: 77fc 113f 595f f03e 45ed 0f3f 305d 80be
00000070: 381b b03e efd3 4f3f f8f9 253f 1986 053f
00000080: 3ee3 193f 1abf 593f e5f7 0e3f c9b0 3a3f
00000090: 53c4 563f 5b72 683f 9e59 cb3e 39d8 6c3f
000000a0: b037 063f e2a8 463f 93e0 3c3f efaf b13e
000000b0: 6f68 0a3f ddb2 483f 54f1 6b3f 6535 323f
000000c0: 969f e83e 9f63 ec3e 48ac 233f ae5d fd3e
000000d0: 24ea cd3e 351b b13e 635b 093f 1dca 063f
000000e0: 0a59 ed3e c1e7 573f b0ce 503f 05a4 013f
000000f0: d1f6 143f eee6 f33e a63a 4e3f 404d ad3e
0.51005584 0.33898345 0.8191336 0.7457105 0.5120631 0.4224502 0.89185613 0.43272105
0.74577284 0.3911353 0.2962738 0.21367325 0.7666129 0.882086 0.7814395 0.52051306
0.43358362 0.61354136 0.8729319 0.59640414 0.38210148 0.76643854 0.6738197 0.7584484
0.57025856 0.46947744 0.5622142 -0.25071096 0.34395766 0.8118276 0.6483455 0.5215774
0.6011237 0.8505722 0.5584701 0.72926 0.83893317 0.9079949 0.3971681 0.9251743
0.5242872 0.77601445 0.73780173 0.3470454 0.54065603 0.78397924 0.9216511 0.69612724
0.45434254 0.46169755 0.63934755 0.49485534 0.40217698 0.3459107 0.5365507 0.5265215
0.46356994 0.84338003 0.8156538 0.506409 0.5818911 0.47637123 0.8055824 0.33848

gnn_layers.0.bn.bias f4 [64]
00000000: da02 a13e 0cef 8d3e 2678 fa3d f25c 0bbe
00000010: ddb5 a13e 0822 d93e 2615 bb3d ffc2 f23e
00000020: 5361 df3d c6a5 ed3e 75fb bf3e 601b dbbe
00000030: 4dfd e93d 765e 8ebd eef3 e5bd a8ea b83e
00000040: d702 af3e 0a2d 513e a824 b03c 5b8f 473e
00000050: 36cd ba3e 27a5 fd3d 2f22 5e3e 3eff 133e
00000060: 958f 6dbe e9f4 c33e 40f7 7fbe 3619 bc3e
00000070: 5191 c93e d8ee c73d a643 48be 2099 7dbe
00000080: 31a6 e0bd 6fdc 653d f2dc 8c3e 8e0e 1abe
00000090: 4944 c73d 0a56 353c dba9 c33e 5c0b 02bd
000000a0: 77f3 83be f935 1c3e 4f82 183e d295 d23e
000000b0: 5a3e 8f3e 2a02 233e a80d bcbd 4d5d 573e
000000c0: 1ebe 99be 76b5 48be bbd2 47be 9349 a6be
000000d0: 37d5 bc3e 937b ca3e f714 8e3e 16aa 83be
000000e0: 302b 9abe 9e92 923d d2b7 c13d 1542 9b3e
000000f0: f550 b53e 19d5 933e 053d da3d 836a b63e
0.31447488 0.2772144 0.12229948 -0.13609675 0.31584063 0.42408776 0.09134893 0.47414395
0.10907235 0.46415538 0.37496534 -0.42794323 0.114252664 -0.06951611 -0.112281665 0.3611653
0.34181854 0.20427337 0.021501854 0.1948828 0.3648469 0.12385016 0.21692728 0.14452836
-0.23199303 0.3827279 -0.24996662 0.36737984 0.3936868 0.09762353 -0.19557056 -0.24765444
-0.109691985 0.056118425 0.27512318 -0.15044615 0.09729821 0.011067877 0.38215527 -0.031749114
-0.25771686 0.15254964 0.14893459 0.4112993 0.27977258 0.15918794 -0.09182292 0.21031685
-0.3002786 -0.19600472 -0.19513981 -0.32478008 0.3688142 0.39547405 0.2775037 -0.25715703
-0.30111074 0.07156871 0.09458889 0.30323854 0.35413328 0.28873518 0.1065617 0.35628137

gnn_layers.0.bn.running_mean f4 [64]
00000000: 93b3 89be a8da c6be b442 413e 46eb ec3e
00000010: 38a9 2dbd 2136 d3be f910 603d 3cb2 e1be
00000020: e8f9 01bf 5d1a 70bd 8d9c fdbd 9da1 d63e
00000030: 218e 3f3d 3afb 4c3e a8a5 c13e e252 123d
00000040: 79a9 acbe 1d5b 2f3e 5890 d83e 0e94 903e
00000050: 9c20 8ebd d4e4 c83e 9bd9 fcbe 9e1f 853e
00000060: 873c 8a3e 9d17 a4be 7b4d dbbe ae2a a8be
00000070: 426d be3d c78e 483e 1238 8f3e c7cb 623e
00000080: 1622 9f3e e9a9 403e 20ee c2be 600d 593e
00000090: 6a7f 7f3f d50b 153e ff5b aebe 9fb9 273a
000000a0: 82bf 303e 7ada b1bd 0d78 3c3d 5eb1 37be
000000b0: fe7e c8be 4141 a93e bbe5 0c3f 42b4 17bf
000000c0: 0c6a e4be f715 aa3e 8e2c 473e 667b eb3e
000000d0: 7797 e5be 1921 b0be cd4a b4be 8c27 f5be
000000e0: a07d d5bc ba2c 673e 1681 623e 1cc8 8bbe
000000f0: e61b 85be 65bf 87be 9bbf 4f3e f9dd a33e
-0.26894817 -0.38838696 0.18873101 0.4627325 -0.042397708 -0.41252235 0.054703686 -0.44081295
-0.5077195 -0.058618892 -0.12383375 0.41920176 0.046766404 0.2001771 0.37821698 0.035723574
-0.33723047 0.171246 0.42297626 0.28237957 -0.069398135 0.39237082 -0.4938477 0.26000684
0.26999304 -0.32049266 -0.4283255 -0.32845062 0.09298183 0.19585715 0.27972466 0.22148047
0.31080693 0.18814816 -0.380723 0.21196508 0.99803793 0.14555295 -0.34054562 0.0006398204
0.17260554 -0.08684249 0.046012927 -0.17938754 -0.39159387 0.33057597 0.5503804 -0.59259427
-0.44612157 0.33219883 0.1945059 0.45992583 -0.4484212 -0.34400252 -0.35213318 -0.47881734
-0.02606088 0.22575656 0.22119555 -0.2730111 -0.25997847 -0.2651321 0.20287935 0.3200529

gnn_layers.0.bn.running_var f4 [64]
00000000: 4010 3d3e 3fd0 d03e 0afd e63d d244 eb3e
00000010: 87f8 8f3c 2a26 bc3e c5a8 8d3c a7bd e03e
00000020: 59a3 103f 03be 553c d270 4b3d 88d4 c53e
00000030: f13a 383d 7219 b33d bd66 a03e c4b8 193e
00000040: 83fa 773e 2ad4 0d3e 9ab7 d63e 8f6b 733e
00000050: 0133 9b3c a704 ca3e 1c78 0d3f e221 1e3e
00000060: 6f2c 8a3e 00de 903e 2822 d53e ef49 813e
00000070: 12aa d93d 6ad1 f33d 9869 3e3e 8af3 023e
00000080: 7853 763e 7897 c23d a6b2 b63e 8a46 f83d
00000090: 7eb2 0f40 ad2f 693d b29d 6d3e 863e c43d
000000a0: 0312 a43d d13e e03d 6b36 913c 3241 fc3d
000000b0: 8055 ac3e 8f13 8b3e f490 353f 50ef 433f
000000c0: bf44 fb3e 62fa 7d3e 75df b03d 27f4 e83e
000000d0: 2b29 d03e 5eb4 593e bf6b 923e 3e26 ff3e
000000e0: aa08 863c 860a 033e a021 e93d 4be4 673e
000000f0: 088e 223e 0c34 393e 3c21 d43d a9ec a33e
0.1846323 0.4078388 0.11278732 0.45950943 0.017574562 0.36747867 0.01729239 0.43894693
0.5649925 0.013045791 0.04966814 0.3863871 0.044978086 0.08745088 0.31328383 0.15011889
0.24216656 0.13850465 0.41936952 0.23771499 0.018945219 0.39456674 0.552614 0.15442613
0.26987025 0.28294373 0.41627622 0.2525172 0.106281415 0.11905177 0.18594968 0.12788215
0.24055278 0.095015466 0.35683173 0.12122829 2.2452693 0.056930233 0.23204687 0.09582238
0.08011248 0.10949481 0.017726144 0.123171225 0.3365898 0.2716336 0.70924306 0.76537037
0.49075887 0.24802545 0.08636371 0.45498773 0.4065641 0.21260211 0.2859783 0.49833864
0.016361553 0.12796983 0.113833666 0.2264568 0.15874493 0.1808626 0.103579015 0.32016495

out_layer.mlp.0.weight f4 [1, 64]
00000000: 0cc0 0fbe 9039 71bc 34c1 1dbd 25f0 4cbd
00000010: 1134 ab3d 3265 823d 1aaf 38bd c96b 603d
00000020: 037d 863d f19b 093d 8460 853d 2982 1a3e
00000030: 3056 16bd 3b6a 16bd 8527 df3d de85 303d
00000040: 41cb 903d 3b64 3dbd b068 3dbd 9f8a 0cbd
00000050: 0d2d 303d 1486 69bd 2d56 493d 44cd 46bd
00000060: ab31 52bd 09e7 473d 4bb7 c8bd 1461 1cbd
00000070: 7d69 47bd 9df4 13bd 9a73 37bd e53a 74bd
00000080: 2dc7 9b3d fd95 7cbd 1231 8a3d 4da8 30bd
00000090: 9fc1 16bd 1582 2ebd a74b 953d f9e1 643c
000000a0: b9cb 9d3d b0c9 4cbd c9c5 5fbd 9154 6a3d
000000b0: 5168 a23d 0e98 1dbd 9fed b63d e5c7 6b3d
000000c0: 80cb 89bd d85a a03d 06d6 883d 1360 4b3e
000000d0: f6db 813d af85 01be 7a02 5c3d 574d eabc
000000e0: ddd1 0dbd 04a6 11bd bb75 2dbd 7354 903d
000000f0: 7b98 513d 575d 0dbe a4a0 4cbd f867 12bd
-0.14038104 -0.014723197 -0.03851433 -0.050033707 0.0835954 0.06366958 -0.045088865 0.054790292
0.06566813 0.033595983 0.065125495 0.15088715 -0.03670329 -0.036722403 0.108962096 0.043096416
0.070700176 -0.046238165 -0.046242416 -0.034311887 0.043011714 -0.057012632 0.04915445 -0.0485356
-0.0513169 0.048804317 -0.09800585 -0.03817852 -0.048684586 -0.036121953 -0.04478798 -0.05962648
0.07606349 -0.061666477 0.06747641 -0.043129254 -0.036805745 -0.042604525 0.0728982 0.013969892
0.07704873 -0.04999703 -0.054631982 0.057209555 0.07930053 -0.03847509 0.089320414 0.05756368
-0.06728268 0.07829827 0.06681447 0.19860868 0.06340782 -0.12648652 0.0537133 -0.028601332
-0.03462397 -0.035558715 -0.042348605 0.070473574 0.051170807 -0.13805138 -0.049957886 -0.035743684
