pretrained/best_02_16-17_13_37.pt (torch_old, 39860 bytes, 16 tensors)

embedding.weight f4 [79, 64]
00000000: 32e5 88bd c2f2 cebd afc6 97be d4b6 c23d
00000010: 8d1b 5c3e 9322 cf3d 874b 2cbd 3f56 c83d
00000020: 8baa 653e 2345 13be 9f5f f53d 3f16 903c
00000030: 4d16 f43d 8676 883d f1c1 43bd b4b9 78be
00000040: ac17 443c 8852 bf3d 4826 323d bf17 b53d
00000050: 996b 883d 3f6d a63d 5a95 433e e7ef 4c3d
00000060: adc1 373d 06d6 af3d e448 863e ae6b d9be
00000070: 74f0 7d3d 9037 a83d 258a 9d3d 5c5c d03d
00000080: d2cd 21bd f20b 0f3e 5e16 dd3d f458 393c
00000090: 4e49 acbe 3efe 01be 1a8f ea3d 00da 17bd
000000a0: 5aa0 723c 77c0 953d d8a0 d83d a89b f73d
000000b0: 6557 193e 2ad5 653d af78 a9be 87a3 393e
000000c0: d99e 873d a576 5cbe 6a15 dabd f15f 68bd
000000d0: 6042 d63d 6765 c0bd 4f0d 0a3e 4fd8 fbbb
000000e0: 9c8e 243e 210e 47bd 94fe 82be 8930 db3d
000000f0: 34db e23d 7677 8fbd fed7 c43d 236d 2ebd
00000100: 2a0e e5bc 1087 853e dc0d 2ebe b848 37bf
00000110: 436a 23bc a246 b4bc c903 eabc 422c 95bb
00000120: 1c99 bf3c c77f 723c 84da 89bb 5a18 22bd
00000130: 7a73 3fbe 49cf 0bbe de1a 9dbe b2c7 493c
00000140: abc3 883c 9e82 57bc 2704 edbc 8721 f83d
00000150: b5e9 49ba 2427 963c b7dc 2b3d b07e 29bc
00000160: 994d d5bb 5d3b a9bb 3639 7abe 0f4e e03e
00000170: cc0f 04be 8c67 72bd 27a8 5c3c 0e46 b9bc
00000180: 820d 263d 8d9a 02bf de61 8bbb 6b09 38be
00000190: c59a 3b3d 2e3d 45bd a388 ccbd 3c07 3f3e
000001a0: 30e8 c3bd b60b 7f3c 747d 24be 78c6 0ebe
000001b0: 574a 53b9 939e b2bd 4666 003d 8e15 74bc
000001c0: 3678 b53d 988a c53d f08a 77bf 7d9e 56bf
000001d0: f0af abbb 083f 29bd fa85 e2ba 5f3b 1d3e
000001e0: 7cc1 ae3c b976 efbd 1bea 323b 3bdc c7bb
000001f0: 93d9 59bc f840 fdbc 069c 08be ec48 54bc
00000200: 518c d4bc 2589 ba3e ec7c 64bd 999e 44be
00000210: 3322 68bd e18b a6bc c688 73be e58b abbc
00000220: 8380 d33c dc03 643c 5b93 75bc 8c33 9cbd
00000230: b9f1 0bbe 1627 ee3b 8d9a 9dbe bb59 923c
00000240: 7440 8c3c aaf5 b8bc 94c4 0abd f274 9f3c
00000250: 7ef8 8abb a14b 973c 9d62 293d 6544 14be
00000260: 46b9 d0bd 67b7 54bd c927 d53c 4585 b83e
00000270: 3a4f e9bc 9755 0ebe 18da 913c 5b3d 12bd
00000280: 75fd 8e3c 9460 5abe 5dc3 e3bb 4e47 c2bd
00000290: 2261 2b3d 26eb 00be e70c c33b d41c a63d
000002a0: 4142 d6bc 5959 86bc ab70 193b ff11 06bc
000002b0: 2f27 c6ba 784d abbd f243 513d 827d 1bbc
000002c0: bded 9b3d f9a3 8e3d 4f78 86bf a8ae dabd
000002d0: 341c 16bd 52e7 a9bd 2238 c2bc 907c 193e
000002e0: 3108 993c 01d0 10be be7c 963c ae87 bcbb
000002f0: 0760 44bd b033 e9bc dc60 2cbe 7e94 d0bd
00000300: 58db adbd 5688 1b3d 508b c03d b44e 49be
00000310: 6c3c 863d 2b31 0f3d 6f93 9dbc 6350 573d
00000320: 9186 393d 8076 bf3d c877 eb3d 9678 5d3d
00000330: d9ba 01bc 6e50 083d 36fc 5fbd 255e 393e
00000340: 69ca d1bd 316f cd3d 1196 ea3d 845b 183e
00000350: de59 7fbd 2321 ca3d 06d5 883c b16a 8cbd
00000360: 5c7b 053e 3875 243d 37ad 01bd 7dc2 9abd
00000370: f9ef 11bc e849 c23d 59ff ac3d f59e 3abe
00000380: dad3 8bbd d6fd a83d 0529 613c 64d0 82bc
00000390: ff79 313e fc34 523d 3138 693d 3fff c83c
000003a0: 2938 6a3d b322 c1bc ba6c 80bc a288 61bd
000003b0: 9748 93bd 1593 0ebc 8823 6ebd ce09 54bd
000003c0: d84c 4bbe 5b0b 28bd 91d7 17be 13ed 9dbe
000003d0: 898d d93c 15ba 21be 4dd2 93bd 0862 7b3c
000003e0: 43dd 583a 237d a8bb efd4 673c 46e7 d33c
000003f0: 7d88 af3c 0402 d6bd 21d7 f43d e46e c53d
-0.066843405 -0.10104896 -0.2964377 0.09507528 0.21494885 0.101140164 -0.042064216 0.09782075
0.22428338 -0.14381842 0.11981129 0.017588733 0.11918316 0.066632316 -0.04779238 -0.2428959
0.011968534 0.093419135 0.04349354 0.0884242 0.066611476 0.08126306 0.19099942 0.050033476
0.044862438 0.085857436 0.26227486 -0.42464966 0.061996892 0.08213723 0.076923646 0.10173866
-0.039502926 0.139694 0.10795282 0.011312712 -0.33649677 -0.12694642 0.11453076 -0.037073135
0.014808739 0.073121004 0.105775535 0.12090236 0.14974745 0.056111492 -0.33099887 0.18128787
0.06622095 -0.21529634 -0.10648616 -0.05673212 0.10461879 -0.09394341 0.1348164 -0.007685698
0.16070026 -0.04859746 -0.25584853 0.10702617 0.11076966 -0.07005207 0.0961151 -0.04258455
-0.027960856 0.26079607 -0.16997474 -0.71595335 -0.009974065 -0.022006337 -0.028566258 -0.004552395
0.023388438 0.014800972 -0.0042069573 -0.039574005 -0.18696395 -0.13653292 -0.3068456 0.0123156775
0.016694864 -0.0131537 -0.028932644 0.1211577 -0.00077023666 0.01832921 0.041958537 -0.010345146
-0.0065094945 -0.0051645474 -0.24435887 0.43809554 -0.12896651 -0.05918078 0.013467825 -0.022616412
0.040540226 -0.51017076 -0.00425361 -0.17972343 0.045801897 -0.04815405 -0.09986999 0.18655103
-0.095657706 0.015566757 -0.16063482 -0.13942897 -0.00020150222 -0.08721652 0.031347536 -0.014897717
0.08860819 0.09645575 -0.96696377 -0.83835584 -0.0052394792 -0.041319877 -0.001728236 0.1535468
0.021332495 -0.116925664 0.0027300182 -0.0060992516 -0.013296503 -0.030914769 -0.13340768 -0.012956839
-0.025945814 0.36432758 -0.055783197 -0.19201125 -0.05667324 -0.020330371 -0.23782644 -0.02094073
0.025818115 0.013916936 -0.014988746 -0.07627019 -0.13666429 0.007267843 -0.30781975 0.017865052
0.017120577 -0.02257808 -0.033878878 0.019464944 -0.0042410484 0.01846868 0.04135381 -0.14479215
-0.10191588 -0.05193272 0.026019948 0.36039177 -0.028480161 -0.13899837 0.01780419 -0.035703044
0.017454842 -0.21325904 -0.0069507794 -0.094862565 0.04184068 -0.12589702 0.005952466 0.08110967
-0.02615464 -0.016400026 0.0023413103 -0.008183002 -0.0015117879 -0.08364385 0.05109019 -0.009490373
0.07613704 0.06964869 -1.0505465 -0.10677844 -0.03664799 -0.08296074 -0.023708407 0.14988923
0.018680664 -0.14141847 0.018370029 -0.005753479 -0.04794314 -0.02846703 -0.16833824 -0.10184573
-0.08489102 0.037971817 0.09401572 -0.19658929 0.06554493 0.034959 -0.01923534 0.052566897
0.04529435 0.09348774 0.11497456 0.054070078 -0.007918083 0.03327983 -0.054683886 0.1810232
-0.10243685 0.10030974 0.11454404 0.1487866 -0.062341563 0.098696016 0.01670314 -0.06856287
0.13035339 0.04015085 -0.03165933 -0.07556627 -0.008907312 0.09486753 0.08447141 -0.182247
-0.06827517 0.0825154 0.01374269 -0.015968509 0.17331694 0.05132006 0.056938354 0.024535773
0.057182465 -0.023576116 -0.015676845 -0.055061944 -0.0719158 -0.008702059 -0.058139354 -0.051767163
-0.19853532 -0.041026454 -0.14828326 -0.30844936 0.026556747 -0.15793641 -0.07217846 0.015343197
0.00082727167 -0.0051418706 0.014149888 0.025867116 0.021427387 -0.10449603 0.11955095 0.09640291

bn_outlayer_in.weight f4 [64]
00000000: 99be 883f ec0a 6e3f 2036 7e3f b470 793f
00000010: 6b39 823f f785 793f 6cf0 6b3f 1a01 823f
00000020: b406 623f c482 7d3f 9a01 713f 3fcf 593f
00000030: bf37 6c3f f245 723f b57e 7f3f d727 783f
00000040: 979b 6a3f 4e7d 6a3f 3a8f 793f f1c7 6c3f
00000050: 2d42 6b3f a1ae 6d3f 0b2b 693f ea71 6c3f
00000060: 613a 6f3f fa0f 783f d6f3 713f d51c 6d3f
00000070: 123f 753f 0389 6d3f b0ee 6a3f 0289 803f
00000080: 8464 773f 833d 853f 2458 713f 6174 6a3f
00000090: e3ec 773f 93de 6e3f 2c94 6c3f 2eae 6a3f
000000a0: 484d 5e3f cb73 6e3f bc74 663f 7a73 703f
000000b0: 9b62 803f e1c4 7f3f 7168 8f3f 6430 7d3f
000000c0: 8645 653f 858f 743f cc69 853f f046 863f
000000d0: b8ff 723f 2814 813f 9373 743f 123a 6f3f
000000e0: 0253 743f 5ef8 7b3f bcc9 783f 3a66 723f
000000f0: 3272 833f 3615 843f 9e2b 6f3f c6e4 763f
1.0683166 0.92985415 0.9930134 0.97437596 1.0173773 0.9747004 0.9216373 1.0156586
0.8829148 0.9902766 0.9414307 0.8508186 0.9227256 0.9463798 0.99802715 0.9693579
0.9164366 0.9159745 0.9748417 0.92492586 0.9189785 0.9284459 0.91081303 0.9236132
0.93448454 0.9689938 0.9451269 0.9262212 0.9579936 0.9278719 0.9177046 1.0041811
0.9663775 1.0409397 0.94275117 0.9158383 0.96845835 0.9330837 0.9241359 0.9167203
0.8683667 0.93145436 0.9002187 0.93926203 1.0030092 0.9990979 1.1203748 0.98901963
0.8955921 0.95531493 1.0422912 1.0490398 0.94921446 1.0084276 0.9548885 0.93447983
0.9543916 0.98425853 0.9718282 0.94687235 1.0269225 1.0318973 0.9342593 0.9644283

bn_outlayer_in.bias f4 [64]
00000000: a432 8dbd e985 913d 5c3c d2bc aed7 7fbd
00000010: 4ec3 85be e4c3 e2bd 4e59 43be f16c cfbd
00000020: f772 a3be dced b1bc 8ebc b4bd e24d 7bbf
00000030: 695e 00be 3053 13be 8ac6 fd3b 645d 1ebe
00000040: 9399 42be 5676 05be bcb4 d8bd 886f f3bd
00000050: 9f1b 7ebd 84f4 fcbd 479a 25bf ef76 efbd
00000060: b85d 0fbe b2e0 b0bd aebd 6dbe 4a19 1bbd
00000070: 6797 20be c0a9 d9bd 157b 19be 897d d2bd
00000080: f2a1 873d f016 8cbd 01c0 debd 4c70 3cbe
00000090: a656 59be 8391 adbd 0561 23be acaf 43be
000000a0: dcbe 68bf 65d7 59be 3c16 a9be 17d6 b4bd
000000b0: 7c50 f3bd 932f e4bd deeb c03c 0acb debd
000000c0: 4553 a0be b61b 4b3d 7be0 923d ea38 c13d
000000d0: 8ebd d3bd b3a9 25be ecb6 92bc 063e bcbd
000000e0: 51ef 80be ba9a d0bd b64b fabd 0ea9 dbbd
000000f0: 40d2 b3bd 2a16 14be 98fe 04be b9a5 a6bd
-0.068944246 0.071056195 -0.025663547 -0.062461548 -0.26125568 -0.110725194 -0.19077036 -0.10128201
-0.3192365 -0.021719866 -0.088250265 -0.98165715 -0.12536015 -0.14387202 0.007744615 -0.15465313
-0.19003896 -0.13033423 -0.10581347 -0.11886507 -0.06203806 -0.12351325 -0.64688534 -0.11692607
-0.14000595 -0.08636607 -0.23216888 -0.037865914 -0.15682755 -0.1062808 -0.14988358 -0.1027785
0.066226855 -0.068403125 -0.108764656 -0.18402213 -0.2122446 -0.0847502 -0.15954979 -0.19109982
-0.9091623 -0.21273573 -0.33024776 -0.08829897 -0.118805856 -0.111418866 0.02354997 -0.108785704
-0.3131353 0.049586974 0.071717225 0.094346836 -0.10338889 -0.16178016 -0.01790949 -0.091915175
-0.25182584 -0.10185762 -0.12221472 -0.10725604 -0.087803364 -0.1446158 -0.12987745 -0.08137078

bn_outlayer_in.running_mean f4 [64]
00000000: d787 f4bc 74bf 853d 124f ee3c 0064 8cbb
00000010: 2a07 f6bc 673d b7bb 1249 263b 0cea 5eba
00000020: 3f6e fb3b 25ff 003c 8ffa b4bb ccfd e33a
00000030: 3e1b 26bb 113e 7b3c 754b 0bbd 1c5d c03a
00000040: 3d1b 7e3b a9a1 5b3b 4405 573c 1cb1 30bb
00000050: 35ff 8aba 97aa 7c3b 5423 563c 72b1 253c
00000060: 3bcb 1c3c 6da6 4cbb c1c5 73bb afee 383c
00000070: 7f9c 843c a463 623c e6e7 b03b 0252 ccb9
00000080: b0d4 13bc f86f 4a3c 4334 91bb 415d 123b
00000090: 5610 14b9 2283 223c 6b1b 6fbb 1092 af3a
000000a0: eedb 063c f0e9 dc3a 92cd 863b 47ce bcbb
000000b0: e4b0 b4bb 80bf 083d fece 28bd 7927 76bb
000000c0: 544b 95bc 36ea 96bc 192f cabb 5e18 37bc
000000d0: 34fb 9abb d615 28bd 9dfd 49b9 ecd5 4b3c
000000e0: 9d0d ef39 4c12 bc3c d9c4 ad3c 95d4 9ebb
000000f0: 9458 66bb 0b77 08bd d16c 703c 4d40 84bc
-0.02984993 0.065306574 0.029090438 -0.004284382 -0.030032713 -0.0055920365 0.0025373143 -0.00085035036
0.0076730545 0.007873331 -0.005523033 0.0017394363 -0.0025345827 0.015334622 -0.03400751 0.0014676186
0.003877356 0.0033513105 0.013123814 -0.0026961034 -0.0010604622 0.0038553828 0.013069946 0.010113107
0.009569938 -0.0031227127 -0.0037196728 0.011287375 0.016187904 0.0138177015 0.005398738 -0.00038971013
-0.009022877 0.012355797 -0.004431279 0.0022333416 -0.00014120465 0.00991896 -0.0036484848 0.001339497
0.008231146 0.0016854387 0.0041138614 -0.005761895 -0.005514251 0.033385754 -0.041213028 -0.0037560149
-0.018224396 -0.018422227 -0.0061701653 -0.011175243 -0.004729653 -0.04103645 -0.00019263332 0.01244114
0.00045595775 0.022957943 0.021212028 -0.004847119 -0.0035148012 -0.033316653 0.014674381 -0.016143942

bn_outlayer_in.running_var f4 [64]
00000000: 962b 083b 1ce4 503c b6df 2f3c 3d53 2c3c
00000010: 1a55 5f3c 67ed 0c3b 799d c73b e6c0 be3a
00000020: 9650 123a d017 363b 7551 8a3b 7a82 b83a
00000030: 5179 d73b 2653 3f3b 60a9 d53b 25d8 ce3b
00000040: 13b2 eb3a 263b 9a3b 981e 633c 9a5b 3b3c
00000050: 911e 953a fc8e d93b fd1d 273a 012f 9e3b
00000060: 401d 153c a4d4 973a a1aa 3239 44a0 a83c
00000070: 9b2f ab3b 969a 923b 6ac9 593b 3216 cb3a
00000080: c8fe 713a 19a5 ac3c c32e 9a3a 953c 793b
00000090: 0565 783c 3d7c e03b 479e 293b 4cf3 0f3b
000000a0: cfba 233b b644 a03b f7ee ce3b 17fc 6f3b
000000b0: 7b8c 0e3b a0ba d93b b084 ef3b 1ad4 283a
000000c0: e3b9 3f3b 9eec 013b 2b71 ed3a 0d15 ab3b
000000d0: 4465 c03a 68f6 e43a 9a74 363a 7fa9 7d3a
000000e0: 2cf5 8c38 89aa 7e3c b8cc ed3b df6b eb3a
000000f0: 5a66 9d3a 3761 f23a 2a31 e63b c5f5 7c3b
0.0020777932 0.012749698 0.010734489 0.010517892 0.01363113 0.0021503808 0.0060917703 0.0014553338
0.0005581466 0.002778519 0.004221136 0.0014076971 0.0065757413 0.0029193847 0.006520435 0.0063123875
0.0017982147 0.004706758 0.013862275 0.011435414 0.0011376907 0.0066393595 0.0006375013 0.0048273806
0.009101212 0.0011583758 0.00017038967 0.020584233 0.005224181 0.0044739945 0.0033231624 0.0015494286
0.0009231386 0.021074818 0.0011763204 0.0038030494 0.015160804 0.006850748 0.0025881694 0.0021965085
0.0024983173 0.0048910035 0.006315108 0.0036618763 0.0021751213 0.006644562 0.0073095188 0.0006440297
0.0029255084 0.0019824873 0.0018115392 0.0052210153 0.0014678617 0.0017468454 0.0006960124 0.0009676441
6.721387e-05 0.015543588 0.0072570704 0.0017961225 0.0012008653 0.0018492107 0.007024904 0.0038598638

gnn_layers.0.gnn.att_i f4 [1, 1, 64]
00000000: e898 b8be b2d9 2a3d 23db e53d 2060 ef3d
00000010: 70f6 0cbf 19c1 7a3d 0d9f dc3e 1a09 2f3d
00000020: 1e9f d53d a6e0 43bf fb71 243e 22aa de3e
00000030: 4fb0 4cbe f420 6c3e 245a f03d 96c7 ba3c
00000040: 7511 cb3b aed3 9d3e 3673 dfbe c5bb 43be
00000050: 4bfe 0bbe e08e 883e 5fe2 a7be d6a8 aa3e
00000060: 55fd 76be 884c 8a3e c909 a6be 3a6f 52bd
00000070: 6cdb 1b3e 0800 fe3e a7d6 45be d7ed 64be
00000080: 2906 b8be 4807 f53e b250 3b3e 81a2 75bd
00000090: 4d54 5b3e 6365 f5bd f183 28bc 7c13 89bd
000000a0: 66d3 a2be b8ee b53c 26a7 583f f5d2 65be
000000b0: 699b 513e 6112 283e 7325 04bf 5e97 6fbe
000000c0: a9f1 f6be a4b3 beba c519 cc3e 097a 973e
000000d0: 5f74 98be 18db f0bc ad3a 47be 2030 61be
000000e0: a057 563e 6e97 563e e79d 2d3d 885d 1bbe
000000f0: 7c2e aa3c b22d c0be 4fbd 363e 0333 99be
-0.36054158 0.041711517 0.11223438 0.11688256 -0.55063534 0.06121931 0.43090096 0.04273329
0.1043074 -0.7651466 0.16059105 0.43489176 -0.19989131 0.23059446 0.11735943 0.022800248
0.0061971494 0.3082556 -0.43642586 -0.19114597 -0.13671224 0.26671505 -0.32789895 0.33331937
-0.24120076 0.27011514 -0.3242934 -0.051375605 0.15220422 0.496094 -0.19320165 -0.22356354
-0.359422 0.47857118 0.18292502 -0.05996943 0.21418877 -0.119822286 -0.0102853635 -0.066931695
-0.3180191 0.022208557 0.8463005 -0.22443755 0.2046944 0.16413261 -0.5161964 -0.23397586
-0.48231247 -0.0014549387 0.3986341 0.29585293 -0.29776284 -0.029401347 -0.19455977 -0.21991014
0.20931864 0.20956203 0.042386916 -0.15172398 0.020774119 -0.37534863 0.17845653 -0.2992173

gnn_layers.0.gnn.att_j f4 [1, 1, 64]
00000000: 47d7 ccbd adb2 72be 8a43 9b3d 05ff e5bd
00000010: 4238 a33c ea89 26be 08ce 8a3d 35b2 56be
00000020: 0309 56be 520c 44be b582 243e d0ae 033e
00000030: 8415 dcbd 35cd eebb bb58 483e bcf3 623d
00000040: b0fa 673e 5102 dbbc 2c44 33bb f9c7 213e
00000050: 7484 e03b 02fb 5ebe 48cd 96bd 3e0d 2a3e
00000060: 2a3d af3d 6e14 a2bc a255 6cbe 76f9 223e
00000070: f71d 9039 e422 b9bb 8e81 363e 8d5c bc3d
00000080: 7946 213d e72c 9e3d c0ff 403a 1f07 ee3b
00000090: c4f3 0bbe 49e4 c03d 5531 003e c075 fa3d
000000a0: bbb6 f6bd 7c9b 0f3d 1190 823d 2c1f 2bbe
000000b0: 607e 113d f46b 0f3e ac7e f63b 5f93 09be
000000c0: a4b4 5b3e 0523 0ebe 5a49 e33d 5385 f6bb
000000d0: e237 4b3d 4946 be3d dd98 76be ca2a 493d
000000e0: e795 c438 4c55 4cbe ee0f 183e a2b1 ddb9
000000f0: 8aff 90bd 67db 95bc 2d5e 243e e0d3 82bd
-0.100019984 -0.23700972 0.075812414 -0.11230282 0.019924287 -0.16263548 0.067775786 -0.20966418
-0.20901875 -0.19145325 0.16065486 0.12859654 -0.10746291 -0.007287646 0.19565098 0.055408224
0.22654223 -0.026734503 -0.0027353866 0.1579894 0.006851727 -0.2177544 -0.07363373 0.16606614
0.08556588 -0.019785132 -0.23079541 0.15915474 0.00027488146 -0.0056499112 0.17822859 0.0919734
0.03937385 0.07723408 0.00073623285 0.0072640325 -0.13667208 0.09418542 0.12518819 0.1222949
-0.12046572 0.03506039 0.06375135 -0.1671111 0.03552091 0.14006025 0.0075224247 -0.13435124
0.21455628 -0.13880546 0.11097975 -0.0075232177 0.04961384 0.092907496 -0.2408175 0.049113072
9.37393e-05 -0.19954413 0.14849827 -0.00042284752 -0.0707999 -0.018293096 0.1605155 -0.06388068

gnn_layers.0.gnn.att_em_i f4 [1, 1, 64]
00000000: f350 573f 72c1 ffbd c778 0fbf a3c2 dd3e
00000010: fd3b 89bb 1ca3 263d ce41 723e 0b34 fd3d
00000020: 97a3 333e 2370 76be b01e 28bf bb9c 6a3e
00000030: e095 40be 56d7 e9be 7fc1 1d3f 6933 70be
00000040: fbd3 353f 47ac e5bd bd8a c0be b860 8c3e
00000050: 7d9f c1be 4605 c53d 77ba cd3e 6230 923b
00000060: 61da 35bf 32c5 22be eb4c 0bbd bb41 a93d
00000070: ebb4 85be 0f80 e5be f969 68be 784f 0b3f
00000080: 15bf 053f ed45 c23e df48 473e 1dc9 d9be
00000090: 88dc d5be 7954 0cbf 046d 95be 2645 b03c
000000a0: 4c84 29bf bbc0 8f3e f1b1 10be bcf3 21bf
000000b0: 0a82 533f 638d dabe 6517 273f 641c 443e
000000c0: 04e7 523f 8bff fe3e 1498 063f 0186 143f
000000d0: 0e43 913e 3fce 2b3f 0e55 7bbe 2f69 90be
000000e0: 6b8d 093e 35c7 14bf 95c7 1abf 7815 57bd
000000f0: 69cb 86bd 17e0 273f 35d8 48be b18f 7a3f
0.84107894 -0.12488069 -0.56043667 0.4331256 -0.0041880594 0.040682897 0.23657915 0.12363442
0.17542873 -0.24066214 -0.65671825 0.2291135 -0.18807173 -0.456721 0.61623377 -0.23457111
0.7102658 -0.112145 -0.3760585 0.2741754 -0.37816992 0.096201465 0.40181324 0.004461334
-0.71036345 -0.15895537 -0.0340089 0.0826449 -0.26114592 -0.44824263 -0.22696675 0.54418135
0.52244693 0.37943974 0.19461392 -0.4253625 -0.41769814 -0.54816395 -0.29184735 0.021517348
-0.66217494 0.2807673 -0.1413038 -0.63262534 0.826203 -0.42685995 0.6527007 0.19151455
0.8238375 0.4980434 0.525758 0.58016974 0.2837147 0.6711158 -0.24544165 -0.2820525
0.13432853 -0.58116466 -0.6046079 -0.05251071 -0.06581766 0.6557631 -0.19613726 0.97875506

gnn_layers.0.gnn.att_em_j f4 [1, 1, 64]
00000000: a715 28bd 81f7 60bf cda5 253f 91c1 403f
00000010: fd14 423f 2942 e73e e4c1 0a3f 24fa c13e
00000020: c233 1abe 6cdc c9be 1da3 153f a53f f73e
00000030: ba05 243f 1f96 ef3e 1b76 093f 1f78 e2be
00000040: 1d62 a33e 1f0a 063f 35b9 403f 5c35 c4be
00000050: fa25 92be edeb c1be d4c7 9ebe 8407 c43e
00000060: 10a5 103f 9313 9e3e 25f8 243f b46c 44bf
00000070: 5e58 c93e 7c85 fc3e ea3b e4bd c6cb 143f
00000080: 8156 9bbe 672a 253f b0dd a53e 2dc5 e33e
00000090: e0f8 ffbe e276 b53e 6dd2 e83e 1539 18bf
000000a0: 97d3 fb3e 5f5e c03e 60e4 0e3f 5aec 093f
000000b0: 1c92 7bbe 5116 0d3f 5240 6dbe 610e eb3e
000000c0: 87b1 f63e a867 a13e d54f 583f a0a1 343f
000000d0: 5aa0 d13e dd44 c23e c8e4 10be 4f3f efbe
000000e0: 498f 74be 3b8d 193f a620 b23e 9aee f43e
000000f0: 18e6 be3e eb41 f93e 86bb 083f 7c3a fbbd
-0.041036274 -0.8787766 0.64706117 0.7529536 0.75813276 0.45167664 0.54202104 0.37886155
-0.15058807 -0.3942598 0.58452016 0.48290744 0.6407124 0.4679422 0.5369584 -0.4423227
0.31910792 0.52359194 0.75282604 -0.3832196 -0.285446 -0.3787531 -0.31011832 0.38286984
0.56501865 0.3087431 0.6444114 -0.7672837 0.3932523 0.4932059 -0.1114424 0.58123434
-0.30339435 0.64517826 0.32395697 0.4448637 -0.49994564 0.35442263 0.45473042 -0.594621
0.49184868 0.37572 0.5581722 0.5387627 -0.24567455 0.5511218 -0.23169068 0.45909408
0.48182318 0.31524396 0.84496814 0.7055912 0.4094265 0.37943164 -0.14149773 -0.46727988
-0.23882784 0.59981126 0.34790534 0.4783829 0.37284923 0.48683104 0.5341114 -0.122670144

gnn_layers.0.gnn.bias f4 [64]
00000000: 4a7b 78bc cc0e a2b7 cb25 e63a 5775 963a
00000010: fae5 cf3c a83e 48bc 596c f3ba dd33 6b3c
00000020: dc4c 99ba 8084 963c f81c 713c c206 103c
00000030: 0527 6bbb cfc5 1cbb cf15 953b c2c7 0ebb
00000040: 5fae 9abc 4910 01bb 088f ff36 1f0f 123a
00000050: bd3c 36bc c6c3 4abb df14 113b 0b66 cd3a
00000060: 9049 1c3b 7d40 4f3b 4e2f a13c 1bae d2ba
00000070: be43 77bb d838 81ba abde 1c3b ff64 623b
00000080: 6cb8 503b 2933 9fbb 99bf 31bb aec6 0dbb
00000090: 9795 fb39 bf16 b03a f31b 21bc e35a dd38
000000a0: d707 e3ba eefd 79bb 826e acba 3798 3339
000000b0: 1337 42bc 309c 8a3b e9b1 f639 4c39 533b
000000c0: c4db d23a 5520 42ba d54a 33bc 3580 ce3a
000000d0: 44e3 0e38 c685 46bc f6c6 70bb 7a34 3a3a
000000e0: 1b64 7d3b 918d 063b c6d8 833a d78a caba
000000f0: 7a8c f6bc 2bca cbba 0515 dbba 0544 913b
-0.015166113 -1.9318795e-05 0.0017558871 0.0011479062 0.025378216 -0.01222197 -0.0018571719 0.014355627
-0.001169588 0.018373728 0.014716379 0.008790674 -0.0035881412 -0.0023921614 0.004549719 -0.0021786545
-0.018881975 -0.0019693545 7.6162432e-06 0.0005571711 -0.01112288 -0.0030939444 0.0022137684 0.001567067
0.0023847558 0.0031624131 0.019675877 -0.0016073616 -0.0037729586 -0.000985886 0.0023936431 0.0034545062
0.0031848205 -0.0048583937 -0.0027122258 -0.0021633315 0.00047985904 0.0013434513 -0.009833324 0.0001055503
-0.0017321062 -0.0038145739 -0.0013155492 0.00017127475 -0.011853951 0.004230045 0.0004705333 0.0032230197
0.0016087224 -0.00074053305 -0.010943134 0.0015754761 3.4067096e-05 -0.012116855 -0.0036739684 0.00071031565
0.0038664404 0.0020531157 0.001005911 -0.0015452754 -0.030096281 -0.0015547922 -0.0016714638 0.0044331574

gnn_layers.0.gnn.lin.weight f4 [64, 50]
00000000: 3fe0 41be ce45 9f3d 9a5f 173e 8ee5 ffbc
00000010: edd7 86bc a8f2 52bd c8c6 803d 8481 c13c
00000020: 9425 fcbd acb1 993d a749 97bb b4a3 b43d
00000030: 6a9c 913d d18c 38be 4927 233e 02b7 2e3c
00000040: 8d92 33be a7f7 203e 6d4b 07be 17ff 82bd
00000050: 4fcb 1d3d 2445 f53d 301f b6bc 3d01 48be
00000060: 5dfa 04be 6aa2 973d bc28 f9bd 9b0b d1ba
00000070: 6a46 113e 7c52 13be 5d71 12be c3ae 91bd
00000080: 8cff 03bd 9101 00be 63a3 3c3e dcb9 41be
00000090: 4733 dc3d 528a a93d c598 523e b1be 3cbe
000000a0: 430d 553e 33be 2d3d 19b2 45bd fd11 98bc
000000b0: 2501 fb3d 88ab 263e 822d 8abd d607 ca3d
000000c0: 6253 103e 80fc 173f 4b53 273c fa06 37bd
000000d0: 4fcf f63d edd7 303e c9c4 083e 24d1 a7bd
000000e0: 4ca6 01bc ac37 dc3c e0e9 0cbe f3d0 403e
000000f0: 6d78 e13d 047b ef3d 05eb 403e b2c0 a0bc
00000100: d5a0 2b3e 79ee d7bc 0f6a 423e 14ba febd
00000110: 0fd5 57be d2cb df3d e8c1 8c3d e4d3 4dbe
00000120: 1fdb 4f3d 0f0e 83bd 33a7 e93d 53c5 473e
00000130: d2b2 1e3e 895f 40bb 9608 8c3d f56d 6dbe
00000140: 9091 8cbc 6f52 383d 4c6c ab3d c776 b13d
00000150: 9d2f 293e ec35 9cbc 1ab6 733d 1e12 6cbe
00000160: 71c5 f5bd 441f ab3d 749d e03c e46f ce3d
00000170: 3fe6 2e3d 7b94 8dbe af9a e03c b266 9abd
00000180: 360f 9fbd 53cf 4ebd 92bb 373e cb0e 1f3e
00000190: 9c77 973d 90a5 ccbd 2b40 0f3d 01a9 563d
000001a0: ba72 033e 0529 b9bc 0a43 57be c680 a73d
000001b0: cdab 4fbe 4409 49bc ff95 bf3d cefe 4a3c
000001c0: 1c80 0e3e f4b8 143e 3f86 80be f837 113a
000001d0: 1c2c c73d 367d ffba a410 9bbd cc53 563e
000001e0: 0480 cbbd c739 22be c859 dcbd 96d4 32bd
000001f0: e8e3 463d 53d0 463e cd2a 083d 0f87 04be
00000200: ae54 713e c652 113d ff5b 6dbd 9750 4eba
00000210: 0eab 753d 091d 91bd d762 b53c 89c2 873d
00000220: df6c 47be 908d 453e 5286 363e d5f9 233d
00000230: 6783 653e b6eb 85bd b2f3 0cbd f34c 113e
00000240: 01c6 13be d3c2 abbd 47f9 4cbe cf04 bbbd
00000250: 959d 4cbe 9ed1 bbbe 285f d9bc e941 4f3e
00000260: 63fa aa3d 6d3d 68be 4861 08be d7dd 7bbc
00000270: c5e9 a83d ba78 0b3e c131 603e 816c 10be
00000280: e6cb 6d3e 8386 403e ace9 44be 704f 21be
00000290: c2c9 2dbe b204 673c e4ee 05bd 87a4 45be
000002a0: f433 f9bc a57d 153e 3e2d f6bb aae8 11be
000002b0: 68c7 38be d42c a93d 570f cc3d 1c24 d1bd
000002c0: decb 50be 15e3 ca3d dcad 1dbe 665a 53be
000002d0: 4278 3b3e d111 a43d 7c53 71bd 2733 653d
000002e0: d2e8 523e 5609 6abe 61f9 65bd 99a4 b6bd
000002f0: a549 77be 02ac 213e 520d 8ebe ba15 d2bd
00000300: 6fed 8a3d 3396 073e 32b7 c9bd 1ac4 3b3e
00000310: 7b42 10bd 3a8c 64be 96b2 66be 7fe5 7abe
00000320: 5ddc 62bc 6ffe 153e 6501 fbbd 9f79 b3bd
00000330: c1ac da3d 9984 99bc 6e55 1d3d edbe 8f3c
00000340: c0a7 43bd 081f 01be 6638 223e 4f41 0fbe
00000350: f9f8 1b3d 31f2 0739 df3b 3d3c e873 9d3c
00000360: a8d7 26bc d90e bfbd 6d69 673a f8c2 f9ba
00000370: 66ff 3d3d 5c30 4a3d b69f aa3d d1c6 31bd
00000380: 2ca2 aabd 2b48 fb3b 58bb dc3c cc83 a9bd
00000390: 65d8 d13d bbae 5a3c dbc5 d4bd d791 e73d
000003a0: 4d40 abbd 4c63 b1bd 1b06 5b3e f3dd d3bd
000003b0: 415a 9aba 0acf 42be 2867 3f3d 70ff 9e3d
000003c0: df21 f73d 3717 a9bd 5537 1fbe 3741 2f3e
000003d0: 4dcf 62bd 216e b73d 6d86 0dbe d7b5 c4bd
000003e0: d12a 86be 4f6f 4f3f 62b2 b5bc 0257 543b
000003f0: 4110 ffbd bcb1 333e 0eb2 67be c447 71bd
-0.189332 0.07776986 0.14782563 -0.03123739 -0.016460383 -0.051500946 0.062879145 0.023621328
-0.12311855 0.07504591 -0.0046169343 0.088202864 0.07109912 -0.18022467 0.15932955 0.01066375
-0.17536373 0.15719472 -0.13212366 -0.06396311 0.03852397 0.11976078 -0.022231668 -0.19531722
-0.12986131 0.07404025 -0.121659726 -0.0015948893 0.14187017 -0.14386934 -0.14301057 -0.07113411
-0.03222613 -0.12500598 0.18421702 -0.18918556 0.10751968 0.08278336 0.2056609 -0.18432118
0.2080584 0.042417716 -0.04826555 -0.018563265 0.12256078 0.16276371 -0.06746961 0.09864776
0.14094308 0.5936966 0.01021273 -0.044684388 0.1205126 0.17269869 0.13356318 -0.08194187
-0.007913183 0.026882015 -0.13761091 0.18829708 0.110092975 0.11693385 0.18839653 -0.019623134
0.16760571 -0.02635883 0.1898577 -0.12437835 -0.21077369 0.109275475 0.06872922 -0.20100361
0.05074608 -0.06399166 0.11408844 0.19508867 0.15497902 -0.0029353818 0.06837575 -0.23186477
-0.017159253 0.04500049 0.08370265 0.08665233 0.1652207 -0.01906868 0.059499837 -0.23053786
-0.120005496 0.08355573 0.02741883 0.10079935 0.04270005 -0.27652344 0.027417509 -0.07539119
-0.07766573 -0.05049069 0.17942646 0.15532987 0.073958606 -0.09992516 0.034973305 0.05240727
0.12836733 -0.022602567 -0.21021667 0.081788585 -0.2028038 -0.0122702755 0.09354781 0.012389852
0.13916057 0.14523679 -0.25102422 0.0005539651 0.0972521 -0.0019492272 -0.07571533 0.20930403
-0.099365264 -0.15842353 -0.10759312 -0.04365977 0.048557192 0.19415407 0.033243943 -0.12942146
0.23567459 0.03547933 -0.057949062 -0.0007870285 0.059977584 -0.07085616 0.022141857 0.066289015
-0.19475125 0.19292283 0.17824677 0.04003318 0.22413407 -0.06539099 -0.034412093 0.1418951
-0.14431001 -0.08386769 -0.20016967 -0.091317765 -0.19981988 -0.36683363 -0.026534632 0.20239986
0.08348539 -0.22679682 -0.1331836 -0.015372715 0.08247713 0.13620272 0.2189398 -0.14103891
0.23222312 0.18801312 -0.19229764 -0.15752959 -0.16971496 0.014100241 -0.032698527 -0.19301043
-0.030420281 0.14598711 -0.0075127175 -0.1424891 -0.18044817 0.082605034 0.09963863 -0.102119654
-0.20390269 0.09906594 -0.15398353 -0.20639953 0.18307593 0.08011211 -0.058917508 0.055956986
0.20596626 -0.22855124 -0.05614603 -0.08918113 -0.24149187 0.15788272 -0.27744538 -0.1025805
0.06783568 0.1324089 -0.09849395 0.18336526 -0.03521965 -0.22319117 -0.22529063 -0.24501608
-0.013846484 0.1464784 -0.12256125 -0.08763432 0.106774814 -0.018739985 0.03841155 0.017547095
-0.0477674 -0.12609494 0.15841827 -0.13989757 0.038079236 0.00012964827 0.011549919 0.019220307
-0.010183252 -0.09329004 0.00088276603 -0.0019055298 0.046386145 0.049362525 0.08331244 -0.043402497
-0.08331713 0.007668515 0.026944801 -0.082770914 0.10246352 0.013347323 -0.103893004 0.113071136
-0.08361874 -0.086615175 0.21389048 -0.10345068 -0.0011776165 -0.19024292 0.046729237 0.077635646
0.12067007 -0.08256381 -0.15548451 0.17114721 -0.05537348 0.08956552 -0.1382081 -0.09604996
-0.2620454 0.8102922 -0.022179786 0.0032400494 -0.12454272 0.17548269 -0.22626516 -0.05890633

gnn_layers.0.bn.weight f4 [64]
00000000: 85cd 0c3f c8fd 193f 8e5c 6c3f fa90 353f
00000010: 2be8 e93e 8811 e93e 9f70 6f3f 8269 e73e
00000020: b693 343f 9af0 cf3e d602 983e 8abf e33e
00000030: 411d 163f fa28 463f e79e 433f a9a5 d83e
00000040: 58c0 c83e 11a6 2d3f 6a5d 5f3f e67c 643f
00000050: ce14 b03e 0922 343f 0d6d 313f f250 403f
00000060: 3cd3 673f c1d9 e23e 4af4 ee3e c5a3 d83e
00000070: 0517 2e3f 2945 383f e129 403f 862f eb3e
00000080: aee3 e73e ec24 423f 87d2 093f 5733 c93e
00000090: 2790 503f 16a2 623f 4d92 d33e a5ed 513f
000000a0: 24e5 123f c0d9 d93e 9cac 533f 2346 c23e
000000b0: 70f7 0d3f e10e 423f 0e2b 593f b8f3 313f
000000c0: 996d 2b3f 144b 1a3f 02a1 cb3e 83cb f73e
000000d0: 8782 d33e ae37 a13e 2e35 073f 3a7f 203f
000000e0: b4a4 153f d638 563f c6db 513f 9c2f e73e
000000f0: 8367 073f 94ee f83e 4bf7 3f3f f213 a03e
0.550011 0.60152864 0.9232873 0.7092434 0.45684943 0.45521188 0.9353122 0.45197684
0.7053789 0.40613252 0.29689664 0.4448207 0.5863839 0.77406275 0.7641434 0.4231389
0.39209247 0.6783152 0.87251914 0.8925308 0.34390873 0.70364434 0.69307023 0.7512351
0.90556693 0.44306758 0.46670753 0.42312446 0.68003875 0.7198053 0.750639 0.45934695
0.45290893 0.7583759 0.53836864 0.39296982 0.8146996 0.88528574 0.41322556 0.8200324
0.5738089 0.42548943 0.82685256 0.37944135 0.55455685 0.75803953 0.8483132 0.6951251
0.6696411 0.6027081 0.39771277 0.48397455 0.41310522 0.31487793 0.5281552 0.6269413
0.5845444 0.83680475 0.8197597 0.4515351 0.5289232 0.4861952 0.74986714 0.31265217

gnn_layers.0.bn.bias f4 [64]
00000000: 11be a43e 60bc 5a3e 0981 253d 3541 12be
00000010: 0cf2 c53e 9f57 d13e d6e1 7a3c 24b6 f23e
00000020: cfb8 253e b789 d43e 18d7 c03e 2b70 88be
00000030: 47eb 683e aa1f 15be 5afb 06be 2e31 dd3e
00000040: e4e3 d03e e692 153e 9e98 0dbd ef26 903d
00000050: 28fe ae3e c22b 1c3e a1d3 563e a751 103e
00000060: 7b44 26bd a05f cd3e 8411 8dbe 9bba cf3e
00000070: 8ee2 503e 3ee4 083e c381 15be b867 93be
00000080: 3f6c 83be 35a8 1a3e c895 9d3e 4751 a63e
00000090: 8a72 fc3d 9c6a 0f3c 28ca cc3e 56ba 0fbe
000000a0: 5bb8 7abe 2dd6 c73e 4b97 973c 00be c93e
000000b0: 9f67 673e 7668 3d3e 83e2 03be 98ff 833e
000000c0: 968a 67be 7bb7 1ebe ce20 b7be 5031 b1be
000000d0: 4508 c13e 3b5d d73e a2ee 993e 0522 1fbe
000000e0: 6b8b 49be ad50 c63d 79d7 e43d de33 c03e
000000f0: 2f2c d03e 2d1a 9e3e 1d9f 1f3e 0eef ae3e
0.3217626 0.21360922 0.04040626 -0.14282687 0.3866123 0.40887162 0.015312633 0.47404587
0.1618378 0.41511318 0.37664104 -0.26648077 0.22746001 -0.1456286 -0.1318182 0.43201584
0.40798867 0.14606819 -0.034569375 0.07038676 0.3417828 0.15251067 0.20979168 0.14093648
-0.04059265 0.4011202 -0.27552426 0.40572056 0.20398924 0.13368317 -0.14600281 -0.2879007
-0.25668523 0.15103228 0.30778337 0.32483885 0.12326534 0.008753445 0.39997983 -0.14035925
-0.24484389 0.3903059 0.01850476 0.3940277 0.22598122 0.1849688 -0.12879376 0.2578094
-0.2261146 -0.1549968 -0.35767215 -0.34607935 0.37701622 0.42063317 0.30064875 -0.15540321
-0.1968209 0.096833564 0.11173911 0.37539572 0.4065871 0.30879346 0.1558804 0.3416676

gnn_layers.0.bn.running_mean f4 [64]
00000000: 7910 99be 8617 a6be b3b6 193e 9717 003f
00000010: d68f a6bd ea0d b4be e3ab 713c 70f2 dcbe
00000020: fa99 fabe de16 b9bc 5745 e1bd 0c9d c43e
00000030: 4705 523d e07a 373e 2121 bc3e cde5 bcbd
00000040: 4db3 c2be 1426 da3d f39c aa3e 5637 9a3e
00000050: 81b3 7fbd 55fd c53e e3d8 24bf 7b22 733e
00000060: 3c85 c13e 2a73 9abe be89 f3be ed61 e83d
00000070: 0ba8 4d3e c124 343e 0117 523e 547d 933e
00000080: 2f5a ab3e c08f 303e 0a0a 96be 98a3 823d
00000090: 28ab 863f f5a1 163e 0b0e ccbe 459e 79bd
000000a0: 3a6b bd3e 3f85 ad3d 8cdb 0d3d 26ef 8abe
000000b0: 4347 05bf 8397 923e 7b40 203f dc18 fdbe
000000c0: 50ed 9bbe 6de6 9a3e 7e98 0e3e aa90 3d3f
000000d0: 0b7f ebbe 7127 0bbf 6f5d acbe 04dd 28bf
000000e0: 2208 b8be bd16 2b3e fb8b 663e 3325 8abe
000000f0: dc0e 8dbe 2a95 95be fb19 5e3e 8690 a23e
-0.2989538 -0.32439822 0.150111 0.50035995 -0.08132903 -0.35166866 0.014750454 -0.43153715
-0.489456 -0.022593912 -0.10999554 0.38401067 0.051274564 0.17917967 0.36744025 -0.092235185
-0.3802742 0.10651794 0.33322868 0.30120343 -0.062427048 0.3866984 -0.6439344 0.23743622
0.37796962 -0.30165988 -0.47566026 0.11346803 0.20083635 0.17592146 0.20516588 0.28806555
0.33467242 0.17242336 -0.29304534 0.06378859 1.0520983 0.14710219 -0.39854464 -0.060941953
0.3699587 0.0847268 0.034633204 -0.2713558 -0.5206186 0.2863122 0.6259839 -0.4943303
-0.30454493 0.30253926 0.13925359 0.74048865 -0.45995364 -0.5435706 -0.33665034 -0.65962243
-0.35943705 0.16707893 0.22514336 -0.26981506 -0.275504 -0.29215366 0.21689598 0.31750888

gnn_layers.0.bn.running_var f4 [64]
00000000: 8555 2b3e 99a6 923e 268b 5f3d 8130 013f
00000010: 9f83 e53c f7bf 6d3e cb8d 0d3c 8b7f d83e
00000020: 7e86 f53e d4ff 033c 023c 1a3d 06ea 903e
00000030: abec d93c b1ab 8a3d 8be0 863e 5b8c 1d3e
00000040: ccf9 893e 3e80 c53d 18b8 743e 8eb7 833e
00000050: 525b 493c 2bb7 ba3e b8d6 573f 5dfd ee3d
00000060: 5b79 c03e cbe9 493e a450 033f 7851 f63d
00000070: 750d c83d c0bc 903d b5d2 bf3d a422 413e
00000080: a373 733e 45a7 8c3d 426d 463e 0578 933d
00000090: fb43 1840 bf0d 463d f2b5 9c3e f608 993d
000000a0: b790 923e 178c 6f3d faf7 483c e4dd 243e
000000b0: 97c0 043f 5316 363e bad1 473f 8415 fd3e
000000c0: 8565 5f3e 801d 473e 31eb 443d 8a60 933f
000000d0: 8599 d83e c852 103f 11af 623e 00c0 6d3f
000000e0: 7196 8d3e 67db 913d 8e29 d53d 2f0d 1c3e
000000f0: 9501 053e dbf8 323e 7ddf c83d 2d25 aa3e
0.16731842 0.2864273 0.05457606 0.50464636 0.028016863 0.2321776 0.008639763 0.42284808
0.47954172 0.0080566 0.037654884 0.28303546 0.02660211 0.06771029 0.26343188 0.15385573
0.26948392 0.09643601 0.23898351 0.2572598 0.012289839 0.3646787 0.8431201 0.11669419
0.37592587 0.19718091 0.5129492 0.12027258 0.09768192 0.07067251 0.09366361 0.1886087
0.2377458 0.06867842 0.19377616 0.07200626 2.3791492 0.048352953 0.30607563 0.07472412
0.28626034 0.05848321 0.0122661535 0.1610027 0.5185637 0.17781954 0.7805439 0.49430478
0.2181607 0.19444847 0.04807586 1.1513836 0.42304626 0.56376314 0.22137095 0.92871094
0.2765384 0.07121926 0.104083166 0.15239404 0.12988885 0.17477743 0.09808252 0.33231488

out_layer.mlp.0.weight f4 [1, 64]
00000000: 6f12 05be 1fdd 5fbc e746 30bd 32d9 39bd
00000010: 1642 ab3d 0222 6a3d b17d 31bd 5c84 313d
00000020: ca66 4a3d b82f 0f3d b910 793d 8d0a 583e
00000030: e7f2 3ebd a603 31bd 4658 be3d 65d6 213d
00000040: c88d 9b3d 3736 4cbd 9636 7bbd 1d60 17bd
00000050: 2c1c 2f3d 758c 65bd 8301 d83d 086b 5abd
00000060: e61d 45bd ca64 533d 38c4 9abd 4989 01bd
00000070: 6718 22bd a0f2 5ebd ca79 3fbd 8f25 7bbd
00000080: 52d8 763d ac27 73bd ff48 8c3d 041b 2abd
00000090: ffce 2fbd b101 48bd f2bb 8e3d 935e be3c
000000a0: 725e 073e 38b3 27bd b620 87bd 44cb 873d
000000b0: 2424 ad3d e9d1 19bd 54cc a53d b173 673d
000000c0: 08cd 90bd 9fc7 973d 597a 623d 14c8 3b3d
000000d0: 3cb6 5f3d 24b7 eabd 2b5b 433d 60e3 bebc
000000e0: 3b4d a1bd 1a61 31bd 3799 40bd efca 9f3d
000000f0: 0058 4b3d f235 05be 6957 2abd 6be1 47bd
-0.12995313 -0.013663559 -0.043036368 -0.04537315 0.08362214 0.05716134 -0.04333276 0.04333912
0.049414434 0.034957618 0.060806964 0.21097775 -0.04661837 -0.04321637 0.092941806 0.039511103
0.07595402 -0.04985639 -0.061331354 -0.036956895 0.042751476 -0.056042153 0.10547163 -0.05332473
-0.048124216 0.05160979 -0.07556957 -0.031625066 -0.039574053 -0.054430604 -0.046747006 -0.061315116
0.060264893 -0.059364006 0.068498604 -0.04152967 -0.042922016 -0.048829738 0.069694415 0.023238456
0.13219622 -0.0409424 -0.06598036 0.06630567 0.08454159 -0.0375537 0.08095613 0.056506816
-0.070703566 0.074111216 0.05529246 0.045845106 0.05461715 -0.114607126 0.047694366 -0.02330178
-0.07876059 -0.043305494 -0.047021117 0.078023784 0.04964447 -0.1300886 -0.041587267 -0.04879896
