pretrained/best_02_16-18_20_30.pt (torch_old, 30900 bytes, 16 tensors)

embedding.weight f4 [79, 64]
0	0xbdce964d	-0.10087261
1	0xbdafd5b5	-0.08585683
2	0xbdc09b32	-0.09404601
3	0xbdc14290	-0.09436524
4	0xbdf52406	-0.119697616
5	0xbdc0257e	-0.09382151
6	0xbdc494c7	-0.095986895
7	0xbe65d268	-0.22443545
8	0xbe63299d	-0.22183843
9	0xbe5c162a	-0.2149283
10	0xbe636d06	-0.22209558
11	0xbe5fd9d6	-0.21860442
12	0xbe6636e1	-0.22481872
13	0x3e078e46	0.13237867
14	0xbe61edcf	-0.22063373
15	0x388a8a73	6.606141e-05
16	0xbe8e4d88	-0.27793527
17	0xbdb140d4	-0.08654943
18	0xbdb7c3ef	-0.08972918
19	0xbdb84d44	-0.08999112
20	0xbe627044	-0.22113138
21	0xbdc5d751	-0.09660209
22	0xbdbee447	-0.09320884
23	0xbde7ae9d	-0.11312602
24	0xbe70fe96	-0.23534617
25	0x3e4c9249	0.19977678
26	0x3e18495e	0.14871737
27	0xbdd9d7d3	-0.10636868
28	0xbe557268	-0.20844424
29	0xbdb0c1c6	-0.08630709
30	0x3e054497	0.13014446
31	0xbdd1c1c5	-0.10242037
32	0x3e06e7be	0.1317434
33	0xbe6297f7	-0.22128282
34	0xbdbcc72b	-0.09217676
35	0xbe5c89c1	-0.21536924
36	0xbe5d421c	-0.2160725
37	0xbe551e9a	-0.20812455
38	0xbdda50ed	-0.106599666
39	0xbe5e25cd	-0.21694107
40	0xbe9524ad	-0.29129544
41	0xbdce915c	-0.10086319
42	0xbdeb742a	-0.11496766
43	0xbe5a9a52	-0.21347931
44	0xbdc0929c	-0.094029635
45	0xbe632bc0	-0.22184658
46	0xbe554b35	-0.2082947
47	0xbdbe25fb	-0.09284588
48	0xbdb80834	-0.089859396
49	0xbdcbfb3a	-0.09960027
50	0x3e8f2414	0.27957213
51	0xbde1ea1e	-0.110309824
52	0xbdb96ffb	-0.09054562
53	0xbdd63550	-0.10459387
54	0xbdb1e11d	-0.08685515
55	0xbe56a26b	-0.20960395
56	0xbe731f1f	-0.2374234
57	0xbe282af0	-0.1642263
58	0xbdbf12d7	-0.09329765
59	0xbe5ce4a3	-0.21571593
60	0xbe789c57	-0.24278389
61	0xbe6a6d1f	-0.22893189
62	0xbe6b42ff	-0.22974776
63	0xbdd74d6a	-0.105128124
64	0xbdd359fa	-0.10319896
65	0xbdbedad4	-0.09319082
66	0xbdc83462	-0.09775616
67	0xbdce53c3	-0.1007457
68	0xbdfa0e16	-0.12209718
69	0xbdc8c6e9	-0.09803564
70	0xbdc56609	-0.09638602
71	0xbe65ec8e	-0.2245352
72	0xbe6300a1	-0.22168209
73	0xbe5c12dd	-0.21491571
74	0xbe635e66	-0.22203979
75	0xbe5ff824	-0.21872002
76	0xbe659f8f	-0.22424148
77	0x3e09656f	0.134176
78	0xbe619064	-0.22027737
79	0xbcc08286	-0.023499738
80	0xbe8e0153	-0.27735385
81	0xbdbb87d7	-0.09156769
82	0xbdbad3e2	-0.09122445
83	0xbdc148ec	-0.09437737
84	0xbe622b82	-0.2208691
85	0xbdcd2493	-0.100167416
86	0xbdc64c9c	-0.09682581
87	0xbdec3ab4	-0.11534634
88	0xbe712a86	-0.23551378
89	0x3e58d775	0.2117594
90	0x3e1faa73	0.15592365
91	0xbdde7d2b	-0.10863718
92	0xbe54fad6	-0.20798811
93	0xbdbe47d5	-0.092910446
94	0x3e0e107d	0.13873477
95	0xbdd8dd49	-0.10589082
96	0x3e081675	0.13289817
97	0xbe62d89f	-0.22152947
98	0xbdc6505d	-0.09683297
99	0xbe5ca3a3	-0.21546797
100	0xbe5d6820	-0.21621752
101	0xbe54f942	-0.2079821
102	0xbde303c9	-0.11084706
103	0xbe5e2878	-0.21695125
104	0xbe951830	-0.29120016
105	0xbdd40fcf	-0.10354578
106	0xbdef1687	-0.116742186
107	0xbe5a5505	-0.21321495
108	0xbdcea3ca	-0.10089834
109	0xbe633bba	-0.22190753
110	0xbe557ee7	-0.2084919
111	0xbdc85d20	-0.09783387
112	0xbdbfa85f	-0.09358286
113	0xbdd1c3af	-0.10242402
114	0x3eb3d492	0.35123116
115	0xbde96a19	-0.1139719
116	0xbdc45af0	-0.095876575
117	0xbddfacbc	-0.10921618
118	0xbdba0d45	-0.09084562
119	0xbe56b7d0	-0.20968556
120	0xbe7329af	-0.2374637
121	0xbe271b3f	-0.16318987
122	0xbdc7f500	-0.09763527
123	0xbe5c9015	-0.21539338
124	0xbe7816fa	-0.24227515
125	0xbe6a0217	-0.2285236
126	0xbe6b5371	-0.22981049
127	0xbddca958	-0.10774487
128	0xbdd3140e	-0.103065595
129	0xbdb6d154	-0.08926645
130	0xbdc6e397	-0.09711378
131	0xbdcb0ed7	-0.0991494
132	0xbdf7d083	-0.12100317
133	0xbdc47683	-0.09592917
134	0xbdc68a57	-0.09694355
135	0xbe65f3b5	-0.22456248
136	0xbe633017	-0.22186314
137	0xbe5bc46d	-0.21461649
138	0xbe638d0c	-0.22221774
139	0xbe5fce63	-0.21856074
140	0xbe66019d	-0.22461553
141	0x3e0a634c	0.13514441
142	0xbe61b94f	-0.22043346
143	0x3a3ffd8c	0.0007323853
144	0xbe8e5267	-0.27797243
145	0xbdb421d6	-0.08795516
146	0xbdbb3df7	-0.09142678
147	0xbdc4aa8e	-0.09602843
148	0xbe625b76	-0.22105202
149	0xbdcb0d06	-0.099145934
150	0xbdcb67c7	-0.09931903
151	0xbdeaf6fb	-0.11472889
152	0xbe712d6a	-0.2355248
153	0x3e5b79ea	0.21433225
154	0x3e22485b	0.15847914
155	0xbddd3d2b	-0.108026825
156	0xbe558aed	-0.20853777
157	0xbdb8c8bd	-0.09022663
158	0x3e0f35d0	0.13985372
159	0xbdd934de	-0.10605787
160	0x3e08f1c7	0.1337348
161	0xbe62c620	-0.22145891
162	0xbdc1188f	-0.09428512
163	0xbe5c9908	-0.21542752
164	0xbe5d932f	-0.21638177
165	0xbe555a1d	-0.20835157
166	0xbddcba69	-0.107777424
167	0xbe5dea5a	-0.2167143
168	0xbe953e4f	-0.291491
169	0xbdd396bc	-0.10331485
170	0xbdee5a23	-0.11638286
171	0xbe5a5be3	-0.21324115
172	0xbdc8325e	-0.09775232
173	0xbe62ffcd	-0.22167893
174	0xbe5549bc	-0.20828909
175	0xbdc31e41	-0.09527255
176	0xbdbfadfb	-0.09359356
177	0xbdd3dafc	-0.10344502
178	0x3eb11996	0.34589833
179	0xbde6a603	-0.11262133
180	0xbdc3c399	-0.09558792
181	0xbde1f0d6	-0.11032264
182	0xbdb866ea	-0.09004004
183	0xbe56d58b	-0.20979898
184	0xbe737222	-0.23774007
185	0xbe279514	-0.16365463
186	0xbdc0e30f	-0.09418308
187	0xbe5cc132	-0.21558073
188	0xbe788a3f	-0.24271487
189	0xbe6a7b7b	-0.22898667
190	0xbe6b14e5	-0.2295719
191	0xbde04b23	-0.10951831
192	0xbdd3bbbe	-0.10338543
193	0xbdbdee0b	-0.09273919
194	0xbdc7d576	-0.09757511
195	0xbdcacf2d	-0.09902797
196	0xbdfadf38	-0.12249607
197	0xbdc5de42	-0.09661533
198	0xbdccb519	-0.09995479
199	0xbe6654a0	-0.2249322
200	0xbe631a7e	-0.22178075
201	0xbe5bb7fd	-0.21456905
202	0xbe635e1d	-0.2220387
203	0xbe5ff38b	-0.21870248
204	0xbe65ecec	-0.2245366
205	0x3e081d84	0.1329251
206	0xbe619edc	-0.22033256
207	0xbd74dde1	-0.059781913
208	0xbe8e201f	-0.2775888
209	0xbdb8fa29	-0.09032089
210	0xbdb9fb34	-0.09081116
211	0xbdc318d5	-0.09526221
212	0xbe62a173	-0.221319
213	0xbdcc2068	-0.099671185
214	0xbdc6650d	-0.09687243
215	0xbde9fe1c	-0.11425421
216	0xbe70d329	-0.23518051
217	0x3e5aa072	0.21350268
218	0x3e1db848	0.15402329
219	0xbddd8b38	-0.108175695
220	0xbe551044	-0.20806986
221	0xbdb8385b	-0.08995124
222	0x3e0a5b89	0.1351148
223	0xbdd6f1cf	-0.1049534
224	0x3e0b5739	0.13607492
225	0xbe62a06d	-0.2213151
226	0xbdc55cf7	-0.09636872
227	0xbe5c700a	-0.21527115
228	0xbe5d8762	-0.21633676
229	0xbe5553a3	-0.20832686
230	0xbddc8d93	-0.10769191
231	0xbe5decf4	-0.21672422
232	0xbe9534c7	-0.29141828
233	0xbdd49ec5	-0.103818454
234	0xbdec7db4	-0.115474135
235	0xbe5a52ef	-0.21320699
236	0xbdc4cd30	-0.09609449
237	0xbe6317b2	-0.22177008
238	0xbe555aa5	-0.2083536
239	0xbdc1c28b	-0.09460934
240	0xbdc296ef	-0.095014445
241	0xbdd2d6d8	-0.102948844
242	0x3eb07197	0.34461662
243	0xbde4ae99	-0.11166114
244	0xbdc5f0cb	-0.09665068
245	0xbde56e86	-0.11202721
246	0xbdbc3c23	-0.09191158
247	0xbe56a7f7	-0.20962511
248	0xbe734c27	-0.23759519
249	0xbe2750f7	-0.1633948
250	0xbdc4555f	-0.09586596
251	0xbe5c939f	-0.21540688
252	0xbe782397	-0.24232326
253	0xbe6a1f37	-0.2286347
254	0xbe6af81c	-0.22946209
255	0xbddcc5e5	-0.10779933

bn_outlayer_in.weight f4 [64]
0	0x4146af08	12.417732
1	0x4147093e	12.439756
2	0x414811a5	12.504308
3	0x41338f17	11.222434
4	0x414732fe	12.449949
5	0x4147f9c5	12.498479
6	0x4146e7bb	12.431575
7	0x41533db7	13.202567
8	0x415192b7	13.098319
9	0x41522ca3	13.135898
10	0x41536947	13.213202
11	0x4152947e	13.161253
12	0x41510516	13.063742
13	0x4147958c	12.47401
14	0x41526338	13.149223
15	0x414fa42e	12.977583
16	0x415abba3	13.67081
17	0x414753e8	12.457985
18	0x414774ce	12.466017
19	0x4145fa7b	12.373652
20	0x4150bf59	13.046716
21	0x41476266	12.461523
22	0x414688b7	12.408378
23	0x41469a8c	12.412731
24	0x41551d25	13.319615
25	0x41481439	12.504937
26	0x414f89b9	12.971124
27	0x41458323	12.344516
28	0x41530a37	13.189994
29	0x41476593	12.462298
30	0x413f953b	11.973933
31	0x4146ebb3	12.432544
32	0x4142dcbd	12.178891
33	0x41527807	13.154304
34	0x41475877	12.459098
35	0x41517240	13.090393
36	0x4152b492	13.169085
37	0x41525d4a	13.147776
38	0x41461381	12.379762
39	0x4151f4bd	13.122251
40	0x4150ee93	13.058246
41	0x41471e31	12.444871
42	0x41465323	12.395297
43	0x4154bbe8	13.295876
44	0x4147b060	12.48056
45	0x4152a7c6	13.16596
46	0x4150b614	13.044453
47	0x4147e70d	12.493909
48	0x4147b268	12.481056
49	0x414705ce	12.438917
50	0x414ca2bb	12.789729
51	0x41468664	12.40781
52	0x4147abfe	12.47949
53	0x4147730c	12.465588
54	0x41476838	12.462944
55	0x41528ce3	13.159396
56	0x41557601	13.34131
57	0x4145cf20	12.363068
58	0x41467b90	12.405167
59	0x41523ee2	13.140352
60	0x4151d47c	13.114376
61	0x4151890e	13.095961
62	0x4150f683	13.060184
63	0x4147b36b	12.481303

bn_outlayer_in.bias f4 [64]
0	0x41310202	11.06299
1	0x4131a72e	11.103315
2	0x41333e37	11.202689
3	0x411e7dae	9.9056835
4	0x4131e5d8	11.118614
5	0x41333bfb	11.202144
6	0x4131df89	11.117074
7	0x41300843	11.002017
8	0x4131b673	11.107043
9	0x4132658b	11.149791
10	0x4130c622	11.048372
11	0x41332cfb	11.198482
12	0x41311b17	11.069114
13	0x412a556b	10.645854
14	0x4132cc10	11.17482
15	0x413ada91	11.678361
16	0x413d3e92	11.827776
17	0x413241cd	11.141065
18	0x4131b7d5	11.107381
19	0x41308282	11.031862
20	0x4130a54c	11.040356
21	0x413269e1	11.150849
22	0x41311ef5	11.070058
23	0x41319598	11.099022
24	0x412e40fb	10.890864
25	0x412ded77	10.870475
26	0x4128e61f	10.556182
27	0x41306787	11.025275
28	0x4133d34e	11.239088
29	0x41324493	11.141742
30	0x4122e256	10.180258
31	0x4131e245	11.117742
32	0x4124c771	10.298692
33	0x4130c510	11.048111
34	0x41320cc7	11.128119
35	0x41316814	11.08791
36	0x41334e1d	11.206571
37	0x41328b64	11.159031
38	0x41310ecd	11.066113
39	0x4132234d	11.133618
40	0x4130ed17	11.057883
41	0x4131e655	11.118733
42	0x413109cd	11.064893
43	0x41317517	11.091086
44	0x4132df04	11.179447
45	0x413327d6	11.197226
46	0x41307b3d	11.030087
47	0x4132f1f4	11.184071
48	0x4132d5e8	11.177223
49	0x4131e7ea	11.11912
50	0x4110bb1e	9.045683
51	0x413158ef	11.084212
52	0x41328467	11.157325
53	0x41324224	11.141148
54	0x41325018	11.144554
55	0x41332674	11.196888
56	0x41303f5c	11.015469
57	0x4130b2cf	11.043654
58	0x41315ea1	11.085603
59	0x4132b241	11.168519
60	0x412e32d4	10.887409
61	0x412dc82c	10.86137
62	0x413125aa	11.071695
63	0x4132db54	11.178547

bn_outlayer_in.running_mean f4 [64]
0	0xbbcd88dc	-0.0062724184
1	0x3d445afc	0.047938332
2	0x3d01b590	0.031667292
3	0x3d9d06d5	0.07667319
4	0xbc97e930	-0.01854381
5	0x3c9c8631	0.019106956
6	0x3be98f96	0.0071277125
7	0xbf95ebb6	-1.1712558
8	0xbf95e49f	-1.1710395
9	0xbf99ef52	-1.202616
10	0xbf9458b1	-1.1589566
11	0xbf9b20df	-1.2119406
12	0xbf9b3d5b	-1.2128099
13	0x3eaa37d2	0.33245713
14	0xbf999783	-1.1999363
15	0x3d9586fa	0.07301135
16	0xbf63ff20	-0.89061165
17	0x3d6e8cf6	0.0582399
18	0x3d6a8d6d	0.05726378
19	0x3d25e5cf	0.040502366
20	0xbf9d23bb	-1.2276529
21	0x3ceef55e	0.029169735
22	0x3cfea58a	0.031084795
23	0xbd5d0da6	-0.053968094
24	0xbf93e936	-1.1555545
25	0x3ecac55b	0.39603695
26	0x3ead179e	0.3380708
27	0x3b188428	0.002327213
28	0xbf94d1c3	-1.1626514
29	0x3d95d90d	0.0731679
30	0x3e9b73ce	0.3036179
31	0xbc83853b	-0.01605474
32	0x3eb562d6	0.35426968
33	0xbf926856	-1.1438091
34	0x3d07e615	0.033178408
35	0xbfa0dc1f	-1.2567176
36	0xbf9dca66	-1.2327392
37	0xbf989e8c	-1.1923385
38	0x3bcad3e6	0.006189811
39	0xbf938362	-1.152447
40	0xbf82d9cc	-1.0222716
41	0xbb41913c	-0.002953603
42	0xbbc0660c	-0.00587154
43	0xbf95133b	-1.1646494
44	0x3d06f397	0.03294715
45	0xbf9b869f	-1.2150458
46	0xbf958194	-1.1680169
47	0x3d105db4	0.035245612
48	0x3d09ab67	0.033610728
49	0xb9d8debe	-0.00041364686
50	0x3c5f25bc	0.013619836
51	0xbd787d6e	-0.060666494
52	0x3d372eb6	0.04472228
53	0x3d6d5d40	0.05795026
54	0x3d6b77fa	0.057487465
55	0xbf90a936	-1.1301639
56	0xbf92a484	-1.1456456
57	0xbf004a49	-0.5011335
58	0x3d1dcbc1	0.038524393
59	0xbf931f89	-1.1493999
60	0xbf8bffd4	-1.0937448
61	0xbf92b689	-1.1461955
62	0xbf8f98da	-1.1218522
63	0xbd1da040	-0.038482904

bn_outlayer_in.running_var f4 [64]
0	0x3f191a66	0.59805906
1	0x3f247b16	0.64250314
2	0x3f2fe234	0.68704534
3	0x3f2b0926	0.66810834
4	0x3f110bd9	0.56658703
5	0x3f3d08e4	0.7384169
6	0x3f1e3045	0.61792403
7	0x3d12fd64	0.035886183
8	0x3d1d76aa	0.038443245
9	0x3d1ae8a5	0.037819523
10	0x3d34e7d6	0.04416641
11	0x3d1d68b1	0.03842992
12	0x3d2102c5	0.03930928
13	0x3d2fb217	0.04289445
14	0x3d1a49a7	0.037667897
15	0x3e290e71	0.16509415
16	0x3ca9ff2e	0.020751562
17	0x3f2a5859	0.6654106
18	0x3f35e6e3	0.7105543
19	0x3f1c9541	0.61165243
20	0x3d21bdcc	0.039487645
21	0x3f3d9d24	0.740679
22	0x3f212d9e	0.6296023
23	0x3f17e553	0.59334296
24	0x3d10621e	0.03524982
25	0x3d7ca888	0.06168416
26	0x3d3c0dcb	0.04591159
27	0x3f21ff27	0.63279957
28	0x3d4e3ce2	0.05035103
29	0x3f2f4b09	0.6847387
30	0x3d129ba7	0.035792973
31	0x3f129408	0.5725713
32	0x3d4a926b	0.04945604
33	0x3d1474a5	0.036244053
34	0x3f2291d2	0.63503754
35	0x3d29330b	0.041308444
36	0x3d9aec1e	0.07564567
37	0x3d56fc0c	0.052486464
38	0x3f391598	0.72298574
39	0x3d10fc91	0.035397116
40	0x3da8d097	0.0824291
41	0x3f1e344b	0.6179854
42	0x3f147475	0.579902
43	0x3d11c805	0.035591144
44	0x3f26c410	0.6514292
45	0x3d1e210d	0.03860574
46	0x3d2b2e3b	0.041792136
47	0x3f25dd37	0.6479067
48	0x3f278efe	0.65452564
49	0x3f20e65b	0.62851495
50	0x3ddfb387	0.10922914
51	0x3f0fa25e	0.5610713
52	0x3f2b97de	0.67028606
53	0x3f2445a8	0.64168787
54	0x3f2e4aec	0.6808307
55	0x3d22cd6e	0.039746694
56	0x3d36f243	0.044664633
57	0x3bd734c6	0.0065675704
58	0x3f25d108	0.6477208
59	0x3d31175f	0.04323518
60	0x3d00264f	0.031286534
61	0x3d5b0b17	0.053477373
62	0x3d06d999	0.03292236
63	0x3f12c229	0.57327515

gnn_layers.0.gnn.att_i f4 [1, 1, 64]
0	0x3dd79393	0.105261944
1	0xbe5cfb88	-0.21580327
2	0x3e936f14	0.28795683
3	0x3e4f2e81	0.20232584
4	0xbe3dfd9d	-0.18553777
5	0x3e091750	0.133878
6	0x3d32485a	0.04352603
7	0x3e3514c7	0.17683707
8	0x3b1e258a	0.0024131262
9	0x3de6b19a	0.112643436
10	0x3dc178ec	0.09446892
11	0x3e9782f6	0.29592103
12	0x3d576cf7	0.05259415
13	0x3e83b8b2	0.2572685
14	0x3d764e1d	0.06013309
15	0x3db54eaa	0.088528946
16	0xbd2cf0af	-0.04222172
17	0xbd2cea12	-0.042215414
18	0xbe750131	-0.23926236
19	0x3e90368c	0.28166616
20	0xbe1cec65	-0.15324552
21	0x3e189b13	0.14902906
22	0x3d77b5df	0.06047618
23	0x3e3e9ca8	0.18614447
24	0xbe97d321	-0.29653266
25	0xbc330b70	-0.01092802
26	0xbe903367	-0.28164217
27	0xbe7ead81	-0.24870874
28	0x3df10739	0.11768956
29	0xbda5d4ab	-0.08097204
30	0x3e5a73a1	0.21333171
31	0x3e5ce32b	0.21571033
32	0x3c40916e	0.011753423
33	0xbda38897	-0.07985037
34	0x3e4df89d	0.2011437
35	0x3e99553c	0.2994784
36	0x3d3bdd77	0.045865502
37	0xbe799a84	-0.2437535
38	0x3df05cd5	0.11736456
39	0xbd6abda9	-0.05730978
40	0xbe5abce8	-0.21361125
41	0x3d6368b3	0.05551977
42	0xbb31ec6d	-0.0027148977
43	0x3c74a7fb	0.014932628
44	0x3e95c8c4	0.29254735
45	0x3e26d328	0.16291487
46	0x3e4e117a	0.20123854
47	0xbbf60db4	-0.0075089578
48	0xbd90d325	-0.070715226
49	0x3dd49893	0.10380664
50	0xbe74a56a	-0.23891225
51	0x3e8dd304	0.27700055
52	0x3ce37983	0.027767902
53	0xbe8e1d5e	-0.2775678
54	0xbe3d94f7	-0.18513857
55	0x3e1fea1a	0.15616646
56	0x3da5a4b7	0.080880575
57	0x3e12120b	0.14264695
58	0xbe9e58a4	-0.30927002
59	0x3c07ef9e	0.008296875
60	0x3e3e7f48	0.18603241
61	0x3e35402f	0.17700265
62	0x3cdbd73a	0.026836026
63	0xbe9edc6f	-0.31027552

gnn_layers.0.gnn.att_j f4 [1, 1, 64]
0	0x3e669de4	0.22521168
1	0x3e01e45a	0.12684765
2	0x3e0e9579	0.13924207
3	0x3e39197c	0.18076128
4	0x3e4f4c1c	0.20243877
5	0xbcf3c812	-0.029758487
6	0x3e70843c	0.23487943
7	0x3e3c84f5	0.18410094
8	0x3cfa7185	0.030571708
9	0xbe84b7ff	-0.25921628
10	0x3e43914d	0.19098397
11	0xbe250ae3	-0.16117434
12	0x3e65ceb8	0.22442138
13	0xbe642790	-0.22280717
14	0xbd3c7fd5	-0.046020348
15	0xbdba3bc2	-0.09093429
16	0xbe6ceb9a	-0.2313675
17	0xbdfe9a06	-0.124317214
18	0x3e52f964	0.20602947
19	0x3ddfb1a8	0.10922557
20	0xbd79dc46	-0.061001085
21	0xbe62a979	-0.22134961
22	0xbe0ea20d	-0.13929005
23	0x3e4fc632	0.2029045
24	0xbe5af514	-0.21382552
25	0xbe901cf2	-0.28147084
26	0xbe12374b	-0.14278905
27	0xbdae12a7	-0.084996514
28	0xbe217137	-0.15765844
29	0x3e151a45	0.14560802
30	0xbca04c0d	-0.019567514
31	0x3e8ce270	0.27516508
32	0xbea7f15f	-0.3280134
33	0xbe19af33	-0.1500824
34	0x3deac9e0	0.11464286
35	0x3e22326b	0.15839545
36	0xbe0ae337	-0.13563238
37	0x3dd4bf0c	0.10388002
38	0xbe16bb58	-0.14719903
39	0xbe64ea88	-0.22355092
40	0x3e05b8a9	0.13058724
41	0x3b95e4a8	0.004574377
42	0xbe58198a	-0.21103492
43	0xbd49cec2	-0.049269445
44	0x3e958c45	0.2920858
45	0x3b794c7d	0.0038039975
46	0xbda08038	-0.07836956
47	0xbce2660e	-0.027636554
48	0xbe53f1aa	-0.20697656
49	0x3e1fcc97	0.15605389
50	0x3d59cb37	0.053172316
51	0xbe21b5e9	-0.1579205
52	0x3d31daf4	0.0434217
53	0x3e08bf5b	0.13354246
54	0x3cc643fc	0.02420234
55	0xbd334173	-0.04376359
56	0xbea42653	-0.3206049
57	0x3c5cdde5	0.013480638
58	0xbd4dca1d	-0.05024158
59	0xbd0b07f3	-0.033943128
60	0xbe7547b7	-0.23953138
61	0x3da5891b	0.080827914
62	0xbe5f7f17	-0.21825825
63	0xbd8af019	-0.06784076

gnn_layers.0.gnn.att_em_i f4 [1, 1, 64]
0	0xbbe60cf0	-0.0070205852
1	0x3c3bb5b2	0.011456894
2	0x3c5d0b32	0.013491439
3	0x3c7d2e26	0.015452897
4	0xbc5d5c32	-0.013510751
5	0x3a60fa42	0.0008582213
6	0x3c744960	0.014910072
7	0xbba31b42	-0.0049776146
8	0xbc8453df	-0.016153274
9	0xbc2f30df	-0.010692804
10	0xb9a0f9f1	-0.000307038
11	0x3c87a60b	0.016558668
12	0xbc4bc8b6	-0.01243799
13	0x3c330207	0.010925776
14	0xbba55efe	-0.0050467243
15	0x3ba92955	0.005162398
16	0x3c61fe48	0.0137935355
17	0xbc621411	-0.0137987295
18	0x3c437bfd	0.011931417
19	0x3c4e7b4f	0.012602641
20	0xbc577a06	-0.013151651
21	0xbbe11217	-0.0068686116
22	0x3c0e8f4f	0.00870116
23	0x3c0c8a4a	0.008577893
24	0x3a8cfda3	0.0010756742
25	0xbc4e088b	-0.012575279
26	0x3c35473a	0.011064345
27	0xbb757be5	-0.003745788
28	0xbb8d11a0	-0.0043050796
29	0xbbe603b0	-0.0070194826
30	0x3c64766c	0.01394425
31	0x3c2994d8	0.0103504285
32	0x3c1535bc	0.00910705
33	0xbaa072d8	-0.0012241257
34	0xbaf7503b	-0.0018868515
35	0x3b8a3233	0.00421741
36	0xbba6d178	-0.0050908886
37	0x3a24778b	0.0006273917
38	0xbc815b5e	-0.015790638
39	0x3c8cafde	0.017173704
40	0xbac5ce4d	-0.001509139
41	0x3bac6527	0.0052610817
42	0x3c32380b	0.0108776195
43	0xbb95df2e	-0.004573724
44	0xbc516efe	-0.01278281
45	0xbb8757bd	-0.0041303323
46	0xbc163335	-0.009167482
47	0x3c0d1458	0.008610807
48	0xbb23c235	-0.0024987583
49	0xbbe52026	-0.006992358
50	0xbc80dd6f	-0.015730588
51	0x3c045719	0.008077406
52	0x3abec53b	0.0014554629
53	0xbafe0307	-0.0019379564
54	0xbb53d563	-0.0032323233
55	0xbbf32bc9	-0.007420991
56	0x3c40efcf	0.011775925
57	0xbc5fb4f9	-0.013653987
58	0x3c74bbf8	0.014937393
59	0xbc9de6b2	-0.019275043
60	0xbbce3962	-0.0062934617
61	0x3be8170f	0.007082827
62	0x3b2d9af7	0.0026490071
63	0x3c9a62c7	0.018845929

gnn_layers.0.gnn.att_em_j f4 [1, 1, 64]
0	0x3ba1deea	0.0049399035
1	0x3ba9561a	0.005167735
2	0x3c8b3c0b	0.016996404
3	0x3d027a63	0.031855
4	0x3c8862bb	0.01664864
5	0x3c4a6a9a	0.012354517
6	0x3c682b12	0.014170425
7	0x3bdcb3db	0.0067353076
8	0xbc5d59bd	-0.013510165
9	0x3bc433d1	0.0059876223
10	0x3ad50931	0.001625335
11	0x3a4993a8	0.0007689544
12	0x3c1c180a	0.009527216
13	0xbc7d862e	-0.015473885
14	0x3c35d180	0.011097312
15	0xbd2ab3d5	-0.041675407
16	0x3a80265f	0.000977706
17	0xbc01397f	-0.007887243
18	0x3c8d705a	0.017265487
19	0x3c083ad2	0.008314805
20	0xbaac48be	-0.0013144237
21	0x3caa8b6c	0.020818435
22	0x3d085d13	0.033291887
23	0x3cca726e	0.024712767
24	0xbb1a7ab6	-0.0023571677
25	0xbc855d30	-0.016279787
26	0xbd4524ed	-0.04813092
27	0x3cc1ab39	0.023641216
28	0x3a2a37b2	0.00064932846
29	0x3c4701dd	0.01214644
30	0x3bf1c3a0	0.0073780566
31	0x3ca06a98	0.019582078
32	0x3c05182c	0.008123439
33	0xbc07c694	-0.008287091
34	0xbbdac0f9	-0.006675836
35	0xbb408d2c	-0.002938102
36	0xbba62397	-0.0050701606
37	0x3c451a02	0.0120301265
38	0xbc00a624	-0.007852111
39	0x3c2da1bb	0.010597642
40	0x3bc48b58	0.0059980564
41	0x3c31c69f	0.010850578
42	0x3cb48c32	0.022039507
43	0x3c076d7b	0.008265848
44	0x3ba3684e	0.0049867993
45	0x3bb9a08f	0.005664892
46	0xbc06294f	-0.00818856
47	0x3a82eeda	0.0009989396
48	0x3c257b01	0.010100127
49	0x3c6f1d98	0.014594458
50	0x3ce258b6	0.027630191
51	0x3c4b1676	0.012395492
52	0x3c8c152f	0.017099945
53	0x3c0e6788	0.008691676
54	0xb9ceff5e	-0.00039481645
55	0xba22c33b	-0.0006208901
56	0x3ba637e9	0.005072583
57	0x3c555ddd	0.013022867
58	0x3cafe2e6	0.021470498
59	0xba81de62	-0.0009908194
60	0x3b78f731	0.0037989134
61	0xbb38cca6	-0.0028198152
62	0x3ae8c963	0.0017760213
63	0x3ca7927d	0.020455593

gnn_layers.0.gnn.bias f4 [64]
0	0xbe25f870	-0.16208053
1	0x3f19d681	0.6009293
2	0x3eda526e	0.42641014
3	0x3da6f115	0.081514515
4	0x3e1d07d8	0.15335023
5	0xbe2e6f4b	-0.17034642
6	0xbea361f6	-0.31910676
7	0xbdb00770	-0.085951686
8	0xbe54537b	-0.2073497
9	0xb93fe8a8	-0.0001830185
10	0x3e98abe0	0.2981863
11	0xbdb0acaa	-0.08626683
12	0x3e144bc8	0.14482033
13	0x3d1c1a8b	0.03811125
14	0xbe36dcfc	-0.17857736
15	0xbd329391	-0.04359776
16	0xbd924379	-0.07141776
17	0xbdd4cb5a	-0.10390349
18	0x3ebb349c	0.36563575
19	0x3d7a7e66	0.0611557
20	0x3e260124	0.16211373
21	0xbbb7e310	-0.0056117848
22	0x3f11ac8b	0.56903905
23	0xbd7fe8f0	-0.062478006
24	0xbdce3e44	-0.1007047
25	0x3d1b1c68	0.037868887
26	0xbec3271f	-0.38115785
27	0x3e4bd03c	0.19903654
28	0x3e047bec	0.12937897
29	0xbe08499f	-0.13309334
30	0xbcc7de86	-0.0243981
31	0xbe07e593	-0.1327117
32	0x3e9a2686	0.30107516
33	0x3d6b5349	0.057452474
34	0x3ecc9cd7	0.3996341
35	0xbc791f9c	-0.01520529
36	0xbea111e8	-0.31458974
37	0xbe324ad1	-0.17411353
38	0xbcc740ed	-0.024322951
39	0x3d8a898b	0.067645155
40	0xbde4ce93	-0.111722134
41	0x3f5736c0	0.84067917
42	0x3db291de	0.08719228
43	0xbddceeb5	-0.10787717
44	0x3e2eac93	0.1705802
45	0x3d67682e	0.056495838
46	0x3e126018	0.1429447
47	0xbe800175	-0.25001112
48	0xbe3f8b38	-0.18705451
49	0x3ecf5ae5	0.40499035
50	0x3da1d76e	0.07902418
51	0xbdb9c38e	-0.09070502
52	0x3d07ea1c	0.03318225
53	0x3ec9ab01	0.39388278
54	0x3d4f6098	0.05062923
55	0xbdc15a97	-0.09441107
56	0x3de62ab8	0.11238617
57	0x3ca6f09a	0.0203784
58	0xbda2d522	-0.07950808
59	0x3db7de0d	0.089779
60	0xbe82bf27	-0.25536463
61	0x3e8164d7	0.25272247
62	0xbdfcb71e	-0.12339614
63	0x3e418d0a	0.18901458

gnn_layers.0.gnn.lin.weight f4 [64, 15]
0	0xbda5fdde	-0.08105062
1	0xbe54b03e	-0.20770356
2	0x3d158cb8	0.036511153
3	0x3e8c22f2	0.2737041
4	0xbcfa181a	-0.03052907
5	0xbe2a27e6	-0.16616783
6	0x3c5289bd	0.012850222
7	0xbe43f271	-0.19135453
8	0x3e5a384e	0.21310541
9	0x3d7af495	0.061268408
10	0x3e85c4ee	0.26126808
11	0x3e07af77	0.13250528
12	0x3de1fb90	0.1103431
13	0x3dd156f4	0.10221663
14	0x3e870bdf	0.26376244
15	0xbe04859f	-0.12941597
16	0xbe06fcb2	-0.13182333
17	0x3e7b85b2	0.2456272
18	0x3e0779b6	0.13230023
19	0x3e8e5391	0.2779813
20	0x3db360d2	0.087587014
21	0x3def7286	0.116917655
22	0x3e38e6f8	0.18056858
23	0x3e3dedc7	0.18547736
24	0x3e1fb150	0.15594983
25	0xbe5c34ee	-0.21504566
26	0x3da6bb32	0.081411734
27	0xbe41ec6e	-0.18937847
28	0x3d08d913	0.033410143
29	0x3e186bf3	0.1488493
30	0xbd51e13d	-0.051240195
31	0x3e8cf79d	0.27532664
32	0x3e8e0238	0.27736068
33	0x3de0587b	0.10954376
34	0xbe32db46	-0.17466459
35	0x3ce373a5	0.027765105
36	0x3e6c894b	0.23099248
37	0x3d7d416c	0.06182997
38	0x3e7c8b9b	0.2466263
39	0x3cc2535d	0.023721391
40	0xbe034258	-0.12818277
41	0x3e38d54f	0.18050121
42	0x3db649d6	0.08900802
43	0x3e191ce1	0.14952423
44	0xbe2bdad4	-0.16782695
45	0xbe2cc1e2	-0.16870835
46	0x3e6121e4	0.21985584
47	0x3e03f71f	0.12887238
48	0x3e6d1422	0.23152211
49	0xbe524ae8	-0.20536387
50	0xbdd3a597	-0.10334318
51	0x3c244b97	0.010027788
52	0xbe0448a7	-0.1291834
53	0x3e38f2aa	0.18061319
54	0x3e63fe9e	0.22265097
55	0x3e789cdf	0.24278592
56	0x3d2d7896	0.042351328
57	0xbe801704	-0.2501756
58	0xbdc824a0	-0.09772611
59	0x3d8511d3	0.0649754
60	0xbd06b832	-0.032890506
61	0x3e1e7660	0.15474844
62	0xbd292548	-0.04129532
63	0x3e838f01	0.2569504
64	0x3e86aa24	0.26301682
65	0x3e971489	0.29507855
66	0x3ddebc04	0.10875705
67	0xbe2ffbfc	-0.17185968
68	0xbd78e84b	-0.060768407
69	0xbe0ed53a	-0.13948527
70	0x3e05084d	0.12991448
71	0xbc8fad39	-0.017538654
72	0x3ded76dc	0.11594936
73	0x3db21b22	0.086965814
74	0xbd9b188e	-0.07573043
75	0x3d08db0b	0.03341202
76	0xbd3ebaec	-0.04656498
77	0x3d3238f1	0.043511335
78	0xbe3dac63	-0.18522792
79	0x3bc35b65	0.005961823
80	0x3e541bd9	0.20713748
81	0x3e0c5228	0.13703215
82	0xbe39bd46	-0.18138608
83	0x3e61c3f9	0.22047414
84	0xbde6a3fb	-0.112617455
85	0x3e77c897	0.24197613
86	0xbd7e18c7	-0.06203535
87	0x3e8564e5	0.2605354
88	0x3e1d0ca3	0.15336852
89	0xbd03ec27	-0.032207634
90	0x3e67b553	0.22627763
91	0x3e8a9425	0.2706615
92	0xbe3baf7a	-0.18328658
93	0x3da45043	0.08023121
94	0x3e5b33e4	0.21406513
95	0xbba98f09	-0.005174522
96	0x3e468c00	0.19389343
97	0x3e6cce16	0.2312549
98	0xbe5340be	-0.20630166
99	0x3e23881e	0.15969893
100	0xbe7c9bf0	-0.2466886
101	0x3e385378	0.18000591
102	0xbe1684fb	-0.14699166
103	0xbda248a8	-0.07924014
104	0x3d997ba8	0.07494289
105	0xbe8b324d	-0.27186814
106	0xbd14aed6	-0.03629955
107	0xbdec542f	-0.11539494
108	0x3d963eea	0.07336219
109	0xbc8a4049	-0.016876357
110	0xbe6fa9d6	-0.23404631
111	0xbd0dbd86	-0.03460457
112	0x3da889ed	0.08229432
113	0x3e4e632c	0.20155019
114	0xbdb364e6	-0.08759479
115	0xbdaed710	-0.08537114
116	0x3e5e3838	0.21701133
117	0xbd8d3e0b	-0.068965994
118	0xbbc685a3	-0.006058411
119	0xbe300a84	-0.17191511
120	0xbe37fa3b	-0.17966549
121	0xbe9e43da	-0.30911142
122	0xbd711fbd	-0.05886816
123	0x3dff9d0a	0.12481125
124	0x3d297f6c	0.041381285
125	0xbe86debd	-0.2634181
126	0x3e5a6746	0.21328458
127	0xbe8766ea	-0.26445705
128	0xbdde7d2a	-0.10863717
129	0x3e1d6fa1	0.15374614
130	0x3e166d38	0.14690101
131	0x3e47d3f3	0.19514446
132	0x3bf2e301	0.007412315
133	0xbe012a6d	-0.1261384
134	0xbe2c19cd	-0.16806717
135	0xbd3217a5	-0.04347958
136	0xbea2fd80	-0.3183403
137	0xbe6bbc8c	-0.23021144
138	0x3e0a99a1	0.13535167
139	0xbd9fab9a	-0.07796402
140	0x3d85f8bf	0.06541585
141	0xbe7283b4	-0.23683053
142	0x3c9ed5ec	0.019389115
143	0x3e74def7	0.2391318
144	0x3d670074	0.056396917
145	0x3d8b802c	0.06811556
146	0xbe08eab9	-0.1337079
147	0xbe2438a2	-0.16037229
148	0x3e42ef2c	0.1903655
149	0xbe6436b8	-0.22286499
150	0xbd5d6472	-0.05405087
151	0xbe7a4cf6	-0.24443421
152	0x3b73315d	0.003710828
153	0xbe8881b0	-0.26661444
154	0x3dd4906a	0.10379107
155	0x3d0c4900	0.034249306
156	0xbe0a8514	-0.13527328
157	0xbd3a11b8	-0.045427054
158	0xbd23b29d	-0.03996526
159	0xbd4636e4	-0.04839219
160	0x3c2428e9	0.010019519
161	0x3e05e6e8	0.13076365
162	0xbdb6303f	-0.08895921
163	0x3e02b98a	0.1276609
164	0xbe3a927d	-0.18219943
165	0x3e0e0655	0.13869603
166	0xbe8a8ae3	-0.27059087
167	0x3cdcd9bb	0.02695929
168	0xbe853a11	-0.26020864
169	0xbe74efec	-0.23919648
170	0xbd93ae97	-0.07211035
171	0xbe323845	-0.17404278
172	0xbdb458b7	-0.088059835
173	0xbe0157c7	-0.1263114
174	0xbda44f43	-0.080229305
175	0xbe63a141	-0.22229482
176	0x3e73c7f7	0.2380675
177	0x3dd2eaa4	0.102986604
178	0xbe334d7c	-0.17510027
179	0x3dc291f1	0.09500492
180	0xbe116916	-0.14200243
181	0xbe7806d1	-0.2422135
182	0x3d81be0c	0.06335077
183	0xbdfc1eb4	-0.12310544
184	0x3e2f8dce	0.17143938
185	0xbdcdfa22	-0.10057475
186	0xbe77bb2f	-0.24192499
187	0x3e4770b6	0.1947659
188	0x3d18a4e0	0.037266612
189	0x3d92bb4f	0.071646325
190	0xbc2c6847	-0.0105229085
191	0xbe3b232f	-0.1827514
192	0x3decc935	0.11561815
193	0x3cdf5497	0.027262015
194	0xbe257134	-0.16156465
195	0x3de84b62	0.11342503
196	0xbe97dcd8	-0.29660678
197	0xbe5285dc	-0.20558876
198	0xbdc63455	-0.0967795
199	0xbe91e54b	-0.2849525
200	0xbe8b1655	-0.27165475
201	0xbdd15571	-0.10221375
202	0xbd8f8cb6	-0.0700926
203	0x3e409beb	0.18809478
204	0x3df1d4ce	0.118081674
205	0x3e7f0768	0.24905169
206	0x3da0f129	0.07858498
207	0x3cf78a35	0.03021727
208	0xbd7338a4	-0.05938019
209	0xbdf8ca99	-0.121480174
210	0xbeb9eb32	-0.36312252
211	0xbea99b16	-0.33126134
212	0x3d295efa	0.041350342
213	0xbe3f9dd9	-0.18712558
214	0xbdee94c3	-0.11649468
215	0x3defb15f	0.11703753
216	0xbe32c0ba	-0.17456332
217	0x3da97937	0.08275073
218	0xbc081e4f	-0.008308007
219	0x3de7685f	0.11299204
220	0xbcf74dc9	-0.030188458
221	0x3e8df1a0	0.27723408
222	0xbe317704	-0.17330557
223	0xbe974b6b	-0.29549727
224	0x3c04cb5a	0.008105123
225	0xbe4e50e7	-0.2014805
226	0x3e7ca05a	0.24670544
227	0x3dde685d	0.108597495
228	0x3ddd339d	0.1080086
229	0xbce01f09	-0.027358549
230	0x3d7c461a	0.06159029
231	0x3daddf62	0.084898725
232	0xbdde27be	-0.10847424
233	0x3e5c935d	0.2154059
234	0x3e416062	0.18884423
235	0x3d00cc47	0.031444814
236	0x3dc55e3e	0.09637116
237	0xbc52d2e6	-0.012867665
238	0xbdabc00b	-0.08386239
239	0xbe4a8998	-0.1977905
240	0xbe1a042a	-0.15040651
241	0xbe9e35a2	-0.30900294
242	0xbe08b7ae	-0.13351318
243	0x3dc2adea	0.09505828
244	0x3e5d94d4	0.21638805
245	0xbe9bdb32	-0.3044067
246	0xbe91a40d	-0.28445473
247	0x3e28bc0b	0.16477983
248	0xbe29d068	-0.16583407
249	0xbd9b3da1	-0.07580114
250	0x3db409e1	0.08790947
251	0x3e195eb8	0.14977539
252	0x3a461ea5	0.0007557667
253	0xbd36fe9a	-0.0446764
254	0xbe03f2e4	-0.12885624
255	0x3c7abd74	0.015303958

gnn_layers.0.bn.weight f4 [64]
0	0x404c3026	3.1904387
1	0x4056c645	3.3558514
2	0x404673c2	3.1008153
3	0x40321e3b	2.7830951
4	0x4048e8a3	3.139199
5	0x403b1bbf	2.9235685
6	0x404b0b2f	3.1725576
7	0x3f5a618c	0.85305095
8	0x3f49731a	0.78691256
9	0x3f68d68c	0.9095237
10	0x3f331025	0.6994651
11	0x3f64cce5	0.89375144
12	0x3f58ccdb	0.84687585
13	0x40abf200	5.373291
14	0x3f67a79a	0.90490115
15	0x40830ffc	4.095701
16	0x3fae79a0	1.3630867
17	0x4052013a	3.2813249
18	0x404266aa	3.037516
19	0x404c4650	3.1917915
20	0x3f63bd04	0.8896029
21	0x40449e3b	3.0721576
22	0x403f3734	2.9877443
23	0x40420317	3.0314386
24	0x3f45b098	0.77222586
25	0x40832733	4.098535
26	0x40812d79	4.036801
27	0x40413322	3.018746
28	0x3f27d492	0.6555873
29	0x404d9aad	3.2125657
30	0x40cde3ca	6.4340563
31	0x4042b697	3.0423944
32	0x40b10841	5.5322576
33	0x3f44b57c	0.76839423
34	0x404b961a	3.1810365
35	0x3f726bea	0.94695914
36	0x3ed7626d	0.4206728
37	0x3f1fe82a	0.6246363
38	0x4040a3ae	3.0099902
39	0x3f536f52	0.82591736
40	0x3e95f5a6	0.29288977
41	0x403ccaff	2.94989
42	0x4041b292	3.026524
43	0x3f5ddcf0	0.8666525
44	0x40464526	3.0979705
45	0x3f66770f	0.9002542
46	0x3f43e1f4	0.7651665
47	0x40467236	3.100721
48	0x40483734	3.1283693
49	0x4049f8c6	3.155809
50	0x401fe6d1	2.498463
51	0x4044303c	3.065444
52	0x404e4bf1	3.223385
53	0x4058ba61	3.3863757
54	0x404d2b06	3.205751
55	0x3f387aa6	0.72062147
56	0x3f16cb3d	0.58903867
57	0x401f6efd	2.4911492
58	0x4049152e	3.1419177
59	0x3f2b205e	0.66846263
60	0x3f76aabb	0.96354264
61	0x3ee16219	0.44020155
62	0x3f82fa40	1.023262
63	0x40423a0a	3.0347924

gnn_layers.0.bn.bias f4 [64]
0	0x40108060	2.2578354
1	0x3ff9419f	1.9473151
2	0x40027d15	2.0388844
3	0x3fbaa23b	1.4580759
4	0x40065f54	2.0995684
5	0x400adf90	2.1698952
6	0x400df5ce	2.2181277
7	0x40a4c04c	5.1484737
8	0x40a768b7	5.2315326
9	0x40b0dc9f	5.5269313
10	0x40a6adf7	5.208736
11	0x40af07c7	5.4696994
12	0x40aaf1a2	5.341996
13	0x3ffeb0ee	1.9897745
14	0x40abe400	5.371582
15	0x3f6cee3d	0.9255102
16	0x403c6ecd	2.9442627
17	0x3fecdd74	1.8505082
18	0x3fea1aea	1.8289464
19	0x3ff3a01d	1.9033238
20	0x40af794b	5.4835563
21	0x40048ca1	2.0710833
22	0x3ff794f0	1.9342327
23	0x401f811c	2.4922552
24	0x409b4891	4.852608
25	0x3fc516ab	1.5397543
26	0x3ffedb0e	1.99106
27	0x4005d5e4	2.0911798
28	0x40b37634	5.608179
29	0x3fd7804e	1.683603
30	0x3fa9e4a8	1.3272905
31	0x400f75fa	2.2415757
32	0x400d2e5f	2.2059553
33	0x40a3f574	5.1237125
34	0x3fff8bfd	1.9964596
35	0x40b85b87	5.761173
36	0x40ba5748	5.8231544
37	0x40b8a0e5	5.7696404
38	0x400a4899	2.160681
39	0x40a8356e	5.256522
40	0x4066df11	3.607365
41	0x400af322	2.1710896
42	0x40022b14	2.0338793
43	0x40ac981d	5.3935685
44	0x3ffc159e	1.9694097
45	0x40ace74b	5.403234
46	0x40b2960a	5.5808153
47	0x3ffcb925	1.9744002
48	0x4001c510	2.0276527
49	0x400f1e83	2.2362373
50	0x3fa7227d	1.30574
51	0x40222c78	2.5339642
52	0x3ff6d424	1.928349
53	0x3fd6cc40	1.6781082
54	0x3feb5f68	1.8388491
55	0x40abd0d1	5.3692403
56	0x409a7e78	4.827938
57	0x401fdf91	2.4980204
58	0x3ff7e3c8	1.9366388
59	0x40aac349	5.3363385
60	0x408c7f99	4.390576
61	0x40a2811d	5.078261
62	0x40986ce9	4.7632947
63	0x401b0a8f	2.4225194

gnn_layers.0.bn.running_mean f4 [64]
0	0x468d0fbe	18055.871
1	0x46ae8cc9	22342.393
2	0x46cd353a	26266.613
3	0x460a8a4e	8866.576
4	0x469b8bb8	19909.86
5	0x4673d187	15604.382
6	0x4687f95d	17404.682
7	0xc645db76	-12662.865
8	0xc653ab91	-13546.892
9	0xc667b4ec	-14829.23
10	0xc6781f57	-15879.835
11	0xc6c55b13	-25261.537
12	0xc6398583	-11873.378
13	0xc682bf48	-16735.64
14	0xc6ba063a	-23811.113
15	0x46371156	11716.334
16	0xc69d4d60	-20134.688
17	0x4648fd1e	12863.279
18	0x46d74166	27552.7
19	0x4670436d	15376.856
20	0xc6d0e5f5	-26738.979
21	0x45e4655e	7308.671
22	0x45cf0beb	6625.4897
23	0x464885b9	12833.431
24	0xc636f4fa	-11709.244
25	0xc64c4b12	-13074.768
26	0xc6a8e02a	-21616.082
27	0x46aadc12	21870.035
28	0xc68a0e55	-17671.166
29	0x46932997	18836.795
30	0xc6e850f5	-29736.479
31	0x4618508f	9748.14
32	0xc64bd376	-13044.865
33	0xc6cc51f0	-26152.969
34	0x46ab7266	21945.2
35	0xc64699bb	-12710.433
36	0xc6ab9e64	-21967.195
37	0xc6f3c9db	-31204.928
38	0x46001f2b	8199.792
39	0xc63eeddf	-12219.468
40	0xc6978514	-19394.54
41	0x46ac0dbf	22022.873
42	0x46a38fe1	20935.94
43	0xc68f3b21	-18333.564
44	0x46bfd4e8	24554.453
45	0xc63d3178	-12108.367
46	0xc65d7253	-14172.581
47	0x46992114	19600.54
48	0x461cae75	10027.614
49	0x46836008	16816.016
50	0x46ddcc5f	28390.186
51	0x46398b35	11874.802
52	0x46c1ab7e	24789.746
53	0x460d5d58	9047.336
54	0x4696066d	19203.213
55	0xc6d16724	-26803.57
56	0xc65bfddb	-14079.464
57	0xc7041ba8	-33819.656
58	0x462a98e3	10918.222
59	0xc6c51820	-25228.062
60	0xc67632c3	-15756.69
61	0xc5c29a45	-6227.2837
62	0xc673c22a	-15600.541
63	0x4637d1a4	11764.41

gnn_layers.0.bn.running_var f4 [64]
0	0x4f87152d	4.532624e+09
1	0x4fced63b	6.9402926e+09
2	0x500ef2f1	9.593144e+09
3	0x4e824c70	1.0930237e+09
4	0x4fa441a7	5.511532e+09
5	0x4f49cb9f	3.385565e+09
6	0x4f7b0a49	4.2117553e+09
7	0x4f04dfb0	2.229252e+09
8	0x4f18187a	2.551741e+09
9	0x4f363b99	3.057359e+09
10	0x4f50f972	3.5060086e+09
11	0x500433f3	8.871988e+09
12	0x4ee9ab34	1.9601556e+09
13	0x4f681696	3.8937943e+09
14	0x4feae6b7	7.8819773e+09
15	0x4ee38e10	1.9088691e+09
16	0x4fa7f9b5	5.6363197e+09
17	0x4f092510	2.3009075e+09
18	0x501d4573	1.0554297e+10
19	0x4f43f7f3	3.2878067e+09
20	0x5014213a	9.940822e+09
21	0x4e310fd2	7.42651e+08
22	0x4e117e99	6.1024826e+08
23	0x4f087a62	2.2897219e+09
24	0x4ee343b1	1.9064321e+09
25	0x4f0dabab	2.376838e+09
26	0x4fc19c21	6.4964695e+09
27	0x4fc62f42	6.6499717e+09
28	0x4f816266	4.341419e+09
29	0x4f930a07	4.933816e+09
30	0x5037349c	1.2294713e+10
31	0x4e9d823d	1.3212791e+09
32	0x4f0d05b0	2.3659602e+09
33	0x500db7a4	9.51049e+09
34	0x4fc78be1	6.695666e+09
35	0x4f05e0ce	2.2461025e+09
36	0x4fc7f326	6.709202e+09
37	0x5049b8fc	1.3537374e+10
38	0x4e5ee443	9.348753e+08
39	0x4ef7758a	2.0758377e+09
40	0x4f9bda0a	5.229516e+09
41	0x4fc8f74e	6.743301e+09
42	0x4fb5a0e7	6.094442e+09
43	0x4f8b45b6	4.673203e+09
44	0x4ff9cf36	8.382213e+09
45	0x4ef3039e	2.0385503e+09
46	0x4f267b10	2.793083e+09
47	0x4f9f328f	5.3417815e+09
48	0x4ea6ad74	1.3981926e+09
49	0x4f6a5663	3.93153e+09
50	0x5026f83b	1.1205144e+10
51	0x4ee9b91c	1.9606113e+09
52	0x4ffea2a0	8.5441413e+09
53	0x4e87a8fb	1.1379992e+09
54	0x4f98d3d2	5.1280374e+09
55	0x5014d7e1	9.988703e+09
56	0x4f244461	2.7559447e+09
57	0x506cf732	1.5902493e+10
58	0x4ec59460	1.6574177e+09
59	0x5003d8ab	8.848059e+09
60	0x4f4dba58	3.4515415e+09
61	0x4e008bdc	5.391624e+08
62	0x4f49ac41	3.3835092e+09
63	0x4ee56813	1.9244015e+09

out_layer.mlp.0.weight f4 [1, 64]
0	0x412efca7	10.936683
1	0x412ea7c8	10.915962
2	0x412ce50c	10.80592
3	0x411d0fed	9.816388
4	0x412e6341	10.899232
5	0x412ca78c	10.790905
6	0x412dd5f7	10.8647375
7	0x413b79d4	11.717243
8	0x413961f8	11.586418
9	0x4138c171	11.547227
10	0x413c196e	11.756208
11	0x413824a3	11.5089445
12	0x4139b542	11.606752
13	0xc1376a82	-11.463503
14	0x4138554b	11.5208235
15	0x413da3fd	11.852536
16	0x41452434	12.321339
17	0x412e4308	10.891365
18	0x412e12ac	10.879559
19	0x412f932b	10.97343
20	0x413a4e48	11.644112
21	0x412d3635	10.825734
22	0x412e5ef4	10.898182
23	0x412e251a	10.884058
24	0x413ccb33	11.799609
25	0xc131eacc	-11.119823
26	0xc13ed512	-11.927019
27	0x412ecb80	10.924683
28	0x4137a04b	11.476634
29	0x412e04b4	10.876148
30	0xc1285e6a	-10.52305
31	0x412e6f03	10.902102
32	0xc131b9ae	-11.107832
33	0x4139ab3a	11.604303
34	0x412eb644	10.919498
35	0x4139c975	11.611684
36	0x4137fb26	11.498816
37	0x4138b5af	11.544356
38	0x412e32c6	10.887396
39	0x4138fcaf	11.56169
40	0x4139c721	11.611115
41	0x412de2ff	10.867919
42	0x412e4f7e	10.894407
43	0x413c2303	11.758548
44	0x412d4e0f	10.831557
45	0x4137fdf9	11.499505
46	0x413a81cd	11.65669
47	0x412d60bf	10.83612
48	0x412d4bba	10.830988
49	0x412e3341	10.887513
50	0xc133340d	-11.200208
51	0x412ea041	10.9141245
52	0x412dd4f7	10.864493
53	0x412e1e1b	10.88235
54	0x412dea82	10.869753
55	0x41383cad	11.514813
56	0x4135ff8e	11.374891
57	0x412ec81b	10.923854
58	0x412e8fce	10.910109
59	0x4138b632	11.544481
60	0x413a35eb	11.638164
61	0x41397255	11.590413
62	0x4139c8f7	11.611564
63	0x412d8217	10.84426
